saves/week_40_2_fine_rev_model.pth (torch, 12435 bytes, 4 tensors)

gnn.attn_l f4 [1, 1, 50]
00000000: 31b5 7abe 2f29 14be e74e b4be 3921 4fbe
00000010: 833c 12bd a935 073d a86b 513e 244c 43be
00000020: c1e0 41be d405 e43e 2d23 7cbc f973 03bd
00000030: 1cae acbc 9365 e1be 1d2e 313f d38a 7a3e
00000040: 9ba8 81bc f287 f63c b06c edbd e767 e9bc
00000050: 6c40 563f d2b1 94be 61c4 a43c 42e3 88be
00000060: f208 ff3d 8a6d e83e 862c d03e 98af 74be
00000070: 8336 513e 019d 073e 034d f0be 7e7c a13d
00000080: 67b7 933e 6e69 3f3c 8f48 8ebd f78f febd
00000090: 6bdd f93e cf31 53be 4d05 1bbf 7e2c be3c
000000a0: 6ab1 bc3e 03b1 913d 979e aa3d e4ba ca3e
000000b0: f7ff bcbd c85b 0dbf 0f68 e0be dd83 36bf
000000c0: 3ca1 52be 43ee a3be
-0.24483182 -0.14468835 -0.35216448 -0.20227517 -0.03570224 0.03301016 0.20451224 -0.19072014
-0.18933393 0.44535697 -0.015389246 -0.032093022 -0.021079116 -0.44022807 0.6921099 0.2446702
-0.015827468 0.03009412 -0.11592996 -0.028491927 0.8369205 -0.29041916 0.020113172 -0.26735884
0.12452878 0.45396072 0.4065897 -0.23895109 0.20430951 0.13243486 -0.46933755 0.07885073
0.28850862 0.011682851 -0.06947433 -0.12429803 0.4880174 -0.20624469 -0.60554963 0.023214575
0.36854106 0.071138404 0.0833103 0.3959571 -0.09228509 -0.5521817 -0.4382939 -0.7129496
-0.20569319 -0.32017717

gnn.attn_r f4 [1, 1, 50]
00000000: cfcd 0b3f 9ef8 98be ee19 083f 8297 513e
00000010: 0f77 99be 8b6e 19be c971 673e 445c d43e
00000020: acc8 aa3f 0fb9 8f3b 918f 4cbf f781 aebd
00000030: 1de6 973e dd8b 4e3f 1000 ec3e ad00 f83d
00000040: 6041 20bf 8da4 04be 0f2b 3abf a3c7 6a3e
00000050: 7aef 123f 3ebf 853e e543 3bbd 0c59 953f
00000060: 58ab c33e ce37 fcbe feac 873d f12f 003e
00000070: 3c93 4a3e b623 8abe b3a9 a3bf 50ff 57bf
00000080: 33dd 2a3f e626 173f b72f 643e 98cb a53e
00000090: 5865 033f eb05 80be 39dc 80be d0df bbbe
000000a0: 7b7a 4ebf d2cb 11bb 2097 5cbe d314 12bf
000000b0: 8c19 1b3d 3481 9f3e dd58 ee3d 3e22 04be
000000c0: d405 2e3e 4c69 eebe
0.54610914 -0.2987718 0.53164566 0.20467952 -0.29973647 -0.14983575 0.22602 0.41476643
1.334249 0.0043860744 -0.79906565 -0.085208826 0.2966775 0.80682164 0.46093798 0.12109504
-0.62599754 -0.12953396 -0.7272195 0.22927718 0.5739666 0.2612247 -0.045719046 1.16678
0.38216662 -0.49261326 0.066247925 0.12518288 0.19782728 -0.2698037 -1.2786163 -0.8437395
0.66743773 0.5904373 0.22283827 0.32381892 0.51326513 -0.25004515 -0.25168017 -0.36694193
-0.8065564 -0.002224673 -0.21542025 -0.57063025 0.03786616 0.31153262 0.11638043 -0.12903687
0.16994411 -0.4656471

gnn.bias f4 [50]
00000000: 2c8f bc3b bcf5 63be 6e41 013e b8d3 ebbd
00000010: 421d 603d 8626 553e cd74 8f3d cb72 a6bd
00000020: 29b6 91be 5d7e 4d3d 6651 c3bd 7cdf bd3c
00000030: 3851 d13c 21a3 efbc 6e17 acbd eaa2 20bd
00000040: a4f1 e3bd e75f 8f3d f010 d43c d6e4 95bc
00000050: 2a2f 973e 36cd 2b3d 7deb 933d b5eb 8dbd
00000060: b168 103e ac93 dd3d bd31 2dbd 604a 0ebd
00000070: 40c6 693c 9c34 25be 576c dabd f5e7 db3d
00000080: ed2e 6abe b6d5 c13d 07c0 b4be 41e1 d7bd
00000090: 05c8 f6bc cd86 593d 6240 febc 4531 62bd
000000a0: f06f 053e 17d6 ce3c e24a 803d 0f37 2ebc
000000b0: efc0 413d 436e 2e3e c4a5 32be f66d 5fbe
000000c0: ac6b 123e e8ab 0c3d
0.005754372 -0.22261709 0.12622616 -0.115149915 0.054715402 0.20815477 0.070047 -0.08127364
-0.2845929 0.050169338 -0.0953701 0.023177855 0.025551423 -0.02925259 -0.08402906 -0.039217867
-0.11130074 0.07000714 0.025886983 -0.018297594 0.2952817 0.04194375 0.0722265 -0.06929723
0.14102437 0.10819182 -0.042283762 -0.0347389 0.014268458 -0.1613335 -0.106651954 0.10737602
-0.22869463 0.0946459 -0.35302755 -0.10541011 -0.030124674 0.05310707 -0.03103656 -0.05522277
0.13030982 0.02524857 0.06264283 -0.010633244 0.047303136 0.17034249 -0.17446047 -0.2181929
0.14298886 0.03434363

gnn.fc.weight f4 [50, 50]
00000000: ac30 68bd 521d 58bd 895a e2be 0216 0bbd
00000010: 7d9d 023e d9b6 783c a47d cc3c 6dd0 92bb
00000020: 4a37 c3bd 1145 0fbe 4680 8dbe 0785 023f
00000030: 13aa 973e 7066 40bd 59fc 01be 6848 96be
00000040: a2c1 393e 6a7c 8abe a63c 7f3d 0045 173d
00000050: 41f2 9d3e f085 823d 276e 5d3e 569a 073f
00000060: 35f4 0abe 7907 80be de86 26be 8705 5e3e
00000070: ac51 04be 2e60 593e f7a3 41be ca8b 373e
00000080: a573 76bd 644d d13d 6a1f f63d 3e6f 3bbe
00000090: a694 ce3e a0ca 01be 2ff2 66be 00b1 70be
000000a0: 0c9e 35bd 09eb 383c 6e8f a93d bef2 9ebd
000000b0: 9afe 8a3e e118 823e 5f53 e3bd 13c4 5b3e
000000c0: b44b d7bd 4e59 6dbe 1737 82bb 2018 cabe
000000d0: 1343 0ebf 2920 643e fcb8 723e 43fd 653f
000000e0: 1215 1d3f 9246 3f3d d58d d0be a89c eabe
000000f0: a049 7d3e ed1a b4be 1dd8 af3d 4f2d 1d3e
00000100: 7b97 4abe cb5e 05bf fcc0 9f3e b52a 713e
00000110: 5865 033c 07a9 f7be 7430 bdbe 9401 05bf
00000120: a2e8 e6bd 55d5 143e 2f0b 9ebd 88d7 303e
00000130: eb39 ffbc d71e b8bb 88db 1cbf 7c95 60be
00000140: 42df c0bd b09a 6ebc 255f 23be 5ab5 623d
00000150: 90da b13e 2f98 a73e f3f5 95bd e95e 89bd
00000160: 1048 4dbe 4cc3 623d 6bcc 2d3e 0d69 1dbe
00000170: 4b34 cf3e 8d79 393d eade 22be ad27 0bbd
00000180: 4112 88bd 08df c43c c55b debe e608 03bf
00000190: d9ea c83e 6cfe ecbd 0b97 713d ebe6 43bd
000001a0: 9a8e 873d 9277 a43e c322 65be 22cc babd
000001b0: abd5 00bd 6621 cbbd c0c3 403e 9c1b 22be
000001c0: a261 803e d67c 74bd 7801 02be dba6 0bbf
000001d0: ecde a03e 8637 11be 071e 75be d185 8cbe
000001e0: 0108 863e 9980 0b3e 091d 5d3e f1e9 0e3e
000001f0: a67a 903e 22fc da3e 707a 1c3e 0f6e 283e
00000200: 0053 823e 793f cc3b d52f 52be a404 393e
00000210: 5e82 993c 5eb5 c2bd f1cc 1cbe 733c 293e
00000220: dd0d 993e 4030 793c 2895 ab3d e3ac ea3e
00000230: 5a83 1f3e 7536 15be c33f 42be 5716 d23d
00000240: 09c1 85be b651 e83d 82c1 b43c 5372 31be
00000250: c0ea 8cbd 1c98 b63d f729 14be 3108 943c
00000260: dbe5 afbe 5b76 0bbf 7af0 c83d bf32 abbc
00000270: 08e6 8a3e 12e3 ee3e a583 853e c30b 62be
00000280: abeb e23d 0476 6b3e 2f03 fbbe 2816 28bd
00000290: 2b51 873e ef1d b93d 3a21 a0bd 641c 1abf
000002a0: 66c8 e5be 9af4 2e3e c2b7 363e bf20 813e
000002b0: d919 dcbe 2986 023e ee2b c93d 9941 debd
000002c0: 5a2d 9b3e d111 403e a9fc b6bd 0452 313e
000002d0: 2bc8 25bd 4464 08bf d23c b1bd ce35 12be
000002e0: 3eb4 cfbd 595d b8bc c24b 413e 5799 6d3e
000002f0: bda9 b7bd 194f 0cbe 14da 903e 8a18 8d3b
00000300: 4bb9 a0be 9299 25bf c23f dcbe 1180 16be
00000310: 7638 92be fceb 293e 3f4b 0e3d 59b3 893d
00000320: a675 d73e 2f37 6abe 567d 8ebb 5979 10be
00000330: 73b3 06be 3afa a3bc 45a2 47be 591e c23d
00000340: d7f5 48be 3adc 163e 6db9 30be b246 0f3f
00000350: ef70 06bf 2177 f4be 88c6 293e 3934 babe
00000360: aecd abbb be67 4b3e 465d 6f3d 344e 663e
00000370: 74ab d5bd bcf2 be3d fa82 ccbd 6d71 8e3e
00000380: 1457 aa3e 5d55 1e3e 8f54 16be 71e6 993e
00000390: 410f 33be f39d c53d 593e 9b3e 7485 91be
000003a0: f8a4 ddbd 4ae5 67ba abd4 333e f263 023f
000003b0: 2811 91be f2a5 e3bd 0964 11bf 21b7 6bbe
000003c0: 728e 2ebe 5928 ccbe daa2 ab3e d9fa 19be
000003d0: 6d9a 1cbe 764d 723e 6bc5 e03d 1e83 5c3e
000003e0: a29f e1bd 79f1 253e 00fd 7e3e 6c21 2c3d
000003f0: 1824 df3e aa74 913e 3ad4 623e 57e4 bbbe
-0.056687042 -0.052762337 -0.44209698 -0.033956535 0.1275539 0.015180313 0.024962254 -0.0044804127
-0.0953203 -0.1399119 -0.27636927 0.50984234 0.29621944 -0.046972692 -0.12693919 -0.29352117
0.18140271 -0.27048045 0.0623137 0.036931038 0.30848888 0.06373203 0.21624051 0.5296987
-0.1356972 -0.250057 -0.16262385 0.21681796 -0.1292178 0.21228096 -0.18910204 0.17924419
-0.06016888 0.10219839 0.120177105 -0.18304154 0.40347785 -0.12674952 -0.22553323 -0.2350502
-0.04434018 0.0112865055 0.0827931 -0.07761143 0.2714737 0.25409606 -0.11099886 0.21461515
-0.10512486 -0.23178598 -0.0039738524 -0.3947153 -0.555711 0.22277893 0.23703378 0.8983957
0.61360276 0.04669816 -0.4073321 -0.45822644 0.24735117 -0.35176793 0.08586142 0.15349315
-0.19784348 -0.5209777 0.31201923 0.23551448 0.008019768 -0.48371145 -0.3695103 -0.51955533
-0.1127484 0.14534505 -0.07716977 0.17269719 -0.031155547 -0.005618911 -0.6127248 -0.21932024
-0.09417583 -0.014563248 -0.15954264 0.05534873 0.34737062 0.32733294 -0.07322302 -0.06707556
-0.20047021 0.05536203 0.1697251 -0.15372105 0.40469584 0.045281935 -0.15905347 -0.033973385
-0.06644107 0.02403213 -0.4342939 -0.5118545 0.39241675 -0.115719646 0.058981936 -0.047827642
0.06618996 0.32122475 -0.22376542 -0.091209665 -0.03145377 -0.099184796 0.18824673 -0.15830845
0.25074488 -0.059689365 -0.12695873 -0.54551476 0.31420076 -0.14181337 -0.23937236 -0.27445844
0.26177981 0.13623275 0.21593107 0.13956429 0.28218573 0.42770487 0.15281081 0.16448234
0.2545395 0.0062331525 -0.20526059 0.18068177 0.018738922 -0.09507249 -0.15312554 0.16526966
0.2989339 0.015209258 0.08378059 0.45835027 0.1557745 -0.14571555 -0.18969636 0.10258167
-0.26123837 0.1134371 0.022064928 -0.17328767 -0.068807125 0.08915731 -0.14469133 0.018070312
-0.34355053 -0.5447747 0.09811492 -0.020898221 0.27128625 0.46657616 0.26077 -0.22074799
0.11080106 0.22994238 -0.49025866 -0.041036755 0.26429114 0.090389125 -0.078188375 -0.6019957
-0.44879454 0.17085496 0.17843536 0.25220296 -0.4298847 0.1274649 0.09822832 -0.108523555
0.30308038 0.18756796 -0.0893491 0.17316443 -0.0404741 -0.53277993 -0.08654179 -0.14278337
-0.101418 -0.02250545 0.18876556 0.23203026 -0.08967922 -0.13702048 0.2829138 0.004305904
-0.31391367 -0.64687455 -0.43017393 -0.14697291 -0.285587 0.16593927 0.03473973 0.06723661
0.42081946 -0.22872613 -0.0043484373 -0.1410879 -0.13154392 -0.020016778 -0.19495495 0.094784446
-0.1962503 0.14732447 -0.17258234 0.5596725 -0.52516073 -0.47747138 0.1657964 -0.36367968
-0.005243025 0.19863793 0.05843856 0.2249077 -0.10433093 0.09323642 -0.09985919 0.27820912
0.3326956 0.15462251 -0.14680694 0.30058625 -0.17486288 0.09649267 0.30321005 -0.2842213
-0.10822481 -0.00088461174 0.17561595 0.50933754 -0.28333402 -0.11115636 -0.56793267 -0.23019077
-0.17046526 -0.39874533 0.33522683 -0.15037097 -0.15293284 0.23662362 0.109751545 0.21534392
-0.11016776 0.16205396 0.249012 0.04202406 0.43582225 0.2840932 0.2215127 -0.36697647
