saves/week_40_1_rev_model.pth (torch, 12435 bytes, 4 tensors)

gnn.attn_l f4 [1, 1, 50]
000000 3f 49 e9 bd bf 54 23 be 59 1f 41 be 8b c0 48 3d
       -0.11390924 -0.15950297 -0.18859614 0.04901175
000010 c1 37 91 3d 95 8a 06 be 22 8f 44 be 8e fc 67 bc
       0.07090712 -0.13138802 -0.19195226 -0.014159335
000020 6c db 6a 3d bb 98 1e bd f4 9c 2a 3e f3 ac 81 3d
       0.057338163 -0.038719874 0.16661435 0.063318156
000030 13 16 90 be 5b 13 83 be f4 a2 31 bd 99 87 1c 3e
       -0.2814184 -0.25600705 -0.043368295 0.15286101
000040 6f c7 01 3e 5b 45 80 3d 22 73 1e bd da 89 86 3e
       0.12673734 0.062632285 -0.038684018 0.26277047
000050 66 9a 91 bc ad f3 f5 3d c0 63 98 3d bb c3 97 3e
       -0.017773818 0.12009368 0.07440901 0.29641518
000060 8d f6 52 bd 23 01 2b be 56 75 94 3e 8e 88 3d 3b
       -0.05150466 -0.16699652 0.2899577 0.0028920504
000070 d3 64 54 be e0 82 6a be bb 46 61 3e 23 c2 dc 3e
       -0.20741586 -0.22901487 0.21999638 0.43116865
000080 c1 ad df be 57 a3 62 be b8 e4 b7 bc 58 79 d7 bc
       -0.4368725 -0.22132622 -0.022447929 -0.026302978
000090 9b d0 3e be c2 a8 56 be e9 03 dc bd b8 41 98 bd
       -0.18634264 -0.20962813 -0.10742933 -0.0743441
0000a0 9a 53 40 be a2 e8 56 3d 56 8d d0 3d 33 a0 92 be
       -0.18781891 0.05246795 0.10183208 -0.28637847
0000b0 88 6a 5f 3e b4 2d 9b 3d ce 8d 31 be a2 c5 44 be
       0.21817982 0.075770766 -0.1733925 -0.19216016
0000c0 9c fe 53 3d ca 41 84 be
       0.051756486 -0.25831443

gnn.attn_r f4 [1, 1, 50]
000000 53 e2 03 3d dd 92 a4 3d 46 43 6d 3e f0 93 7c 3d
       0.03219826 0.080358244 0.23170194 0.06166452
000010 09 c2 99 bd 61 80 bf bd a6 74 31 be 52 57 3f be
       -0.075077124 -0.09350658 -0.17329654 -0.18685654
000020 b7 b2 75 3d 0d 0b 93 bd 23 ff 33 bb 8e 02 9a be
       0.05998489 -0.07179842 -0.0027465306 -0.30080074
000030 07 b1 60 bc 1e 2e 8c 3e 72 9d 20 3e e2 df bd 3e
       -0.013714082 0.27378935 0.1568506 0.37084872
000040 3e 86 bc 3d 92 7c e5 3e ba 27 65 be 44 03 06 bd
       0.09205292 0.44821602 -0.22378436 -0.032717958
000050 77 02 74 3e a3 4a 1a 3e 7e 82 92 3e 21 29 8c be
       0.23829065 0.15067534 0.28615183 -0.2737513
000060 9a 1c 90 3e 3d 4e 66 3d 01 43 57 3c 13 cc 91 bc
       0.2814682 0.056226958 0.013138534 -0.017797505
000070 d8 00 96 3e b1 51 8f 3d 30 af 6f bd de e8 e6 3d
       0.2929752 0.06998003 -0.05851668 0.11274885
000080 28 e6 f1 3c a3 73 12 3e e6 cf 30 be 07 76 14 3e
       0.029528692 0.14301924 -0.17266807 0.14498149
000090 0d b9 26 bd 3b 4d 52 be 6f f1 a5 3d 3a 18 81 be
       -0.040703822 -0.20537274 0.081026904 -0.25213796
0000a0 c6 ce 9b bd c0 c9 fa 3d c9 23 27 be b1 90 19 3e
       -0.07607798 0.12245512 -0.16322245 0.14996602
0000b0 69 cd 29 be 0f c3 6d 3d ac 23 74 3d 3f e3 67 be
       -0.16582264 0.05804735 0.05960433 -0.22645281
0000c0 8d 91 20 be 7b 2f 31 be
       -0.15680523 -0.17303269

gnn.bias f4 [50]
000000 24 de 4b bd 28 ab 4b 3d ef 3f 4d bd 71 01 1f 3d
       -0.049772397 0.049723774 -0.0501098 0.038819734
000010 39 ec 4b 3d 75 6a 4b bd be 56 4b 3d e8 a6 4c bd
       0.049785826 -0.049662072 0.04964327 -0.04996386
000020 e2 a7 bb 3b 51 96 ee bc 71 0d 49 bd ce c9 42 bd
       0.0057268003 -0.02912441 -0.049085084 -0.047555737
000030 e2 29 3f 3d 3d 3e 4a bd 8e 89 49 3d 39 92 4b bd
       0.046670802 -0.04937576 0.049203448 -0.049699996
000040 34 3c 45 bd 90 85 4b 3d 5f ef 48 3d a7 4f 4c 3d
       -0.048153117 0.049687922 0.049056407 0.04988065
000050 80 58 40 bd 31 37 3c bd b9 3c 4c 3d 88 39 39 3d
       -0.0469594 -0.045951072 0.049862597 0.04522088
000060 3f 2c 4c 3d 82 b6 38 bd 55 23 45 3d b9 d5 48 3d
       0.049846884 -0.045095928 0.0481294 0.049031947
000070 d0 87 49 bd 0a 99 45 3d ce 66 4b 3d ac 93 49 bd
       -0.049201787 0.048241653 0.04965859 -0.049213096
000080 24 0b 39 3d 62 21 4c bd b6 6a 4a bd ee a6 44 3d
       0.04517664 -0.049836524 -0.049418174 0.04801076
000090 b4 d6 4a 3d 96 78 49 bd d4 29 20 bd 36 ee 49 bd
       0.049521163 -0.049187265 -0.03910239 -0.04929944
0000a0 5f c3 4a bd 6e 29 4a 3d 06 a5 4b 3d ec 5d 4a 3d
       -0.049502727 0.049355917 0.049717925 0.049405977
0000b0 39 63 4a bd f2 89 4c bd ee 12 4d 3d 59 3f 4d bd
       -0.049411032 -0.049936242 0.05006688 -0.05010924
0000c0 cf 75 49 bd c7 ee 4b bd
       -0.049184617 -0.049788263

gnn.fc.weight f4 [50, 50]
000000 1f df 37 be b4 f3 49 3e 62 d9 cf bc b8 1a 0a 3e
       -0.17956208 0.19721872 -0.02537221 0.13486755
000010 88 20 b9 bd f1 08 12 3d 0f 03 24 be 32 56 d8 3d
       -0.09039408 0.03565306 -0.16016792 0.105633155
000020 06 02 5f 3d b5 1d 83 bd f0 c7 c5 3d b2 df 53 3d
       0.05444529 -0.064021505 0.09657276 0.051727004
000030 d5 91 a7 be 61 72 f3 3d a2 fb cf 3b 4f 21 70 be
       -0.3272845 0.118870504 0.0063471356 -0.23450206
000040 15 31 dc 3c e5 f5 3c bd 42 8d 6c be cc 20 d3 be
       0.026878873 -0.04613294 -0.2310076 -0.4123596
000050 07 04 73 3e 9d 0b 2e 3e a2 97 02 3c 0c 15 8b bd
       0.23732005 0.16996618 0.007970722 -0.06791124
000060 d0 2d 94 bd ec 69 ae 3e da 99 9f bc de 7c a2 be
       -0.072353005 0.34065187 -0.019482542 -0.3173589
000070 f0 18 06 3f d5 8f 2f be b7 34 2a 3d 59 e2 0d be
       0.523818 -0.17144711 0.04155418 -0.13855876
000080 fe 0f 9b 3d f8 14 c6 3d 53 dc a5 37 64 0a 27 3d
       0.0757141 0.09671968 1.977213e-05 0.040781394
000090 5c 77 c0 be 78 80 ed bc 0d 3f cc bc c3 63 a9 3e
       -0.37591064 -0.028991923 -0.024932409 0.33083925
0000a0 cf 27 5e bd bc ec 2c be a1 82 39 3d b6 a7 e2 3d
       -0.054237183 -0.16887182 0.045290593 0.110671446
0000b0 d2 f9 80 3e 16 dc 02 be 42 25 53 3e 2d 2d 13 be
       0.25190598 -0.12779269 0.20619681 -0.14372702
0000c0 8f ad 22 3e 0b c5 91 3e 31 91 b6 be d6 24 9b 3d
       0.1588652 0.28470644 -0.35657647 0.07575385
0000d0 13 12 60 be fa 58 88 3e 95 1e 52 3e ab bd 0a bd
       -0.21881895 0.26630384 0.20519479 -0.033872288
0000e0 b7 75 be 3e 3a 88 56 bd 40 81 51 3e a3 4e 9c be
       0.37199184 -0.05237601 0.20459461 -0.30528745
0000f0 81 6c db be 7a 57 7e be 78 19 14 be ec b3 44 be
       -0.4285622 -0.24838057 -0.1446284 -0.1920926
000100 1a 27 da bc 9e 25 fa bd eb dc d0 3d 5e 6f eb 3e
       -0.026629973 -0.12214206 0.10198387 0.45983404
000110 fe 9f 14 be 2f f1 83 3c 4d ae 96 bd 71 a0 6a 3b
       -0.14514157 0.016106216 -0.07357464 0.0035801197
000120 0d 91 dd 3d 15 12 65 3d d5 b1 be 3d 4e 83 b3 3d
       0.10818682 0.055925447 0.093112625 0.08765279
000130 31 fe 91 3e 82 56 8b 3e c5 c5 6d be b7 15 ab 3c
       0.28514245 0.27214438 -0.23219974 0.020884378
000140 c1 36 c2 3c 15 8e 5e bc 8e a2 e3 3d 23 8b 52 3d
       0.02370775 -0.01358368 0.11114989 0.051402222
000150 49 cd 95 3e d4 10 ac be 9a 9b 7e 3e d1 86 bf 3e
       0.29258183 -0.3360659 0.24864045 0.37407544
000160 77 85 e1 be 1f 9c 5e be 7e b6 70 bd 20 18 eb 3d
       -0.44047138 -0.21739243 -0.058767788 0.11479211
000170 9b b0 cd 3d c3 fe 90 3d 24 64 e8 bd 93 21 27 3e
       0.100434504 0.07079842 -0.11347225 0.16321401
000180 62 0f 97 3d ab d0 4f 3e 2e 60 26 be 66 6c 1f be
       0.07375981 0.20294444 -0.16247627 -0.15568694
000190 db ae ab bb dd 2e 74 be 7f 27 25 3d 37 f2 db 3d
       -0.0052393503 -0.23846002 0.04032087 0.10739558
0001a0 52 b9 70 bd 29 43 31 3e c7 b9 91 bd 96 62 9c 3e
       -0.058770485 0.17310776 -0.07115512 0.30543965
0001b0 90 06 1f be 9b c8 4b be 28 dc 02 3e 8d f2 1f 3e
       -0.15529847 -0.19900744 0.12779295 0.1561987
0001c0 1b 09 be 3e 28 0e 75 bc f2 7b f0 3c 27 13 17 3e
       0.37116322 -0.014956988 0.029355977 0.147534
0001d0 97 88 83 3d b9 4c 9d be 03 34 56 be 04 2d 29 be
       0.06422537 -0.30722597 -0.20918278 -0.16521078
0001e0 7f eb 39 3b 61 61 bb 3d 5a f9 30 bd ae 7e d6 bd
       0.0028369126 0.09149433 -0.04320655 -0.10473381
0001f0 07 bf 1c be c2 c8 8d 3e 94 18 b4 3e b0 44 ab be
       -0.15307246 0.2769223 0.35175002 -0.33450842
000200 e8 11 52 be 44 12 6b 3e e5 43 3b be 3c 97 03 3d
       -0.20514643 0.22956187 -0.18287618 0.03212665
000210 22 40 f8 bd bd 66 2a 3d ed 9f 9b bd 67 09 f7 be
       -0.12121607 0.041601885 -0.07598863 -0.4824936
000220 93 d0 0b bf 8f 7d c8 bd 43 b0 8c 3e f6 a6 e5 3e
       -0.54615134 -0.097895734 0.27478227 0.44853944
000230 8c b2 71 3e c6 2b 3e 3e a1 4a 8d 3d c5 80 db 3c
       0.23603266 0.18571386 0.06899 0.0267948
000240 ee 54 40 3e 3d 5e 84 bd 5c 5a ec bd 55 30 76 3d
       0.18782398 -0.06463287 -0.11540672 0.060104687
000250 cc 47 b8 3e 6e d1 15 bc cc 21 04 be 70 9f 40 be
       0.35992277 -0.00914417 -0.12903517 -0.1881082
000260 b0 45 55 be ce d4 63 3e 39 a9 b4 bd 5a 33 d0 3d
       -0.20827365 0.22249147 -0.08821339 0.101660445
000270 72 c1 38 3e f4 8c a7 3e b1 8a 15 be 70 ac b9 3c
       0.18042544 0.32724726 -0.14603688 0.022665232
000280 40 bd fc bc 1c 7c b0 bd 66 52 23 3e bc a1 18 be
       -0.03085196 -0.08617422 0.15949401 -0.14905447
000290 24 c1 a6 3b d6 35 3a be 2a 41 c6 be fc fa cd be
       0.005088942 -0.181846 -0.3872159 -0.40230548
0002a0 91 44 b5 3b 8c 42 00 be 6c 2b d8 3d 74 f6 f0 3d
       0.0055318554 -0.12525386 0.10555157 0.11765757
0002b0 f9 30 a3 3e b4 43 16 be 18 03 be be 4e e9 53 be
       0.318733 -0.14674264 -0.37111735 -0.20694467
0002c0 38 48 bf 3e b9 cb cc bd 2c 27 b5 3e 83 98 cd 3d
       0.37359786 -0.099997945 0.35381448 0.10038855
0002d0 24 dc 83 be 2c 0a be be fa 8c 15 bf 9a 35 08 3e
       -0.2575389 -0.37117136 -0.5841824 0.13301697
0002e0 9a e8 89 be a8 ff 66 3e 9a 60 1a be 0a 75 5a bd
       -0.26935273 0.22558463 -0.15075913 -0.053334273
0002f0 6c f5 de be e6 3b b0 bc 30 0d e9 3d 21 44 92 3e
       -0.43546617 -0.021512937 0.113794684 0.28567603
000300 d6 f4 2e be ea 9a 5f bd 7b 99 c3 3e 4a 1b d4 be
       -0.17085585 -0.054591097 0.38203034 -0.4142707
000310 ad 5e b6 bc da ca 6a 3e bb 14 d4 bd 7f 63 a2 3d
       -0.022261942 0.22928944 -0.103555165 0.079291336
000320 25 fa c9 bd 82 ec 63 3a 87 36 b1 3c 42 22 37 be
       -0.098621644 0.0008694605 0.021632446 -0.17884162
000330 21 b4 8e 3e 32 96 23 bb 6f 30 1d be ef dc 76 be
       0.27871802 -0.002496135 -0.15350507 -0.24107717
000340 0d 12 c8 bd a4 61 07 3c c4 d7 5d 3d cf 74 7d 3e
       -0.09769068 0.008263025 0.05416085 0.2475159
000350 27 0d 94 3d 3e a3 04 be a8 ce 74 3d b5 da cb bd
       0.07229071 -0.12952897 0.059767395 -0.099538244
000360 9a aa e0 be b1 b9 46 bd 3b fd 71 3e 3b eb 55 3d
       -0.4388016 -0.048516933 0.23631756 0.052226286
000370 cd 7b 65 be 55 24 08 3e 16 a4 11 bc 0d 23 95 3c
       -0.22410508 0.1329511 -0.008889219 0.01820519
000380 5c b4 6e 3e 5c ef 34 3e f8 92 13 3e 89 9b b8 be
       0.23310989 0.17669433 0.14411533 -0.36056164
000390 b0 a7 6a bd ca fc 0b 3e b5 90 b6 3e 90 1b 25 be
       -0.057288826 0.1367065 0.35657278 -0.16123796
0003a0 9a 69 6b 3e b9 0b 40 be 1d 45 2e bd a5 c3 bc 3d
       0.22989503 -0.18754472 -0.04254638 0.09217004
0003b0 e1 08 06 be 61 b5 3d 3e cf ca 89 bc 43 f3 98 3d
       -0.13089325 0.18526222 -0.01682034 0.074682735
0003c0 23 8d 56 3e c3 99 88 bc 8d 65 89 3e ea 8b c8 bd
       0.20952277 -0.016674882 0.2683529 -0.097923115
0003d0 22 df d0 3c 63 0c 86 bd 28 73 e4 3d 8d bd 9d bd
       0.025497023 -0.06545331 0.11154777 -0.077021696
0003e0 58 54 ef be 73 48 72 be 68 41 79 3e 30 b7 01 3e
       -0.46744037 -0.2366045 0.24341357 0.12667537
0003f0 7f 05 b2 3c 46 00 3b 3e a2 50 ea 3e 59 07 97 3e
       0.021731136 0.18261823 0.45764643 0.29497793
