saves/week_40_1_fine_bias_encoder.pth (torch, 19576 bytes, 8 tensors)

rnn.weight_ih_l0 f4 [75, 3]
-0.005426746 -0.11110111 0.12749356 0.010679878 -0.12393675 -0.0075189346 0.10929223 0.07383281
-0.19666316 -0.080225274 -0.1315919 -0.0073694536 0.019366708 0.05037885 0.07048856 -0.029669626
-0.1786336 0.12593192 0.061188538 0.024320295 -0.07599802 0.1305641 -0.033288363 -0.08504659
-0.17922366 -0.083475135 0.1388295 -0.117354825 0.17094083 -0.101601966 -0.08614409 -0.059971202
0.15923694 -0.026708428 -0.024679244 -0.033668224 0.057932932 -0.08004547 0.1879136 -0.038788956
0.03097617 -0.17248292 0.10527577 0.026231462 0.032483462 0.066278815 -0.08426749 0.17119259
-0.049839385 -0.19178617 -0.055565022 0.032814663 -0.14779663 0.12158006 0.073593736 0.18261
-0.014569144 0.09229742 0.14814977 -0.17406219 0.13863145 0.03636092 0.05321217 0.21129242
0.15196903 0.110324405 -0.022391774 0.10504132 -0.08648745 0.07842664 0.11226108 -0.19307826
0.13153763 0.04548376 0.06471168 0.0918276 0.014853686 0.052797213 -0.17259356 0.13829863
-0.0998532 0.13391823 -0.006624778 -0.037334096 -0.07142023 0.107293315 -0.10974498 -0.09136042
-0.18548375 -0.1851739 0.20505022 0.1466599 0.16955309 -0.14551646 0.12888174 -0.050093185
-0.093542285 -0.1526941 -0.20266737 0.06180243 0.014043147 -0.10403304 0.07308622 0.049713854
0.13788305 0.0030377996 -0.15140134 0.16963755 -0.11032931 -0.15337864 0.19868281 -0.10941774
0.20807278 0.11125292 -0.045599688 -0.09641042 -0.18808329 -0.07745175 0.103444666 0.15925822
0.17311603 -0.17821841 -0.19482589 -0.0203065 0.042845283 -0.10646539 -0.020629054 -0.11818634
-0.0618027 0.1656081 -0.19031638 0.12284853 0.15047215 0.041700207 -0.150449 0.14150038
-0.117652506 -0.058062885 -0.100574665 0.12699567 0.18335201 0.16240437 -0.12136954 0.12444371
-0.10064885 -0.07911261 0.16142505 -0.15785898 -0.15493335 -0.0018907472 0.09397154 0.15063451
-0.0016926848 0.08214774 -0.13100639 -0.04205291 -0.07788518 -0.14880818 -0.086925544 0.08503766
0.15598395 -0.023999495 0.03722406 0.12167516 -0.11094357 0.16576773 -0.19763625 -0.16059288
-0.19007176 0.18190438 -0.14584082 0.09680888 0.16944072 0.14974609 0.16814679 0.06914391
0.10643341 0.01978095 -0.07263733 -0.18502593 -0.022559762 -0.07117531 0.034566045 -0.056110833
0.0054864017 0.05427159 -0.067976564 0.059563797 0.06728732 -0.010100722 0.16195585 0.18469912
-0.03660733 -0.16474938 0.079866186 0.09412183 0.06137905 0.17220855 0.16207008 -0.02362653
0.19002262 0.049984924 0.17953934 0.041047584 -0.11101051 0.06536554 0.025012141 -0.06383901
-0.028174201 -0.0138172945 0.15759684 0.19029263 0.15366417 0.009030607 0.0719222 0.104974
0.21163926 0.19946231 0.019070428 0.14862068 -0.079436086 0.083013736 0.16358057 -0.12727934
-0.032179676
00000000: d8d2 b1bb fb88 e3bd ac8d 023e a8fa 2e3c
00000010: 8dd2 fdbd 6561 f6bb 9bd4 df3d a835 973d
00000020: 1162 49be 264d a4bd 07c0 06be 757b f1bb
00000030: eea6 9e3c 0e5a 4e3d 4e5c 903d b70d f3bc
00000040: baeb 36be 4cf4 003e d5a0 7a3d 5b3b c73c
00000050: daa4 9bbd 98b2 053e 6159 08bd e82c aebd
00000060: 6886 37be 03f5 aabd 5229 0e3e ba57 f0bd
00000070: 1d0b 2f3e b114 d0bd 506c b0bd 5da4 75bd
00000080: 020f 233e a2cb dabc 202c cabc b1e7 09bd
00000090: 154b 6d3d e1ee a3bd 6c6c 403e 2be1 1ebd
000000a0: bdc1 fd3c 5d9f 30be d39a d73d 5de3 d63c
000000b0: 610d 053d 30bd 873d 6f94 acbd 1c4d 2f3e
000000c0: 6224 4cbd 9863 44be 2698 63bd ab68 063d
000000d0: 0058 17be f7fe f83d 50b8 963d 1efe 3a3e
000000e0: 6bb3 6ebc 6e06 bd3d 93b4 173e 5c3d 32be
000000f0: 67f5 0d3e 30ef 143d 01f5 593d 0a5d 583e
00000100: c59d 1b3e c3f1 e13d f46e b7bc e71f d73d
00000110: 5520 b1bd 259e a03d 23e9 e53d 4fb6 45be
00000120: cdb1 063e 2e4d 3a3d 8f87 843d 1c10 bc3d
00000130: e05c 733c e441 583d 5ebc 30be 289e 0d3e
00000140: d67f ccbd dc21 093e aa14 d9bb a3eb 18bd
00000150: c544 92bd 99bc db3d fac1 e0bd 2c1b bbbd
00000160: 74ef 3dbe 3a9e 3dbe aff8 513e 032e 163e
00000170: 539f 2d3e 4402 15be 93f9 033e 832e 4dbd
00000180: 1993 bfbd d85b 1cbe 0988 4fbe 8b24 7d3d
00000190: 3a15 663c 460f d5bd 3aae 953d c1a0 4b3d
000001a0: 3731 0d3e d215 473b f408 1bbe 77b5 2d3e
000001b0: 55f4 e1bd 4a0f 1dbe 8273 4b3e 6816 e0bd
000001c0: 0811 553e 92d8 e33d bdc6 3abd d472 c5bd
000001d0: e898 40be 069f 9ebd ccda d33d 9614 233e
000001e0: 5445 313e e37e 36be 7080 47be d159 a6bc
000001f0: 897e 2f3d 870a dabd 43fe a8bc ae0b f2bd
00000200: d424 7dbd 2b95 293e 4ce2 42be 0398 fb3d
00000210: 5f15 1a3e d6cd 2a3d 4d0f 1abe 7ae5 103e
00000220: ccf3 f0bd 59d3 6dbd 17fa cdbd 270b 023e
00000230: a1c0 3b3e 554d 263e 9890 f8bd 58dc fe3d
00000240: fc20 cebd cb05 a2bd 9c4c 253e c9a5 21be
00000250: d9a6 1ebe f3d2 f7ba 2774 c03d ef3f 1a3e
00000260: 14dd ddba 133d a83d 8a26 06be ac3f 2cbd
00000270: 4482 9fbd 2c61 18be 0506 b2bd 3a28 ae3d
00000280: 42ba 1f3e 979a c4bc 4278 183d d430 f93d
00000290: 6236 e3bd 04bf 293e 2861 4abe 7672 24be
000002a0: 2ca2 42be 2445 3a3e 4c57 15be bc43 c63d
000002b0: de81 2d3e 0a57 193e ac2e 2c3e 539b 8d3d
000002c0: c2f9 d93d a90b a23c e1c2 94bd 7077 3dbe
000002d0: 40cf b8bc 5cc4 91bd 2095 0d3d 79d4 65bd
000002e0: 46c7 b33b e34b 5e3d 4c37 8bbd 2bf9 733d
000002f0: efcd 893d 807d 25bc c1d7 253e c421 3d3e
00000300: 91f1 15bd 10b4 28be e290 a33d f2c2 c03d
00000310: 9968 7b3d 7057 303e b3f5 253e 6d8c c1bc
00000320: 4a95 423e febc 4c3d 29d9 373e 8321 283d
00000330: 7a59 e3bd 5ede 853d 43e6 cc3c 07be 82bd
00000340: 95cd e6bc ef61 62bc 1161 213e 12dc 423e
00000350: 245a 1d3e 1cf5 133c f24b 933d 9cfc d63d
00000360: f6b7 583e d93f 4c3e 9639 9c3c 0530 183e
00000370: 63af a2bd 1b03 aa3d aa81 273e 8455 02be
00000380: d6ce 03bd

rnn.weight_hh_l0 f4 [75, 25]
0.13537315 -0.09653548 0.0642329 0.19958961 -0.14982678 0.019292066 -0.13796823 -0.014375849
0.07525198 0.07158489 0.011256692 0.13992552 -0.00040857313 -0.16594782 -0.21852426 0.17663531
0.17159258 0.088310316 0.11318578 -0.10837181 -0.0404393 0.04714609 0.027183656 -0.15454035
-0.12557645 0.045453873 0.15821244 -0.11639121 0.0723962 -0.16088988 -0.16969173 0.06790013
-0.14871715 0.047314286 -0.02309725 -0.1372549 0.06175613 -0.17303324 0.000110357665 -0.060252663
-0.07792365 -0.1698175 -0.12254854 -0.015492334 -0.037839457 0.13216896 0.03665696 -0.04989296
0.13992259 0.107552886 0.028172074 -0.101505 0.020409822 -0.14763632 0.18871832 -0.112775214
0.121696286 -0.1808416 -0.009819661 -0.14260656 0.029010462 -0.017512813 -0.15597948 -0.1336456
-0.14274971 0.059920177 -0.13115092 -0.11799601 -0.07160528 0.119685315 0.18776579 -0.040546905
0.0013754733 0.18516985 -0.034426577 0.08057472 0.06323743 -0.04708469 0.05954083 -0.05742333
0.053302925 -0.18004946 -0.15013406 -0.035135556 0.07914215 -0.059023388 -0.1468951 0.07876377
-0.17760006 0.14609653 0.03650411 0.08955848 -0.12158333 0.024141027 -0.20378731 0.046031535
0.14583415 -0.06453535 0.07044416 0.18606456 -0.17373951 -0.14610317 0.10392366 0.1526056
-0.08677367 -0.12336626 0.14095256 -0.102901116 0.08526185 -0.18879165 -0.093227394 -0.03953233
0.028056758 -0.15640551 -0.09864875 0.0143192485 -0.16753215 0.20467983 0.11421067 -0.079022326
0.121148966 0.1933445 0.12895902 -0.024992673 0.02022824 0.12067579 -0.14858958 0.20669314
-0.11699267 -0.19515152 0.10017534 0.08583078 0.03466301 0.16070272 -0.07278755 0.09579952
0.06021962 -0.11898945 0.08601216 -0.17090335 0.18786144 -0.100412734 -0.15476222 0.10902308
-0.005619917 0.15180795 -0.088969566 -0.13926344 0.08441888 -0.10716273 0.028663084 0.14830102
-0.1293356 -0.027421888 -0.10274762 0.012950373 0.09564792 -0.08137888 -0.07846586 -0.10627168
-0.0144317215 0.19225582 -0.13726087 0.045014385 -0.061853852 -0.18418169 0.09704752 -0.107247986
0.13661607 -0.02575519 -0.09014353 0.13795519 -0.009738705 0.035777334 0.019098733 -0.018410886
-0.15410379 -0.12073735 0.16580813 0.06949441 -0.12944692 0.13303474 0.06109635 0.17181446
-0.10554379 0.14318743 -0.107867815 0.10062353 -0.10294943 0.1580242 0.026693314 0.12881982
-0.17051552 -0.17162515 -0.15600644 -0.11421921 0.17034344 0.20625551 -0.15634988 0.17666003
-0.028904475 0.024083776 0.21457346 -0.022034304 0.0785558 -0.035927508 -0.0743255 0.04166547
-0.04351221 0.15659931 -0.11509668 -0.12417773 0.12264829 -0.030110719 0.041279823 -0.17109181
0.11131054 -0.20830508 0.13778934 0.13960138 -0.003256182 -0.16374594 -0.07203193 -0.009226898
0.11813315 0.08938004 -0.11698446 0.20496617 -0.102879114 0.17539096 -0.0070483973 -0.06533053
0.1644058 0.12732628 -0.0743284 0.18133923 -0.10579273 -0.0693328 0.18340173 0.15319821
0.18755102 0.0758123 0.007463195 0.10248476 -0.14672571 -0.0380956 0.024154076 0.07063442
-0.0019155556 0.18594226 -0.08763329 -0.07300677 -0.037764546 0.17341283 0.1637426 0.12534614
00000000: 429f 0a3e 65b4 c5bd 8a8c 833d 3861 4c3e
00000010: 316c 19be 650a 9e3c 8b47 0dbe ae88 6bbc
00000020: b61d 9a3d 199b 923d fd6d 383c a348 0f3e
00000030: c235 d6b9 3aee 29be d3c4 5fbe e3df 343e
00000040: f7b5 2f3e 0adc b43d f2cd e73d 0af2 ddbd
00000050: aea3 25bd 421c 413d 42b0 de3c d33f 1ebe
00000060: 1d97 00be d72d 3a3d 7102 223e 845e eebd
00000070: 7544 943d 51c0 24be abc3 2dbe 390f 8b3d
00000080: 4f49 18be a0cc 413d 7236 bdbc 8c8c 0cbe
00000090: fff3 7c3d a02f 31be d26f e738 7fcb 76bd
000000a0: 6f96 9fbd a4e4 2dbe bbfa fabd 8fd3 7dbc
000000b0: 8cfd 1abd 4d57 073e 9c25 163d 8f5c 4cbd
000000c0: de47 0f3e b044 dc3d 1fc9 e63c dae1 cfbd
000000d0: 8032 a73c fa2d 17be 603f 413e b1f6 e6bd
000000e0: e73b f93d 8a2e 39be a5e2 20bc 7407 12be
000000f0: 59a7 ed3c 0877 8fbc 16b9 1fbe 64da 08be
00000100: fb2c 12be dc6e 753d 6d4c 06be e4a7 f1bd
00000110: caa5 92bd 931d f53d ad45 403e 8314 26bd
00000120: 3a49 b43a 2a9d 3d3e e202 0dbd 5c04 a53d
00000130: a082 813d e0db 40bd 16e1 733d ba34 6bbd
00000140: 2b54 5a3d e35e 38be bebc 19be 4dea 0fbd
00000150: 4815 a23d 82c2 71bd ab6b 16be e64e a13d
00000160: cadc 35be 549a 153e 5585 153d 706a b73d
00000170: ae00 f9bd 67c3 c53c 9fad 50be 908b 3c3d
00000180: 8c55 153e 1c2b 84bd 0745 903d b587 3e3e
00000190: c5e8 31be 129c 15be eed5 d43d a444 1c3e
000001a0: 65b6 b1bd 73a7 fcbd de55 103e d2bd d2bd
000001b0: c49d ae3d 9952 41be 01ee bebd a7ec 21bd
000001c0: 49d7 e53c c428 20be 5b08 cabd 489b 6a3c
000001d0: 8c8d 2bbe 9797 513e 49e7 e93d 75d6 a1bd
000001e0: f31c f83d 1afc 453e d50d 043e 6fbd ccbc
000001f0: b2b5 a53c de24 f73d de27 18be 5ea7 533e
00000200: da99 efbd cdd5 47be bb28 cd3d 0cc8 af3d
00000210: cdfa 0d3d 418f 243e a411 95bd 8a32 c43d
00000220: d9a8 763d beb0 f3bd 2527 b03d 4a01 2fbe
00000230: c05e 403e 31a5 cdbd fd79 1ebe 7e47 df3d
00000240: 4827 b8bb 8b73 1b3e ad35 b6bd 139b 0ebe
00000250: cee3 ac3d 2278 dbbd d8ce ea3c 39dc 173e
00000260: 8d70 04be dea3 e0bc 586d d2bd cd2d 543c
00000270: 0fe3 c33d f8a9 a6bd b5b2 a0bd f7a4 d9bd
00000280: 0773 6cbc b6de 443e 1d8e 0cbe 0161 383d
00000290: 775a 7dbd 209a 3cbe dac0 c63d d5a4 dbbd
000002a0: 15e5 0b3e 8cfc d2bc 2c9d b8bd 2044 0d3e
000002b0: 178f 1fbc 418b 123d f274 9c3c 6dd2 96bc
000002c0: 62cd 1dbe 2545 f7bd 9bc9 293e 1653 8e3d
000002d0: bc8d 04be 423a 083e 2b40 7a3d 21f0 2f3e
000002e0: 5827 d8bd ba9f 123e cde9 dcbd b613 ce3d
000002f0: 27d7 d2bd 19d1 213e f0ab da3c 58e9 033e
00000300: 9f9b 2ebe 81be 2fbe 27c0 1fbe c3eb e9bd
00000310: 836e 2e3e a534 533e 2f1a 20be 5ee6 343e
00000320: 14c9 ecbc 574b c53c 25b9 5b3e 4981 b4bc
00000330: dde1 a03d b928 13bd f837 98bd 69a9 2a3d
00000340: dc39 32bd 925b 203e cfb7 ebbd e550 febd
00000350: 072f fb3d c1aa f6bc 0815 293d b132 2fbe
00000360: c8f6 e33d ed4d 55be a618 0d3e aaf3 0e3e
00000370: ab65 55bb 04ad 27be 7a85 93bd 6a2c 17bc
00000380: cbef f13d e20c b73d 8c95 efbd a7e2 513e
00000390: 49b2 d2bd b099 333e 3ef6 e6bb 03cc 85bd
000003a0: fe59 283e d261 023e 7d39 98bd feb0 393e
000003b0: dca9 d8bd 5bfe 8dbd aacd 3b3e fedf 1c3e
000003c0: 600d 403e 7b43 9b3d d18d f43b 88e3 d13d
000003d0: 443f 16be 220a 1cbd c5de c53c c7a8 903d
000003e0: 6113 fbba a667 3e3e 1579 b3bd 9384 95bd
000003f0: ffae 1abd 2293 313e 24ac 273e bd5a 003e

rnn.bias_ih_l0 f4 [75]
0.021607636 -0.004815818 -0.19428462 0.10690662 -0.169269 0.11464683 -0.12591405 0.08793361
0.0899818 -0.008533058 0.066752866 0.14618696 0.077508315 0.053186458 -0.029344905 -0.027005764
-0.122313805 -0.09480418 -0.08469163 -0.009834037 -0.041406214 -0.17552584 -0.021936106 0.104989305
-0.11016366 0.07133122 -0.031254288 0.033630017 -0.11648946 0.09809066 0.021593003 0.14999841
-0.060018092 0.12884386 0.10961314 -0.038483933 -0.1279039 -0.052066047 -0.15512764 -0.012895099
0.13713671 -0.08317526 -0.11785892 0.03984719 -0.026137872 -0.02227386 -0.1906741 0.026706727
-0.14257437 -0.061016124 -0.15434179 0.1379687 0.029286906 -0.17756516 -0.09391796 0.15961033
-0.16365281 0.117420875 -0.025847845 0.103404894 -0.12505569 -0.16216649 -0.02275805 -0.15785961
0.09350083 0.05682837 -0.18482433 -0.06591795 0.18222223 0.055608474 0.10782226 0.050373096
-0.16273724 0.078756444 -0.10146461
00000000: 7f02 b13c 02ce 9dbb 8cf2 46be dcf1 da3d
00000010: da54 2dbe f5cb ea3d 9def 00be 8916 b43d
00000020: 6148 b83d 3dce 0bbc bab5 883d 09b2 153e
00000030: aebc 9e3d 0bda 593d ba64 f0bc 313b ddbc
00000040: a97f fabd b228 c2bd ce72 adbd f11e 21bc
00000050: 9099 29bd 0cbd 33be 59b3 b3bc a204 d73d
00000060: 7c9d e1bd 1a16 923d 7f04 00bd a1bf 093d
00000070: 0792 eebd c2e3 c83d cfe3 b03c 2f99 193e
00000080: 88d5 75bd a5ef 033e db7c e03d 54a1 1dbd
00000090: 3df9 02be 3543 55bd c8d9 1ebe f745 53bc
000000a0: 916d 0c3e ca57 aabd 0460 f1bd cf36 233d
000000b0: 171f d6bc ac77 b6bc 1240 43be 11c8 da3c
000000c0: 04ff 11be 0bec 79bd c60b 1ebe ab47 0d3e
000000d0: 18eb ef3c a4d3 35be 0f58 c0bd e470 233e
000000e0: 9a94 27be 5b7a f03d dcbe d3bc f2c5 d33d
000000f0: 990e 00be f90e 26be 176f babc f3a5 21be
00000100: 5d7d bf3d ddc4 683d 9742 3dbe fdff 86bd
00000110: 7798 3a3e b6c5 633d ebd1 dc3d 0554 4e3d
00000120: 97a4 26be 0f4b a13d adcc cfbd

rnn.bias_hh_l0 f4 [75]
-0.08667979 -0.051035568 -0.17450891 0.182335 -0.09438634 -0.15105093 0.019270146 0.028514238
0.20095891 0.03621561 -0.15465215 -0.13805345 -0.16805887 0.066091396 0.026488308 -0.13688508
-0.13445912 0.17628418 -0.20310773 0.053643264 -0.12814464 0.082511045 0.19951358 0.17809205
-0.12708995 0.18432187 0.19429779 0.033146266 0.12132743 0.04106097 -0.14010723 0.0104533015
-0.09996863 0.10490233 0.09584666 -0.18456016 -0.09447436 0.00017973364 -0.04344944 -0.015714183
0.06940567 0.195611 0.0083912965 -0.0463047 -0.052687366 0.06286748 0.17422268 0.10149148
0.072181486 -0.09922547 0.0038496866 -0.09760787 0.07852267 0.14680353 0.021711355 0.18477312
0.012820302 0.060896542 -0.12182401 -0.067006156 0.1977856 -0.12912606 -0.16921185 0.19457367
-0.18335463 -0.1547808 -0.13921255 -0.015316746 -0.14249973 0.013062717 -0.08326815 -0.11627787
-0.150627 -0.033495605 0.13327366
00000000: 2c85 b1bd ac0a 51bd 77b2 32be 07b6 3a3e
00000010: a04d c1bd 18ad 1abe 6ddc 9d3c b196 e93c
00000020: 2cc8 4d3e d256 143d 225d 1ebe e25d 0dbe
00000030: a017 2cbe ed5a 873d 02fe d83c 9a2b 0cbe
00000040: a7af 09be d783 343e 79fb 4fbe 0ab9 5b3d
00000050: 5938 03be 8dfb a83d 4a4d 4c3e c35d 363e
00000060: de23 02be dfbe 3c3e 00f6 463e 61c4 073d
00000070: 847a f83d 8c2f 283d 4578 0fbe 5344 2b3c
00000080: 5abc ccbd 08d7 d63d 414b c43d 57fd 3cbe
00000090: c67b c1bd e276 3c39 0af8 31bd 08bb 80bc
000000a0: 8f24 8e3d 404e 483e a67b 093c ffa9 3dbd
000000b0: b5ce 57bd aac0 803d 6e67 323e c4da cf3d
000000c0: e3d3 933d b936 cbbd 064b 7c3b a3e6 c7bd
000000d0: 7ed0 a03d aa53 163e 03dc b13c 2a35 3d3e
000000e0: 3e0c 523c a76e 793d de7e f9bd 863a 89bd
000000f0: 4f88 4a3e 9f39 04be df45 2dbe 523e 473e
00000100: 51c1 3bbe dc7e 1ebe bc8d 0ebe 17f3 7abc
00000110: 73eb 11be 0205 563c 7e88 aabd 1823 eebd
00000120: f73d 1abe b032 09bd e478 083e

rnn.weight_ih_l0_reverse f4 [75, 3]
0.028208012 -0.13626711 0.15383734 0.121928655 -0.1461717 -0.10057183 0.07022082 -0.11416351
-0.05817329 -0.07012231 0.01736964 -0.11595227 0.2038368 -0.051417883 -0.13695975 -0.059312254
-0.20016201 -0.17086844 -0.013039502 0.06374765 0.12246133 0.11414391 -0.0694051 -0.102184616
-0.17231582 0.1019027 0.080092214 -0.16011423 -0.045425113 -0.21065633 0.15733759 -0.022162544
-0.19098777 0.18286683 0.032961767 -0.010699171 -0.052632634 -0.19617018 0.047821067 -0.06945998
0.05903154 0.14082812 0.13004363 0.048458796 0.20603302 0.030650733 -0.025615163 0.038011976
-0.012979722 -0.14224815 -0.14616415 0.12508823 -0.18781695 -0.15065223 -0.031879317 -0.044936296
0.113730684 -0.048231024 -0.12830392 0.15643789 0.15039144 -0.08437802 0.097574964 0.14430135
-0.0554913 -0.13696702 -0.094769485 -0.13070475 -0.02305009 0.09843012 0.09850426 -0.18144475
-0.13870144 -0.10707096 0.16287649 0.18142615 -0.13136894 -0.13349827 -0.090258345 -0.14282313
0.03400568 0.06991155 0.02093403 -0.028734554 -0.07435042 0.041362338 0.043708272 0.07122788
0.151179 -0.1487144 0.12733501 0.058985267 0.109579 -0.04431359 0.18283117 0.13717072
0.06960522 0.13227093 0.06478255 -0.048272736 -0.07384783 0.13269289 -0.062222622 0.108143955
-0.15245232 0.081532925 0.16813773 0.10410333 0.14526246 -0.17466219 0.049089428 0.1084387
-0.081421524 0.050779264 -0.1537704 0.05556644 -0.19209358 0.15980564 0.024970489 0.13930517
0.18144129 -0.1922226 0.04838141 -0.12549028 0.18828832 -0.07704499 -0.14833629 0.17562342
0.06379809 0.08789175 -0.110883944 -0.067516476 0.07246252 -0.12939978 0.1749224 -0.06725688
0.16395509 -0.08166003 -0.17941467 -0.09692526 -0.041436225 -0.083607666 -0.16112605 0.09805496
0.026692208 0.018968605 -0.08717047 -0.14535232 -0.020701258 -0.15506676 0.19466381 0.17583449
0.036750097 -0.16698143 -0.18253541 -0.13520208 -0.11754215 -0.09704071 0.14307027 0.20771006
-0.09310151 -0.036774475 0.006320494 0.18689874 0.11465499 -0.007377612 -0.012961281 -0.17416242
-0.1347604 -0.07094306 -0.08586663 0.092838645 0.20641194 -0.08133515 0.09502426 0.040941145
-0.18256332 0.0012484317 -0.0070582577 -0.18976948 -0.12601477 -0.10142053 0.1115038 -0.15047435
0.18422589 -0.18198852 0.192343 -0.037141703 -0.086190335 -0.08466508 -0.14856412 -0.17463283
0.015881259 -0.0049860636 0.075073175 -0.09331413 -0.14795488 -0.13745601 0.03885879 0.063773416
-0.103527546 -0.12944536 -0.1140888 -0.04213638 0.12702757 -0.1694244 -0.10705705 -0.042020507
-0.064559616 -0.0773214 -0.062772855 0.048319273 0.09972205 0.13349381 0.20794345 -0.1813553
-0.0044410466 -0.06646585 -0.019054575 0.04392514 -0.11133257 -0.09962691 -0.055486105 -0.065951735
0.06290356
00000000: 7d14 e73c 9b89 0bbe 8987 1d3e bbb5 f93d
00000010: 09ae 15be 9bf8 cdbd efcf 8f3d 8fce e9bd
00000020: 1e47 6ebd 499c 8fbd c64a 8e3c 6278 edbd
00000030: 98ba 503e 8f9b 52bd 2d3f 0cbe 68f1 72bd
00000040: 45f7 4cbe 23f8 2ebe a3a3 55bc 218e 823d
00000050: 01cd fa3d 48c4 e93d 4324 8ebd 2b46 d1bd
00000060: 8f73 30be 5db2 d03d 6307 a43d fcf4 23be
00000070: af0f 3abd 4bb6 57be 1b1d 213e 398e b5bc
00000080: 4c92 43be 7141 3b3e eb02 073d 934b 2fbc
00000090: 5195 57bd d6e0 48be 06e0 433d 0941 8ebd
000000a0: 0ecb 713d 3f35 103e 282a 053e bb7c 463d
000000b0: 52fa 523e 3f17 fb3c e4d6 d1bc 72b2 1b3d
000000c0: e6a8 54bc 80a9 11be 0eac 15be 2117 003e
000000d0: 1653 40be 9444 1abe e393 02bd 1f0f 38bd
000000e0: a2eb e83d e58d 45bd 1a62 03be 4131 203e
000000f0: 3700 1a3e 62ce acbd 62d5 c73d bcc3 133e
00000100: d84a 63bd 1541 0cbe 8116 c2bd 77d7 05be
00000110: 8bd3 bcbc bb95 c93d 9abc c93d a7cc 39be
00000120: c007 0ebe 0548 dbbd 18c9 263e c7c7 393e
00000130: 9485 06be c5b3 08be 5ed9 b8bd 3a40 12be
00000140: 8a49 0b3d c92d 8f3d d87d ab3c ba64 ebbc
00000150: 0845 98bd 8e6b 293d 7207 333d ecdf 913d
00000160: abce 1a3e 9648 18be 1c64 023e 899a 713d
00000170: f46a e03d 2b82 35bd 1838 3b3e 7b76 0c3e
00000180: 2e8d 8e3d 0872 073e b7ac 843d a2b9 45bd
00000190: 883d 97bd a5e0 073e 26dd 7ebd 947a dd3d
000001a0: 761c 1cbe bcfa a63d 4c2c 2c3e 2034 d53d
000001b0: afbf 143e a5da 32be ff11 493d 1c15 de3d
000001c0: 54c0 a6bd ebfd 4f3d fd75 1dbe a399 633d
000001d0: 2eb4 44be 17a4 233e e98e cc3c 04a6 0e3e
000001e0: bfcb 393e 00d6 44be 962b 463d 8680 00be
000001f0: a7ce 403e c4c9 9dbd 78e5 17be a0d6 333e
00000200: 93a8 823d 9700 b43d 1f17 e3bd 1446 8abd
00000210: 3b67 943d 6081 04be dc1e 333e fabd 89bd
00000220: d8e3 273e 603d a7bd 7bb8 37be c080 c6bd
00000230: 08b9 29bd 7f3a abbd 3afe 24be 0ad1 c83d
00000240: 9ea9 da3c 0c64 9b3c 6e86 b2bd 3dd7 14be
00000250: af95 a9bc d2c9 1ebe f355 473e f50d 343e
00000260: 4587 163d 2efd 2abe 90ea 3abe 6a72 0abe
00000270: f0b9 f0bd 48bd c6bd 0381 123e f2b1 543e
00000280: 01ac bebd d5a0 16bd 261c cf3b 6262 3f3e
00000290: 3cd0 ea3d e5bf f1bb 8e5b 54bc a257 32be
000002a0: a1fe 09be 984a 91bd d8da afbd 3022 be3d
000002b0: a75d 533e 0b93 a6bd 149c c23d e7b1 273d
000002c0: e1f1 3abe 6ba2 a33a f548 e7bb ee52 42be
000002d0: 040a 01be 91b5 cfbd 1b5c e43d f315 1abe
000002e0: b6a5 3c3e 335b 3abe 90f5 443e e621 18bd
000002f0: 8f84 b0bd e364 adbd 3121 18be f3d2 32be
00000300: 6a19 823c 2262 a3bb f7bf 993d 7b1b bfbd
00000310: 7c81 17be 45c1 0cbe 652a 1f3d a39b 823d
00000320: 4006 d4bd 538d 04be 64a7 e9bd 3297 2cbd
00000330: 8413 023e 977d 2dbe ba40 dbbd b21d 2cbd
00000340: d537 84bd af5a 9ebd 0e8f 80bd 6eea 453d
00000350: 133b cc3d 9ab2 083e 21ef 543e 34b5 39be
00000360: 3386 91bb 3f1f 88bd 5718 9cbc d9ea 333d
00000370: 5502 e4bd 3209 ccbd 6645 63bd b411 87bd
00000380: 95d3 803d

rnn.weight_hh_l0_reverse f4 [75, 25]
-0.15182899 -0.19613338 -0.039574098 0.16699658 -0.15997492 -0.029149199 -0.16976035 0.11172929
0.15598114 0.0013667584 0.17770259 -0.14062826 -0.1525197 0.118278764 0.064411 -0.13334353
-0.17729521 -0.09259956 -0.1059896 -0.082790114 0.15097955 0.08200629 0.1958127 -0.17220509
0.030134821 -0.0751899 -0.13378842 -0.1185941 0.1610272 0.08778391 -0.013333797 -0.05380435
0.044637587 -0.11950836 0.016324593 -0.046188213 -0.15231398 0.07490566 -0.05369177 -0.044613387
-0.018487072 0.13614891 -0.0355783 -0.112965226 -0.03250153 0.17259252 -0.053845476 0.14043598
0.19637373 0.0983135 0.057193186 -0.022754883 -0.079144694 0.10100012 0.17396538 0.122163795
-0.02251544 -0.1314861 -0.124771334 -0.17073984 0.06433785 -0.13023408 0.071775794 -0.18957503
0.018332338 0.14437453 0.0522768 0.0030882598 0.0350554 -0.055675175 -0.15407057 -0.15378466
-0.16481392 -0.1703621 0.07965078 -0.0047781705 -0.1070195 0.11005566 -0.052654266 -0.16518226
-0.15950279 0.17021516 -0.08647163 -0.18408246 0.11117065 -0.15456867 0.12951095 0.10500755
0.13240539 -0.17576885 0.03911791 0.08738949 0.09048977 -0.12494526 -0.105806924 0.17243746
-0.19951136 -0.09695127 -0.08220611 0.10413535 -0.18532191 0.16618378 0.09700167 -0.09428256
0.1437145 -0.038236763 -0.009230614 -0.13584988 0.014808679 0.036947586 -0.1421053 0.082579635
-0.18235822 0.12884538 -0.17910483 0.04478252 -0.052717496 0.1145853 0.07728534 0.08332942
-0.054323792 -0.08785947 0.094381146 -0.07853494 0.107010245 0.1441665 -0.12763825 -0.19337235
0.07863443 0.0573236 -0.118957475 -0.16785462 -0.19621527 -0.14637215 0.17920502 0.1752624
0.024925971 0.106980756 -0.026699876 -0.1318389 0.05935595 0.0631716 0.14237264 -0.16164272
-0.096829414 0.07890742 0.07631393 -0.03136728 0.010173726 -0.06913505 0.090651564 -0.004093838
0.0018607378 0.0041772127 -0.14836995 -0.022614837 -0.051205017 -0.0063699964 -0.0023842573 -0.16342492
0.0075636865 0.18295892 -0.18126027 -0.00864687 -0.15595327 -0.17995083 -0.12500313 -0.073893026
0.18165396 0.106802225 0.1844414 0.09261389 -0.17472301 0.014376855 -0.07002308 -0.0035866261
0.16079207 0.1813199 0.14117332 -0.1782598 -0.035519984 -0.055921435 0.07206922 0.18810427
0.059669256 -0.18582447 -0.15741256 0.13344789 0.170366 -0.13842599 -0.007313657 -0.13571973
-0.09555757 -0.051639058 -0.014658856 -0.01860695 0.12878136 0.053900193 -0.05548043 0.033787537
-0.16225234 -0.05014179 0.15489452 0.10232947 0.04086237 -0.14321566 -0.12561317 -0.16136299
-0.0841433 0.019830465 -0.17212604 -0.07741816 0.16104257 0.061733127 0.18845633 -0.025287151
-0.1902112 -0.16373265 -0.09958198 0.028907347 -0.12853324 -0.07628293 0.1955304 0.14295535
-0.19692753 -0.117509745 -0.16077761 0.06818366 0.022047354 0.12600215 0.016086055 -0.18920623
0.02766099 -0.12545644 0.16030207 0.13476662 0.10418816 0.067861676 0.19319013 0.011416149
0.14576414 0.17564948 0.18670331 -0.13137367 -0.018662406 -0.16066802 -0.11240194 -0.12734567
0.03114078 0.17929628 -0.12577175 -0.026400615 -0.16091195 0.13211899 -0.017818809 0.12116442
00000000: 0f79 1bbe 30d7 48be 7318 22bd 2701 2b3e
00000010: 77d0 23be 4dca eebc a8d5 2dbe 53d2 e43d
00000020: 85b9 1f3e cd24 b33a abf7 353e db00 10be
00000030: 202e 1cbe 233c f23d eae9 833d 358b 08be
00000040: e08c 35be d7a4 bdbd 1311 d9bd dd8d a9bd
00000050: 629a 1a3e eaf2 a73d 2083 483e 8856 30be
00000060: 4ddd f63c 2afd 99bd d5ff 08be 77e1 f2bd
00000070: 50e4 243e 0dc8 b33d 0076 5abc f361 5cbd
00000080: e7d5 363d cdc0 f4bd 27bb 853c da2f 3dbd
00000090: 32f8 1bbe 2368 993d e7eb 5bbd 87bc 36bd
000000a0: 3372 97bc 9f6a 0b3e 8dba 11bd 505a e7bd
000000b0: 5320 05bd 18bc 303e 138d 5cbd 73ce 0f3e
000000c0: 3216 493e 9758 c93d 6743 6a3d 7368 babc
000000d0: 9d16 a2bd 27d9 ce3d fb23 323e 0331 fa3d
000000e0: 4d72 b8bc 4ba4 06be 1d88 ffbd 6dd6 2ebe
000000f0: 90c3 833d 155c 05be 30ff 923d f51f 42be
00000100: b32d 963c ebd6 133e 3320 563d 6764 4a3b
00000110: 4096 0f3d a70b 64bd adc4 1dbe ba79 1dbe
00000120: fbc4 28be 6773 2ebe f31f a33d 3392 9cbb
00000130: 0a2d dbbd dd64 e13d 00ac 57bd 8a25 29be
00000140: b354 23be e24c 2e3e 0a18 b1bd 1d80 3cbe
00000150: 70ad e33d 4047 1ebe 859e 043e 330e d73d
00000160: 4795 073e c0fc 33be 1a3a 203d 43f9 b23d
00000170: b352 b93d 4de3 ffbd 4db1 d8bd 7293 303e
00000180: b54c 4cbe 638e c6bd ad5b a8bd ea44 d53d
00000190: 07c5 3dbe 152c 2a3e d0a8 c63d 3717 c1bd
000001a0: e529 133e 279e 1cbd 003c 17bc 3b1c 0bbe
000001b0: 1aa0 723c 5a56 173d 0d84 11be 831f a93d
000001c0: 1dbc 3abe 0bf0 033e 4267 37be e06d 373d
000001d0: 4dee 57bd b3ab ea3d c747 9e3d 9da8 aa3d
000001e0: a082 5ebd aaef b3bd e74a c13d edd6 a0bd
000001f0: 3028 db3d 62a0 133e 9ab3 02be 6703 46be
00000200: 170b a13d 27cc 6a3d fa9f f3bd 15e2 2bbe
00000210: a8ec 48be 95e2 15be 8581 373e fd77 333e
00000220: 8d31 cc3c ba18 db3d b3b9 dabc c700 07be
00000230: 3a1f 733d 1d60 813d 22ca 113e ab85 25be
00000240: 804e c6bd 379a a13d 7a4a 9c3d fa7a 00bd
00000250: b3af 263c ad96 8dbd 87a7 b93d 9a25 86bb
00000260: 00e4 f33a 00e1 883b 4bee 17be c042 b9bc
00000270: 5abc 51bd 67bb d0bb 3341 1cbb dd58 27be
00000280: cdd8 f73b 9559 3b3e 4b9c 39be 9aab 0dbc
00000290: 37b2 1fbe 0845 38be d200 00be 3a55 97bd
000002a0: 7f03 3a3e 20bb da3d 35de 3c3e 5aac bd3d
000002b0: 97ea 32be e78c 6b3c 4368 8fbd 9a0d 6bbb
000002c0: ada6 243e edab 393e bd8f 103e bd89 36be
000002d0: 677d 11bd e00d 65bd 0799 933d 689e 403e
000002e0: c067 743d c548 3ebe c230 21be 90a6 083e
000002f0: 6d74 2e3e 8bbf 0dbe 67a7 efbb 1dfa 0abe
00000300: b0b3 c3bd 7a83 53bd b32b 70bc 9a6d 98bc
00000310: 43df 033e 73c6 5c3d 733f 63bd cd64 0a3d
00000320: 7a25 26be 7a61 4dbd ab9c 1e3e 1d92 d13d
00000330: 4d5f 273d 20a7 12be bda0 00be 573c 25be
00000340: 5353 acbd 8073 a23c cf41 30be 6a8d 9ebd
00000350: 58e8 243e e0db 7c3d b2fa 403e 0027 cfbc
00000360: bac6 42be 88a9 27be a3f1 cbbd 1acf ec3c
00000370: 389e 03be 3a3a 9cbd 1f39 483e e362 123e
00000380: 5fa7 49be f3a8 f0bd e3a2 24be e0a3 8b3d
00000390: a79c b43c b506 013e e7c6 833c 47bf 41be
000003a0: 4d99 e23c a777 00be 3a26 243e 4300 0a3e
000003b0: 9a60 d53d 10fb 8a3d a2d3 453e cd0a 3b3c
000003c0: 3243 153e 75dd 333e 272f 3f3e d286 06be
000003d0: e7e1 98bc 2886 24be fd32 e6bd e766 02be
000003e0: f31a ff3c 7299 373e 4fca 00be 1a46 d8bc
000003f0: 1ac6 24be 334a 073e c0f8 91bc 0d25 f83d

rnn.bias_ih_l0_reverse f4 [75]
0.038642876 0.19082189 -0.14026058 -0.19626719 -0.09733375 0.04555193 0.04507795 0.18628345
0.010040729 0.1591499 -0.061986897 -0.03705992 -0.13574809 -0.050122906 0.14136308 -0.097313054
0.15903057 -0.18838426 -0.20354448 0.12380987 0.005766099 0.07031812 0.18506216 0.013446478
0.062300425 0.15669055 0.09257981 0.011999015 0.08535298 -0.20545395 -0.07641872 0.04494864
-0.18758503 -0.009098491 -0.1951201 0.09509462 0.20023024 0.04370392 0.06814627 -0.0770472
-0.21342155 0.016905112 -0.12471322 0.07887706 0.15857594 0.18306518 0.08950993 -0.08765876
-0.019325005 -0.08371907 -0.17656595 -0.09515387 0.016480962 0.16536333 0.03547155 -0.11061309
-0.09152368 -0.020870036 0.117949225 0.16276555 -0.024968548 -0.059744697 -0.050432533 -0.10376268
-0.15853879 -0.0006216789 0.17138016 0.16511218 0.026557494 0.1777862 0.1019501 -0.14693764
0.121122666 -0.12730043 -0.03571669
00000000: fe47 1e3d d066 433e 78a0 0fbe 44fa 48be
00000010: eb56 c7bd a994 3a3d a8a3 383d 17c1 3e3e
00000020: df81 243c 31f8 223e f9e5 7dbd 25cc 17bd
00000030: 8c01 0bbe ad4d 4dbd 7cc1 103e 114c c7bd
00000040: e9d8 223e cee7 40be f76d 50be 0790 fd3d
00000050: 8bf1 bc3b f202 903d ef80 3d3e 9e4e 5c3c
00000060: bb2e 7f3d 7d73 203e 7c9a bd3d 8497 443c
00000070: 8bcd ae3d 8562 52be 6b81 9cbd 111c 383d
00000080: 4a16 40be d611 15bc 90cd 47be f8c0 c23d
00000090: 2809 4d3e e202 333d 4690 8b3d ecca 9dbd
000000a0: 2e8b 5abe 977c 8a3c a569 ffbd 4c8a a13d
000000b0: bb61 223e 7075 3b3e fb50 b73d 7086 b3bd
000000c0: 794f 9ebc e774 abbd b4cd 34be 08e0 c2bd
000000d0: 1503 873c 0155 293e 9e4a 113d 1e89 e2bd
000000e0: c470 bbbd a3f7 aabc 5d8f f13d 03ac 263e
000000f0: d78a ccbc dbb6 74bd 5892 4ebd 8781 d4bd
00000100: fe57 22be 2af8 22ba 487e 2f3e 2b13 293e
00000110: 1a8f d93c 960d 363e 37cb d03d d276 16be
00000120: 290f f83d 0b5b 02be aa4b 12bd

rnn.bias_hh_l0_reverse f4 [75]
-0.09390207 -0.004343036 -0.19430864 -0.054396417 0.11847201 -0.13867623 0.022674838 0.024657922
0.1365645 -0.20226288 -0.17978393 -0.17301704 0.004291086 0.123705305 0.10530082 0.03423705
-0.1653133 0.129398 0.046887387 -0.17772885 -0.13399543 0.1965795 0.02279934 0.095721826
0.119608946 -0.03112301 0.04321217 0.11294367 -0.060846157 -0.10047734 -0.07849627 -0.13402154
0.030964127 -0.026618276 -0.16341756 -0.073536985 -0.13137846 -0.08500882 -0.08641658 0.012739935
0.14938301 -0.030552918 0.20320964 -0.08040384 0.0055219326 0.0005350646 0.1443262 -0.14530589
-0.16620353 0.2084653 -0.003406438 0.072228484 -0.0126356175 0.114779264 0.032094877 -0.00844024
-0.011270243 -0.013239392 -0.18391058 0.10255509 0.005565212 -0.15548617 0.009330681 -0.110621154
-0.07568012 -0.16719171 0.18077548 -0.00710276 0.13042209 -0.043816596 0.10242283 0.089453906
0.11617823 0.07524965 -0.061286457
00000000: ba4f c0bd 0750 8ebb d8f8 46be c7ce 5ebd
00000010: 74a1 f23d 2401 0ebe 95c0 b93c 69ff c93c
00000020: 90d7 0b3e 001e 4fbe 4719 38be 612b 31be
00000030: 3d9c 8c3b 3559 fd3d f5a7 d73d 263c 0c3d
00000040: e447 29be e980 043e fd0c 403d 8dfe 35be
00000050: 1936 09be 234c 493e aec5 ba3c ce09 c43d
00000060: 89f5 f43d aff5 febc 3fff 303d 034f e73d
00000070: d239 79bd 10c7 cdbd a7c2 a0bd f13c 09be
00000080: 7ba8 fd3c 920e dabc ef56 27be 8f9a 96bd
00000090: 1388 06be 1b19 aebd 2dfb b0bd 29bb 503c
000000a0: dcf7 183e 1d4a fabc 3016 503e c5aa a4bd
000000b0: 54f1 b43b 9443 0c3a 3fca 133e 11cb 14be
000000c0: 4231 2abe ed77 553e 8c3e 5fbb 87ec 933d
000000d0: 9f05 4fbc 6411 eb3d eb75 033d ef48 0abc
000000e0: d3a6 38bc 09ea 58bc 0e53 3cbe 6708 d23d
000000f0: 625c b63b c437 1fbe b6df 183c 588d e2bd
00000100: 2efe 9abd 4e34 2bbe 351d 393e 45be e8bb
00000110: 5e8d 053e 0879 33bd 10c3 d13d 9c33 b73d
00000120: daee ed3d 7d1c 9a3d 8207 7bbd
