saves/week_40_2_fine_bias_encoder.pth (torch, 19576 bytes, 8 tensors)

rnn.weight_ih_l0 f4 [75, 3]
000000 54 d9 6c 3d 15 d4 ae 3d 2a 95 e1 3d 6c bf e5 bd
       0.057824448 0.08536545 0.11014779 -0.112181515
000010 cb 7b 49 be 1f 0d 12 be 51 21 29 3d b7 bb 0e 3d
       -0.1967613 -0.14262818 0.04129154 0.034846988
000020 0c 7f 36 3e 68 b2 84 3a 44 3c 78 bd c4 ef 23 3d
       0.17821902 0.001012397 -0.06060435 0.04002358
000030 19 02 a3 bd e3 62 c2 3d 0b 33 24 3e 82 72 d3 ba
       -0.079593845 0.094915174 0.16035096 -0.0016132148
000040 3b d8 37 3e 35 0f 2e 3d c3 aa 2a 3d 0b c9 58 bd
       0.17953579 0.04249497 0.041666757 -0.052926105
000050 e6 50 a7 3d e1 f6 ed 3d 01 81 38 be 2e ef 97 bd
       0.08169727 0.11619354 -0.18017961 -0.07418667
000060 f4 bb fb 3d 1c 4b 1a 3e 93 5e 28 be 73 f2 86 bd
       0.122917086 0.15067714 -0.16442327 -0.06589212
000070 fd a8 9c 3c 1c 1a 11 3e 7e b2 26 be 3f c7 41 bd
       0.019123549 0.14170116 -0.16279027 -0.047309157
000080 e9 1f 86 bd 19 a1 37 3e 6c 78 77 bd 5f ab 3e 3e
       -0.06549055 0.17932548 -0.060417578 0.1862006
000090 62 c3 a8 3c 25 9e c9 3d 6e a3 84 3d a2 f1 8c 3c
       0.020600978 0.09844617 0.06476484 0.017205063
0000a0 0c a3 53 bb fd c8 4b 3e e9 09 48 bd ee 98 2b be
       -0.0032293228 0.1990089 -0.048837576 -0.16757557
0000b0 4a bd 0c 3e 00 f3 40 be 7d b8 49 3e 7a be 37 3e
       0.13744083 -0.18842697 0.19699283 0.17943755
0000c0 80 57 d1 3d ef 9c 3e bd 73 32 98 bd e5 7a 1e be
       0.102217674 -0.046536382 -0.074314974 -0.15476568
0000d0 34 60 3b 3e e4 c5 a2 bd 3b 6f d7 3d 7a 06 13 be
       0.18298417 -0.07947901 0.105192624 -0.1435794
0000e0 4b 37 b7 3d e3 d4 08 bd ce c0 cc 3d b4 7a 0c 3d
       0.08946093 -0.03340615 0.09997712 0.034296706
0000f0 f5 9c 07 3e 90 3d 3f 3e b9 75 b0 bd 0b 39 19 3e
       0.13243468 0.18675828 -0.08616204 0.14963166
000100 d1 27 03 3e c3 66 aa 3d 76 9a f8 3d c8 39 3e 3e
       0.12808158 0.083203815 0.12138836 0.1857673
000110 6e 56 2f be 27 78 3a be 8b 98 10 ba 6b ad ba 3d
       -0.17122814 -0.18209897 -0.0005515895 0.09115108
000120 52 8e d7 bd ce 58 1b be 78 0e 10 3e e3 5e 1a 3e
       -0.10525192 -0.15170595 0.1406802 0.15075259
000130 20 cd c4 bc 31 45 d0 bd 5d b4 f3 bd ad 05 eb 3d
       -0.024023592 -0.10169447 -0.11899636 0.11475692
000140 37 3a 08 3e 95 ad 08 3e 6e f4 3c 3d 94 2d f3 3d
       0.13303457 0.13347466 0.046131544 0.11873928
000150 af 02 91 3d 0c 09 43 3d 61 b7 ae 3d 44 fe 9c ba
       0.0708059 0.04761605 0.085310705 -0.0011977633
000160 6c 25 03 be f6 ba 31 bd 7c d9 9a 3c fa 57 35 3e
       -0.12807244 -0.04339119 0.018902533 0.17709342
000170 a0 c9 87 3d d0 29 4a 3d 1f 47 33 3c 14 54 b1 bd
       0.06630254 0.04935628 0.01094225 -0.08658615
000180 80 19 1d be 8f 5e a5 bd ce b2 1b 3e 57 f4 c8 3b
       -0.15341759 -0.08074676 0.15204927 0.006132643
000190 d2 29 d6 bd 2d fd 11 be 14 bc 13 be cd 82 b6 3d
       -0.10457195 -0.14256735 -0.14427215 0.08911667
0001a0 7d 88 fd 3d 26 42 a6 3d cc 0b 3f 3d da 14 0c 3e
       0.12379549 0.081180856 0.04664211 0.13679829
0001b0 e9 50 7e bd 7f 5d 8b bd 76 63 54 bc 44 c2 20 3e
       -0.06208888 -0.06804942 -0.012963166 0.15699106
0001c0 82 09 7b 3c e8 3e 17 3e 4a eb 16 3d fa 99 01 be
       0.015322091 0.1477009 0.036845483 -0.12656394
0001d0 b8 56 dd 3d 2c ef 05 be 21 d3 a1 3d 0a fc e9 3d
       0.10807556 -0.13079518 0.07901598 0.11425026
0001e0 22 c9 41 be e0 16 da 3c 83 4d cd bd f6 41 bf 3d
       -0.18924382 0.026622236 -0.1002455 0.09338753
0001f0 d9 08 31 3e 6a 66 d7 3d 61 dc 1e 3d 74 a1 a8 bb
       0.17288531 0.10517581 0.03878439 -0.0051462
000200 95 f6 0a 3e 51 9d 40 3b c8 9a 33 3e a5 24 22 3e
       0.13570626 0.0029390643 0.17539513 0.15834291
000210 82 45 39 be 5d 32 04 3e d7 3c 99 bd 22 eb f0 bd
       -0.18092921 0.12909837 -0.074823074 -0.11763598
000220 f7 3b 92 3d 6e 3d c2 3d 54 0f b5 3d e5 10 a0 3d
       0.07140344 0.09484373 0.08840814 0.078157224
000230 6c 39 ab 3d e3 67 1a be ed c9 e9 3d 57 ed 2e 3e
       0.08360562 -0.15078692 0.114154674 0.17082725
000240 b2 cf 0f be 05 fd 95 bd c1 8c 26 3d 72 7f b9 3c
       -0.14044073 -0.0732365 0.040661577 0.022643778
000250 06 e0 fd bd 19 13 60 bd b3 a4 c0 3c 37 b1 25 3d
       -0.12396245 -0.054705713 0.023516035 0.04045221
000260 00 cb f7 bd 5b 4f e4 bd 3a 0c 49 be fb 8c 1e bd
       -0.12099266 -0.11147948 -0.1963357 -0.03870867
000270 7e e1 32 bd 4b 5c 2a be 88 e3 30 be c2 cf 54 3d
       -0.043672077 -0.1663677 -0.17274296 0.051955946
000280 35 69 45 3e c1 91 43 be 78 2f 08 be dd d5 09 bd
       0.19278415 -0.1909857 -0.13299358 -0.03365122
000290 f2 57 26 be 2d 85 02 bc 57 27 ed 3c 25 42 de 3d
       -0.16244486 -0.007966322 0.028949423 0.1085246
0002a0 30 af 21 be c0 ab 1d be 03 e8 17 be 40 0a 6d bc
       -0.15789485 -0.15397549 -0.14834599 -0.014467776
0002b0 34 92 47 3e c7 a2 7a bd 41 86 19 3e 46 cc 3a 3d
       0.19489366 -0.061190393 0.1499262 0.045604967
0002c0 65 cf 28 3e 1c d6 03 3e b0 68 a9 3d 46 07 d0 bd
       0.16485365 0.12874645 0.08271921 -0.10157637
0002d0 0a f3 87 bd 3f b5 63 3d fe 27 4b be 66 69 3a 3e
       -0.06638153 0.05559277 -0.19839475 0.18204269
0002e0 e8 c2 23 be 6e 48 7d 3c 2c 1e e3 3d 98 7c 08 be
       -0.1599232 0.015459163 0.11089739 -0.13328779
0002f0 b3 75 af bd 0a cc 33 bd 2e a1 9a 3d ba d5 09 be
       -0.08567371 -0.04389576 0.07550274 -0.13460436
000300 d1 7b ab bd eb 60 66 3d f0 87 86 3d a7 ea ea 3d
       -0.083732255 0.056244772 0.06568897 0.11470538
000310 67 16 f5 bb 66 ff 81 3d 43 8c 35 be 56 24 8b 3d
       -0.007479477 0.063475415 -0.17729287 0.0679404
000320 f7 fc a0 bd 96 fb 0d 3e b7 9f 3d be 76 4b ae 3d
       -0.07860749 0.13865504 -0.18517958 0.08510487
000330 1b ef 25 3e a8 7c 36 3e 19 ab 76 3d 35 c6 14 be
       0.16204493 0.1782099 0.060221765 -0.14528735
000340 85 c3 db bd ca 54 48 be 25 03 52 bd 28 7c 42 be
       -0.10730652 -0.19563594 -0.05127253 -0.18992674
000350 72 5c 21 3e 90 99 d0 bd cf 4e 10 be fc 71 d9 3c
       0.15757921 -0.1018554 -0.14092563 0.02654361
000360 cc e1 39 be 29 bd 84 3d a5 96 18 3e 5b 4d e5 3d
       -0.18152541 0.06481392 0.14901216 0.11196395
000370 7e 91 10 3e f0 72 f4 3c a5 4a b1 bc c5 f5 1b 3c
       0.14118001 0.029839963 -0.021642039 0.009519045
000380 1c 71 4a 3e
       0.1976971

rnn.weight_hh_l0 f4 [75, 25]
000000 64 dd f2 bd 55 97 d4 bd 86 9e 84 3d 8d 95 2c be
       -0.11858633 -0.10380427 0.064755484 -0.16853924
000010 df 81 4e 3e a2 87 19 be 38 17 12 3e 1f d0 c7 3d
       0.2016673 -0.14993146 0.1426667 0.09756493
000020 76 3f de 3d f5 2c 3c 3e 6d 4f 49 be da 21 89 bd
       0.10851948 0.18376525 -0.19659205 -0.0669591
000030 1c 05 24 3e ac d7 86 bd 56 17 17 be 84 73 23 be
       0.16017574 -0.06584105 -0.14754996 -0.15962034
000040 c6 e7 40 3e 21 97 4f 3d e9 30 83 bd 9f 91 3b be
       0.18838415 0.050681237 -0.06405813 -0.18317269
000050 e2 5a 40 3e 36 34 e7 bd 3c e0 1f 3e 9a 6c ec 3d
       0.18784669 -0.11289255 0.15612882 0.115441516
000060 73 84 45 3d 7a 42 48 3e 56 da e9 bc 8f 1d 17 3e
       0.048222017 0.19556609 -0.028546494 0.1475737
000070 4d 58 4c be 67 b1 5b 3c de bd 48 3e 5d da dc 3d
       -0.19955559 0.013408995 0.19603679 0.10783837
000080 40 42 d1 bd 5e 08 01 bd df 14 0f 3e f1 cf 18 be
       -0.10217714 -0.03150212 0.13972805 -0.14923073
000090 b3 7b 5f bd af 84 2d be 57 80 c0 3d 63 98 72 bc
       -0.05456133 -0.16945146 0.09399479 -0.01480684
0000a0 e6 0e 9e bd db 62 6f bd 26 ac 06 be e1 ff 77 bd
       -0.077176854 -0.058443885 -0.13151607 -0.06054676
0000b0 7e 1c 24 bd 44 33 16 3e 53 26 4d bc 03 eb 3a be
       -0.040066235 0.14667994 -0.012521344 -0.18253712
0000c0 54 36 b5 bd f4 8a e3 bc 84 f1 0d be cc de 28 be
       -0.08848253 -0.027776219 -0.13861662 -0.1649124
0000d0 f2 4e f9 3d 50 46 82 bc 2a c0 ac 3d 2b 13 80 3c
       0.12173261 -0.015902668 0.0843509 0.01563414
0000e0 57 08 c6 3d 75 be ab bd b4 60 c7 3d 61 43 c8 3c
       0.096695594 -0.08385936 0.097352415 0.024446191
0000f0 ab f6 45 3e 67 eb 20 be 6d a0 99 3d 9f fc db 3d
       0.19332378 -0.15714799 0.07501302 0.10741543
000100 aa 9e b5 3d 34 1f 89 bd 22 40 3d 3e 98 a6 ee bd
       0.088681534 -0.06695405 0.18481496 -0.11652869
000110 45 17 25 be 95 96 18 bd 42 3e 16 be 9d 6e 81 3d
       -0.16122158 -0.03725298 -0.14672187 0.06319926
000120 26 04 11 be 0e 79 cc bd 79 83 df bd 77 d2 ba 3c
       -0.14161739 -0.09984027 -0.10913748 0.022805436
000130 da 56 0f be 49 b3 d6 3d 2e 62 35 be 93 08 3d 3e
       -0.13997975 0.10483415 -0.17713234 0.18460302
000140 7b 46 23 3e 0d ff 29 3d 5b a4 fe 3d 3b d6 38 be
       0.15944855 0.041503 0.12433692 -0.18050472
000150 f1 24 26 3e 4a ad 14 be 44 af 94 bd c8 cf ad 3d
       0.1622503 -0.1451923 -0.07259992 0.08486897
000160 89 73 0f be da f5 fe bd 0b ca 40 be 23 d7 05 3e
       -0.14008917 -0.12449236 -0.18827073 0.1307035
000170 0c 1a 8a 3d 9a c2 b3 b8 9d 29 df 3d 9e 33 0e be
       0.06743249 -8.5716325e-05 0.10896609 -0.13886878
000180 bc 20 9e bd 55 c4 0f be 13 24 a0 3d 0d 63 4b bd
       -0.07721087 -0.14039738 0.078193806 -0.04965501
000190 42 3e 12 be 32 cb 06 3e d2 44 7c 3c 3e 88 10 be
       -0.14281562 0.1316345 0.015397267 -0.14114472
0001a0 fe d9 7b 3d 98 9c ab bd 9a fb 1f bd f2 9d 0f bc
       0.06148719 -0.08379477 -0.039058305 -0.008765684
0001b0 7b b6 31 3d 20 0c 95 3d ea e9 43 3e 1c a7 ac bd
       0.043386918 0.07277703 0.191322 -0.08430311
0001c0 f7 e7 01 bd 29 4b 29 3e 44 fb 6e bd 14 de 8b 3c
       -0.03171536 0.16532578 -0.058345094 0.017073669
0001d0 93 1d 2a 3e 53 b5 a8 bd de c3 40 3e 84 c0 04 be
       0.16612844 -0.0823771 0.18824717 -0.12964064
0001e0 82 9c aa 3d c5 4b df bd 10 e6 04 be eb ec cd 3d
       0.08330633 -0.10903124 -0.12978387 0.10054954
0001f0 19 21 a8 3d 71 b3 34 be 19 5c 25 bd fc e7 d0 bd
       0.08209438 -0.17646576 -0.040371034 -0.102004975
000200 58 1f 60 bc 8e 07 ec bd 0e 01 2b 3d 4c 42 38 be
       -0.013679348 -0.115248784 0.041749053 -0.1799404
000210 4a 3e fb bc b0 51 44 be 44 df 47 3e 41 76 8b bd
       -0.03066935 -0.19171786 0.19518763 -0.068096645
000220 41 6a 3b 3e d6 e4 9d 3d a1 1b e8 3d e2 ed 8e bd
       0.18302251 0.077096626 0.11333395 -0.06978966
000230 ca e0 fd 3d 2e 22 38 be 54 fe 12 3e 2f cb e4 3d
       0.12396391 -0.17981789 0.14354831 0.11171567
000240 db bd 2f bc 92 96 90 3c 6c c1 16 bd 86 f2 11 3e
       -0.010726417 0.017649923 -0.036805555 0.14252672
000250 eb e6 38 3e ff 42 4a be d0 ea d2 bd 3d 3a 05 be
       0.18056838 -0.1975212 -0.10298693 -0.13010497
000260 e2 08 4d 3e 93 22 02 be 43 39 17 3e b9 af 36 bd
       0.2002292 -0.12708502 0.14767937 -0.044601176
000270 a8 46 b4 bc aa aa 34 3e 92 9a 8c 3d 23 e2 ce bd
       -0.022006348 0.17643228 0.068654194 -0.10101726
000280 04 66 c8 3c 88 92 17 be 66 0d 3c 3e 71 be 36 3e
       0.024462707 -0.14801991 0.18364486 0.17846085
000290 4e e0 37 bc 43 23 35 bd 49 d4 d1 3d ae 22 9b 3d
       -0.011222912 -0.04422308 0.10245568 0.07574974
0002a0 02 25 3b 3e 01 bf bf 3d 07 52 d0 bc 7b 41 f8 bd
       0.18275836 0.09362603 -0.025429739 -0.121218644
0002b0 fc 09 84 3c b3 5a 97 bd c0 b9 19 3e 06 8b 23 bd
       0.016118042 -0.073903464 0.15012264 -0.039927505
0002c0 59 d4 da bc 7a a0 13 3e 43 c8 0a 3e be 31 60 3d
       -0.026712583 0.14416686 0.13552956 0.054734938
0002d0 55 8b 63 3d 23 91 1c be 9d ab 0c 3e ba 1a 88 bd
       0.0555528 -0.1528974 0.1373734 -0.06645723
0002e0 ca 3d 3f be 0c 33 c6 bc 29 f1 81 3b 62 1f 1a 3e
       -0.18675914 -0.024194263 0.003965516 0.15051034
0002f0 e8 02 1f 3e 04 0d bf bd 82 08 0c be af 1e 20 be
       0.15528452 -0.093286544 -0.1367512 -0.15636705
000300 a8 23 f5 bd 8e 3b b5 bd d1 4b 09 3e 91 07 bb bb
       -0.119696915 -0.0884925 0.13407828 -0.005707689
000310 bd 1e 37 3d 48 e9 43 bb 1c 7b 32 be b9 20 fb bd
       0.04470705 -0.0029893685 -0.17429775 -0.12262101
000320 30 81 24 be 8f b3 e9 3d df b5 a3 bd 5a 5d 47 bd
       -0.16064906 0.11411201 -0.079936735 -0.04867301
000330 f1 0e 22 3d e9 e8 33 bd ec b1 19 be 2c e5 82 3d
       0.03956503 -0.043923292 -0.15009278 0.06391367
000340 dd 22 b5 3b 09 b7 af 3c aa dc c9 3d fb b6 4f 3d
       0.0055278377 0.021449583 0.098565415 0.050711613
000350 e6 2d 02 3e 50 fb 04 3e 93 87 1f be eb 40 6e 3d
       0.12712821 0.12986493 -0.15579061 0.05816738
000360 76 af 1d bd 86 30 79 bd 04 fc b0 3c 1c 38 b2 bd
       -0.03849741 -0.06083729 0.021604545 -0.08702108
000370 40 31 42 be 36 87 26 be 9b 07 8d 3d b8 85 0c bd
       -0.189641 -0.16262516 0.06886216 -0.03430721
000380 b2 59 00 3e 03 c5 1c be d6 e4 f6 bd 77 95 32 be
       0.12534216 -0.15309529 -0.12055366 -0.17439829
000390 f2 a1 94 bd 9c 9f 45 be f3 bb 0d 3e 2b a6 23 3e
       -0.07257451 -0.19299167 0.13841228 0.15981357
0003a0 d9 8e f6 3d 72 ca dd 3d ed b8 ec bd 21 a5 a1 3c
       0.12038965 0.10829629 -0.11558709 0.01973206
0003b0 4d 9a b9 3d 99 66 ac 3c e7 07 44 be 84 e0 e9 bd
       0.09062634 0.021045016 -0.1914364 -0.11419776
0003c0 93 31 00 be 52 ff 01 3e 7c 02 a9 bd 3b 63 24 bc
       -0.12518911 0.12695053 -0.08252427 -0.010033424
0003d0 7f 46 2c 3d f5 32 91 bd 76 29 43 3e 3c 20 5c 3b
       0.042059418 -0.070897974 0.19058785 0.003358855
0003e0 83 df 05 be 5a 2b c9 3c 42 3b 4b be 77 20 1a be
       -0.13073544 0.024556804 -0.19846824 -0.15051447
0003f0 d1 44 e9 bd 67 38 1d 3e 7a 76 42 3e a1 ee a6 bc
       -0.11390079 0.15353547 0.18990508 -0.020377459

rnn.bias_ih_l0 f4 [75]
000000 d7 cb 23 be 87 56 fe bd d8 a0 3a 3e 37 6b 13 3e
       -0.15995727 -0.124188475 0.1822542 0.14396368
000010 3b 15 8e bd 44 31 7b bd 57 c5 ba 3a 0b 9e 85 bc
       -0.06937643 -0.06132628 0.0014249486 -0.016310712
000020 da 47 1f 3d 0b 0f 6d 3d 0f fa c7 3d 24 f9 0c be
       0.038886882 0.057875674 0.09764492 -0.13766915
000030 39 49 27 be d5 26 47 be 78 14 b4 bc 6a 8f f1 3d
       -0.16336526 -0.19448407 -0.021982417 0.11794932
000040 99 15 1c be 39 28 d5 3d 9b 6f bd 3b 58 ac 1e bd
       -0.15242614 0.104080625 0.0057811267 -0.03873858
000050 74 39 9e bc a8 3f 10 3d de 9a 4c 3e 0c 17 02 be
       -0.019314505 0.035216957 0.19980952 -0.12704104
000060 5f 8f 28 3e d0 a5 fd bd f3 8d 1d bd a2 a7 b9 3d
       0.16460942 -0.12385142 -0.03846545 0.090651765
000070 13 58 f6 bc 6b ac 00 bc 75 9f b8 3d 1b ff 42 bd
       -0.030071294 -0.007853608 0.09014789 -0.04760657
000080 64 c7 33 b7 bd 28 1d be 01 e2 0a be c0 c9 43 3e
       -1.0715656e-05 -0.15347572 -0.13562776 0.1911993
000090 63 d3 b0 3d 2c 08 45 3e 46 12 40 be a1 0f 5d bd
       0.08634069 0.19241399 -0.18756971 -0.053969983
0000a0 21 dc ae bd e9 5a 93 3b 7a 5c 24 be cb 6a 1d 3e
       -0.0853808 0.0044969213 -0.16050902 0.1537277
0000b0 33 d9 3e be 07 cf d9 3d ce 14 34 bd 01 86 15 3d
       -0.18637542 0.106351905 -0.043965153 0.03650475
0000c0 60 44 4d be ac 9d 41 3e fd 8b 50 bd 2c 57 aa 3d
       -0.20045614 0.18907803 -0.050914753 0.08317408
0000d0 cf e0 a3 bd 53 06 20 be 3e 3d 17 be 00 b2 b4 3d
       -0.08001863 -0.15627412 -0.14769456 0.08823013
0000e0 fd 0e d1 3d 91 ba 99 bd 93 62 c2 bd fe 78 03 3e
       0.10207937 -0.07506288 -0.09491458 0.12839124
0000f0 f2 39 b8 3d 93 42 08 be 66 f7 00 be 4d 80 f5 bd
       0.08995427 -0.13306646 -0.12594375 -0.11987362
000100 65 19 92 bd 2d 81 57 3d f7 41 9d bd 29 83 87 3c
       -0.0713375 0.052613426 -0.076785974 0.016542034
000110 ad 02 0b 3d 09 a8 9c bb df 54 a3 3d 0f 3c 10 3d
       0.0339381 -0.0047807735 0.07975172 0.035213526
000120 56 04 dd bd 2b 68 9b 3d 16 a5 36 be
       -0.10791843 0.07588228 -0.17836413

rnn.bias_hh_l0 f4 [75]
000000 da 15 d7 bd ce 48 06 bd 9b 80 b3 bd 90 57 c0 bd
       -0.10502215 -0.032784276 -0.08764764 -0.09391701
000010 c1 c9 14 3e a9 74 1f 3d c7 ad 4b 3e 58 a0 13 be
       0.14530088 0.038929615 0.1989051 -0.14416635
000020 2a b0 e6 bd b7 72 f5 bd e9 f7 00 3e b3 d9 19 3e
       -0.112640694 -0.11984771 0.1259457 0.15024452
000030 57 9d 44 be 32 79 67 3d 8e 3c 3c be 19 e6 32 3e
       -0.19200645 0.056512065 -0.18382475 0.17470588
000040 78 4a 4f 3c a3 ca 06 3e 43 38 e9 bd 7f 67 ad bd
       0.012652032 0.13163237 -0.11387684 -0.08467006
000050 46 90 74 3d 27 06 f8 bd db 8f 37 3e 6f c1 11 be
       0.059707902 -0.121105485 0.1792597 -0.14233945
000060 52 3a 40 3e 0d a7 a4 bd d8 81 f7 bc 65 3d 40 3e
       0.18772247 -0.08039675 -0.030213282 0.1877342
000070 a8 ca 42 be 8f 2d 2e 3e 2a cf 17 3e bc 1d 2e be
       -0.1902262 0.17009567 0.1482512 -0.1700353
000080 96 6b 2e be 43 a5 05 be 8b bc 46 3e 7a a2 2f 3d
       -0.17033228 -0.13051324 0.19407861 0.04287956
000090 49 69 a1 3d a9 cc 87 bd 47 c2 bf bd 55 39 11 bd
       0.0788141 -0.06630833 -0.09363227 -0.035455067
0000a0 8f 3c 93 3d 03 bd 0e be 22 1d 08 3e c1 51 3a 3e
       0.07189285 -0.1393929 0.13292363 0.18195249
0000b0 d3 0a 43 3e 8e e5 19 3d ec 08 55 3d 1b 4b a3 3d
       0.19047098 0.037572436 0.05201046 0.079733096
0000c0 f4 2e fa 3c 02 ef 38 3e 71 e0 bf bc b8 99 b6 3d
       0.030539967 0.18059924 -0.023422452 0.08916038
0000d0 98 b3 d1 3d cc 12 20 3e 22 3f 22 be dc 8c 64 bd
       0.10239333 0.1563217 -0.15844396 -0.055798396
0000e0 c9 da 05 be 23 2b 21 bd d3 53 f4 3c 55 b4 71 3d
       -0.13071741 -0.03934778 0.029825127 0.05900987
0000f0 98 90 80 bd d6 74 10 be b9 6a d3 3d 17 0a 14 3e
       -0.06277579 -0.1410707 0.1032309 0.14456974
000100 3c 90 39 bd 76 7d 3b 3e 99 08 9b 3d 70 83 01 3e
       -0.04530357 0.18309578 0.07569999 0.12647796
000110 8d 21 42 bc 2e cf 1f be a2 df 3e be 05 90 d7 bd
       -0.011848819 -0.15606377 -0.18639997 -0.105255164
000120 c1 1b 14 3e cd 32 aa 3d 54 fd 63 3d
       0.14463712 0.08310471 0.055661514

rnn.weight_ih_l0_reverse f4 [75, 3]
000000 44 37 54 3d d9 d0 27 be 4e ed 21 3d 64 dd 04 3e
       0.051810518 -0.16388263 0.039532952 0.12975079
000010 a0 25 be bc 7f d9 ec 3a 20 26 14 be 03 8c fa 39
       -0.0232113 0.001807019 -0.14467669 0.00047788033
000020 28 d3 01 bd df bf f1 bd e4 66 b0 3d 09 b3 95 3d
       -0.031695515 -0.11804175 0.08613375 0.07309539
000030 6d d2 2a 3e 60 06 a8 bd fc 68 43 3e dd bb 5c 3d
       0.16681834 -0.08204341 0.19083017 0.053890098
000040 9c d9 4a 3e a4 c5 4f bc b4 3d 33 3e f6 a1 38 3e
       0.19809574 -0.012681399 0.17504007 0.18030533
000050 16 0d 63 bd 5b ab bc 3d ce c1 34 3e 14 5e ff 3d
       -0.0554324 0.09212371 0.17652056 0.12469116
000060 46 6a 00 be ae 03 14 be 61 a7 47 3d ee 2a 48 bd
       -0.1254054 -0.14454529 0.04874361 -0.048869066
000070 a0 c0 38 be ff 3c 42 3e ac 07 99 bd 19 ec 9d bd
       -0.1804223 0.1896858 -0.074721664 -0.07711048
000080 3a c3 52 bd 31 05 db bd a7 cb f9 3d a3 d3 eb 3d
       -0.051455714 -0.106943496 0.12197047 0.11514976
000090 37 cd f8 bc ed 05 a2 3d 9e 76 ff bd d5 c6 1b 3e
       -0.030371292 0.079112865 -0.12473796 0.15212567
0000a0 10 57 1b 3e 4d b5 07 3e 72 71 85 bd 55 ad ee 3d
       0.1516993 0.13252755 -0.065157786 0.11654154
0000b0 db 2c 0a be 79 1a 8e 3d d0 8c 94 bd 1e 9c 15 bd
       -0.13493674 0.06938643 -0.0725342 -0.036525838
0000c0 a0 1a 1f 3e 5d b8 f3 bd 07 b3 0b 3e 75 25 cc 3d
       0.155375 -0.11900399 0.13642512 0.09968082
0000d0 b8 26 68 bd e8 dd 8b 3d 1f e2 83 3d 12 90 43 3e
       -0.05667755 0.06829435 0.064396136 0.19097927
0000e0 7a 70 0d bc 34 8e df bc 2e 53 09 be ac 6f 91 3d
       -0.0086327735 -0.027289487 -0.13410637 0.07101378
0000f0 30 81 33 3e 7f f8 01 be b6 9e 0e be 1d fd 29 3e
       0.1752975 -0.1269245 -0.13927731 0.16600461
000100 29 c4 07 3e 0d 8b 30 3e e7 59 93 bd 17 13 b8 bd
       0.13258423 0.17240544 -0.07194882 -0.08988016
000110 56 7c 0e 3e 5c dd 19 be 7a c1 dd bd e9 85 4f 3d
       0.13914618 -0.15025848 -0.10827918 0.050664816
000120 a7 53 0c be 75 aa 31 be bc 2c d3 3c be 4f 3b be
       -0.13703786 -0.1735018 0.025778167 -0.18292138
000130 05 02 02 3e c3 36 02 be c1 ed 1d be 5d cd 29 3e
       0.12696083 -0.12716202 -0.15422727 0.16582246
000140 b4 bc 1e be b5 21 fc bd 51 93 37 be f0 2e 2e be
       -0.15501672 -0.123111166 -0.1792729 -0.17010093
000150 26 9e 43 bd ed d0 25 be 0a df 83 3d ab cf 30 be
       -0.047758244 -0.1619298 0.06439026 -0.17266719
000160 c0 74 24 3e 40 1b 2c be f4 19 0e 3d 02 0d d0 bd
       0.16060162 -0.1680727 0.03469272 -0.10158731
000170 46 25 e2 bc 10 4d fd bc 59 b7 7f 3d c0 81 01 3e
       -0.027605664 -0.030920535 0.062430713 0.12647152
000180 e8 c1 45 bd ab 65 9c bd 54 13 30 3e e8 c8 1d bd
       -0.048280627 -0.07636579 0.17194873 -0.038521677
000190 46 55 c5 bd 48 10 49 3d f8 d6 28 be d2 ae 88 bd
       -0.09635405 0.049087793 -0.16488254 -0.06673969
0001a0 65 5a 2a 3e de f6 40 be 6e ec dd 3d 69 75 f8 bd
       0.16636045 -0.18844172 0.10836111 -0.12131769
0001b0 c6 f6 a3 3d 05 cf 08 3e ca 19 13 bd 0d 25 cd bd
       0.08006053 0.13360222 -0.035913266 -0.100168325
0001c0 5d ca 40 be 6f 76 37 3d 43 40 17 be 97 6d 1d 3d
       -0.18827195 0.04479068 -0.14770608 0.03843459
0001d0 25 41 06 be 7b a3 8a bd 3d 35 75 3d 97 c8 09 3b
       -0.13110788 -0.06769463 0.059865225 0.0021024102
0001e0 97 52 be 3d e7 e5 2c 3e 2e 68 64 3d 42 8a 01 be
       0.092930965 0.16884576 0.055763416 -0.12650397
0001f0 71 57 dc bd c7 66 f6 3d 93 87 94 3d 81 1c fd 3d
       -0.107588656 0.12031322 0.07252421 0.12358952
000200 9c d1 28 3e df bb 04 3d 19 c4 e7 bd 79 e2 2a 3c
       0.1648621 0.03240573 -0.113166995 0.010429972
000210 bd fc d9 3d 6f 1f 37 bc dd a7 08 3d a1 a0 b1 bd
       0.10643909 -0.011176928 0.033363212 -0.08673216
000220 01 dc 73 3d c8 96 f9 3d 31 33 88 bd 18 e5 89 bd
       0.059535984 0.12186962 -0.06650389 -0.06733149
000230 a9 ab 38 be 51 a4 42 be 7d 7c 0f 3e 0f ab 94 bb
       -0.18034233 -0.19007994 0.14012332 -0.0045369933
000240 26 cd a1 bd e6 37 94 3d 1d 29 f5 3d 89 5c 93 3d
       -0.07900457 0.07237224 0.11970732 0.07195384
000250 10 75 d9 bd 5b 84 0d 3e 53 89 49 3e 10 a1 b9 bd
       -0.10618031 0.13820021 0.19681291 -0.09063923
000260 63 83 e0 bc cb 3a 84 bc 46 38 33 3e a3 e3 06 3e
       -0.0274064 -0.016141316 0.17501935 0.13172774
000270 15 1f 9e 3c 89 c0 ef bd 53 29 d9 bd b9 bc 7d bb
       0.01930193 -0.11706645 -0.10603585 -0.0038717224
000280 87 2e 36 be 7b cd 0e 3e 1c 2e 7f 3d cd bd 8d 3d
       -0.17791186 0.13945572 0.062299833 0.06920967
000290 2c 1f aa bd 2e 68 39 3e 21 ea 32 3e 35 72 c6 3d
       -0.08306727 0.18106148 0.17472126 0.09689752
0002a0 3f 6d d4 bd ae c1 79 bd d2 68 23 be ca 78 0c be
       -0.103723995 -0.060975723 -0.15957955 -0.13717952
0002b0 3a 04 6d bd be 75 ac 3d f5 a7 2f be 8f fa 63 bd
       -0.05786536 0.08420895 -0.17153914 -0.055658873
0002c0 9d 49 42 be 20 8b f8 bd dd 74 4a bd 65 95 f8 3d
       -0.18973394 -0.12135911 -0.049427856 0.1213787
0002d0 4b d7 44 be 6a 54 3d 3e 0d 9f 21 be 15 47 fa 3d
       -0.19222753 0.18489233 -0.1578333 0.12220589
0002e0 3b 19 de 3c 78 30 9f 3d 36 cb 01 3d de 2e 2e bd
       0.02711164 0.077729166 0.031687938 -0.042525165
0002f0 f7 3d c7 3d 98 3d 74 3d 10 9e 4e be 23 bf 3f 3e
       0.09728616 0.059629053 -0.20177484 0.18725257
000300 88 83 b2 bd 84 49 41 3e 25 27 36 be c4 e1 06 3e
       -0.08716494 0.188757 -0.1778837 0.1317206
000310 e3 b3 8f 3d aa 53 4c 3e a8 c8 40 3d 15 a5 83 3d
       0.070167325 0.1995379 0.04706636 0.06427971
000320 f7 1f c4 bc 60 3f f3 bd 74 e3 ee 3d c0 6e 50 3d
       -0.023941023 -0.11877322 0.11664477 0.05088687
000330 8a 1d e8 bd bb 4c bc bd 17 c4 b5 bd 7a ed c5 bd
       -0.11333759 -0.09194323 -0.08875292 -0.09664436
000340 39 8b 38 3e 97 52 0d bd 52 e1 da 3d b9 5e 94 3d
       0.18021859 -0.034502592 0.10687508 0.072446294
000350 09 65 ae 3c 44 aa 42 3e 69 d7 45 bd d7 39 14 bb
       0.021288412 0.19010264 -0.048301134 -0.0022617483
000360 f7 9d 33 3e 80 17 b7 bd ad 7b 05 3e d1 b7 ea 3a
       0.17540728 -0.08940029 0.1303546 0.0017907565
000370 c6 9a f1 3c 83 ae f3 3d e7 80 b2 bd a6 b2 2f bd
       0.029492747 0.1189852 -0.087159924 -0.04289498
000380 e7 20 48 3e
       0.19543801

rnn.weight_hh_l0_reverse f4 [75, 25]
000000 f3 d9 35 be 82 ad 35 3e 38 e1 4a 3e 17 c3 87 3d
       -0.17758922 0.17741969 0.19812477 0.06629007
000010 18 71 27 3e b2 cd 0b 3e 67 3a c8 3b 97 bd 05 3e
       0.16351736 0.13652685 0.0061104777 0.13060604
000020 fd 6d 42 be 60 55 a0 bd a3 38 06 be 8f 65 23 3e
       -0.1898727 -0.07828784 -0.13107543 0.1595671
000030 d7 b7 c6 bd aa ba d3 3d 9d 7b f1 bd 53 11 26 3e
       -0.097030334 0.10338338 -0.117911555 0.16217546
000040 57 2d bf bd cd a4 0c ba 5d af b9 3d 0a 3d f5 bd
       -0.0933482 -0.00053651334 0.09066651 -0.11974533
000050 b3 fd 15 3e cd b5 b4 3c 1d d1 92 bd 73 94 b9 bc
       0.1464756 0.022059346 -0.071687914 -0.022653794
000060 7a c2 b8 3d 5d 60 bf bd f0 82 19 be e7 1d 49 3c
       0.090214685 -0.09344552 -0.14991355 0.012275196
000070 2d df 00 bd 73 bc 5c bd a7 e9 c5 3c 80 fe 2a 3d
       -0.031462837 -0.053890657 0.024159266 0.041746616
000080 ed 9c 21 bd 73 51 13 bd 47 5c 33 3e 48 16 1f be
       -0.039456297 -0.035966348 0.1751567 -0.15535843
000090 f3 1b 1a bd 73 90 ca bd 8d 06 cc 3d 23 22 3a be
       -0.03762431 -0.09890833 0.09962187 -0.18177085
0000a0 6d 84 08 bd 80 67 0c 3c 27 55 e2 bc c0 51 80 3d
       -0.033329416 0.008569598 -0.027628494 0.062655926
0000b0 9a 45 20 bc 0d 52 e8 3c 2d 00 9e 3d 7b de 39 be
       -0.009782219 0.028359437 0.07714877 -0.18151276
0000c0 20 08 35 3e 2d 51 3a 3d 43 8f 9a bd 80 29 bb bc
       0.1767888 0.04548757 -0.07546856 -0.022846937
0000d0 75 9e 31 3e c7 57 d5 3d 9a f8 99 3d 12 a1 2c 3e
       0.17345603 0.10417133 0.0751812 0.16858318
0000e0 3f 5f 0e be d3 6d ab bd 73 26 a3 3c eb 28 27 be
       -0.13903521 -0.08370557 0.019915795 -0.16324203
0000f0 e7 4f b1 bd 57 59 43 3e 8a bd a4 3d fa 01 33 3e
       -0.08657818 0.19077049 0.08043964 0.17481223
000100 ca ea 1a 3e 03 8f 9d bd 1a 1b c9 3c d3 d1 af 3d
       0.15128627 -0.07693293 0.024549056 0.08584943
000110 33 ff 46 bc 4a 4b 0e 3e 70 59 ec bd 7d 38 45 3e
       -0.012145805 0.13895908 -0.11540496 0.1925983
000120 5a b0 0c 3e 77 8d 17 be 7d 53 da bd 1a e9 15 3d
       0.13739148 -0.14800058 -0.106604554 0.036599256
000130 da 14 a3 bc 25 4f 34 3e 83 82 ee bd d2 1d 14 3e
       -0.019907404 0.17608316 -0.11645987 0.144645
000140 1a 63 77 3c 42 64 02 3e b7 ab bf bd 8b b4 2a be
       0.015099311 0.12733558 -0.09358924 -0.16670434
000150 27 47 ed 3d f3 03 11 3d 88 40 3c 3e e7 c5 94 3d
       0.11585837 0.035404157 0.18383992 0.072643094
000160 60 4a a5 3d 0d 58 a2 3d e3 b1 47 be 27 e7 3d be
       0.080708265 0.079269506 -0.19501452 -0.18545209
000170 60 82 09 bd d7 03 f8 3d 33 f6 16 bd 13 64 d9 bd
       -0.0335716 0.121101074 -0.036855888 -0.10614791
000180 dd d3 29 be 90 5b b9 3d 67 eb 0a bd fa 13 01 bd
       -0.16584726 0.09050667 -0.033915903 -0.03151319
000190 e7 52 3a 3d 40 7e 39 3e 80 cc 4c bd c0 8c 18 3e
       0.045489218 0.18114567 -0.049999714 0.14897442
0001a0 17 49 10 3e ba 5f 2a be 33 68 45 be a3 92 2e be
       0.14090382 -0.1663808 -0.1927803 -0.17048125
0001b0 c0 b7 54 bd fa 91 85 3d 67 67 d5 bd 57 56 36 3e
       -0.05193305 0.065219834 -0.10420113 0.17806374
0001c0 9a 0e 96 bd 8a ce c4 bd 10 95 a2 3d 63 02 41 3e
       -0.07327004 -0.09609707 0.07938588 0.18848567
0001d0 a2 0a 18 3e ef 31 07 3e b3 4a 6a 3d 1a 5a 8c 3c
       0.14847806 0.13202642 0.057200145 0.017132808
0001e0 d7 33 a9 bd 7a f8 39 be c7 0a 21 bd fd 05 d8 3d
       -0.08261841 -0.18161193 -0.03931692 0.10548017
0001f0 8a 02 8c 3d d0 39 e3 bd cf 05 2d be 9a 55 40 bd
       0.06836422 -0.11095011 -0.16896747 -0.046956636
000200 f3 e6 92 3c 67 98 89 bb c2 87 14 3e 73 da f3 bc
       0.01793239 -0.004199076 0.14504912 -0.02976725
000210 2a 51 ee bd 1a 1e 29 be 23 58 e7 3d 38 c6 17 be
       -0.116365746 -0.16515389 0.112961076 -0.14821708
000220 5d ba 92 bd 3a 14 bc bd 9a 76 3f bd b0 e8 38 be
       -0.07164452 -0.091835454 -0.046743967 -0.18057513
000230 9a ef fd 3d 4b ea 2c 3e 9a 79 d4 bc fb c0 3e 3e
       0.12399216 0.1688625 -0.02593689 0.18628304
000240 0d 21 d4 bc 3a 0a 03 3e 4a 45 29 3e 47 bb 21 bd
       -0.025894666 0.1279687 0.16530338 -0.039485242
000250 5d 00 aa 3d a7 15 d6 3d 4d c0 29 3d 60 b2 5f bd
       0.083008505 0.104533486 0.041443158 -0.05461347
000260 97 53 01 be 9f 5d 0a 3e 00 28 61 3d 23 42 b8 bd
       -0.12629543 0.13512276 0.054969788 -0.089969896
000270 a7 34 87 3c aa 17 4a 3e 27 43 c4 bc 83 ae 86 bd
       0.016504599 0.1973559 -0.023957802 -0.06576254
000280 dd b3 f8 3d 0d bc 1a bd 97 ae 03 3e 12 fb 4b 3e
       0.12143681 -0.037776995 0.1285957 0.19919994
000290 7a 60 bc bd 6d 0d 4f 3d 67 96 a9 b9 12 f2 28 3e
       -0.09198089 0.050549913 -0.0003234625 0.16498592
0002a0 dd 42 2f be ca 3f d3 3d 1a 3c 2c be 63 db 28 be
       -0.1711535 0.10314901 -0.16819802 -0.1648994
0002b0 6d fd 5d bd e3 d8 9a bd c0 88 34 3e 4b f0 10 3e
       -0.054196764 -0.07560899 0.17630291 0.14154164
0002c0 d0 48 1d be 8a a6 a0 bd 0d 70 d2 3d 0f a4 1c 3e
       -0.15359807 -0.07844265 0.10275278 0.15296958
0002d0 40 b0 f1 bd a8 94 49 be 67 ab b8 bc 73 55 5f bd
       -0.11801195 -0.19685614 -0.022542669 -0.05452485
0002e0 b5 a6 1b be 57 8c 0f 3e 60 f4 b1 bd b3 55 88 bc
       -0.15200312 0.14018379 -0.08689189 -0.016642427
0002f0 1a 0e 32 3c 1a 01 1d bd d5 c0 2f be 92 11 1c 3e
       0.01086762 -0.03833113 -0.17163403 0.15241078
000300 67 bc 0b 3b d7 91 3f be 73 d9 9c bd 33 3f 45 3d
       0.0021322013 -0.18707977 -0.07658663 0.048155975
000310 a7 1b 37 bd f3 8e cd 3d 60 d9 3b bd 33 25 3f 3d
       -0.044704106 0.10037031 -0.0458616 0.046666335
000320 fa 87 ff 3d 42 c6 39 be 47 ac 30 3e 63 32 e0 bd
       0.12477107 -0.18142036 0.17253219 -0.109471105
000330 ad 87 55 bd 67 42 c3 3d 1a 57 31 be 5a 08 39 3d
       -0.052131344 0.095341496 -0.17318383 0.04517398
000340 3d bc dc 3d 5d 9f b1 3d c0 2e 24 3d fa 08 db 3d
       0.10778091 0.08672974 0.040083647 0.106950715
000350 60 90 75 3d 3b 0b 4b 3e 5d a7 f3 3d 6d 90 9a bd
       0.05995214 0.19828503 0.118971564 -0.07547078
000360 65 6d 01 be cd 74 04 ba c0 64 32 bd 5a 80 b6 3c
       -0.12639387 -0.0005052805 -0.043553114 0.022278
000370 8d 8a ad bc 60 3e 5f 3d 1d 36 cb bd a2 dc 1d 3e
       -0.02118423 0.054502845 -0.09922431 0.15416196
000380 80 3b 9e bc 8d 3d f3 3c cd 68 33 bd 3a 63 06 bd
       -0.019315481 0.029692436 -0.043801118 -0.032809474
000390 da 6d 12 be f3 a0 92 3d 7b 74 1f be 9a 50 49 bc
       -0.14299718 0.07159605 -0.15571778 -0.012287283
0003a0 03 cf fd 3d 0a 7a 29 3e 30 bb 21 3e 7d 2c c6 bd
       0.12393 0.1655046 0.15794063 -0.09676454
0003b0 aa 6d bb 3d b3 00 31 3c 67 69 14 be d7 31 fd 3d
       0.09151776 0.010803389 -0.14493333 0.12363022
0003c0 a7 63 bb bd 2d dd f9 3d 50 0e f0 3d e7 e2 93 3d
       -0.091498666 0.12200389 0.1172148 0.072210126
0003d0 30 40 e3 3d c2 5e 4b 3e 43 a7 3a 3e e0 99 e2 bd
       0.11096227 0.19860366 0.18227868 -0.110645056
0003e0 33 ff 50 bb 50 8d 28 3e d5 9b 08 3e b0 a3 ea 3d
       -0.0031890392 0.16460156 0.13340695 0.11457002
0003f0 4a d4 e9 bd 3d 81 e9 3d 9a a1 b9 3d f7 2a 8a bd
       -0.11417444 0.11401603 0.09064026 -0.06746476

rnn.bias_ih_l0_reverse f4 [75]
000000 38 49 dd 3d e9 d1 7e 3d f4 83 87 3c 96 a2 bd 3d
       0.10804981 0.062211905 0.016542412 0.092595264
000010 bc 8a 2c bd 1b 3c ba 3d 20 16 bc 3d 18 65 d8 bc
       -0.042124495 0.090934955 0.091839075 -0.026415393
000020 47 56 32 3e 36 db 40 3e 7f cd 17 3e 12 31 a4 3d
       0.17415725 0.18833622 0.14824484 0.08017172
000030 f9 1f 3e 3e 51 4a d4 3d 7c a7 63 bd a4 ef 52 3d
       0.18566884 0.10365737 -0.055579647 0.05149807
000040 74 83 0e be 3e 2c 18 3d 3f c5 e9 bd 90 04 0f be
       -0.13917333 0.037151568 -0.11414575 -0.13966584
000050 5a 84 32 be 96 a4 71 3d aa 08 21 3c 30 0a a7 3c
       -0.174333 0.058994852 0.009828726 0.0203906
000060 ad 88 75 bd d7 71 19 3e f7 4a 47 be 22 e7 f6 bc
       -0.059944797 0.14984833 -0.1946219 -0.03013951
000070 48 66 d1 bd dd 98 d4 bd 8f 10 eb 3d 84 69 2d bd
       -0.10224587 -0.10380719 0.11477768 -0.042336956
000080 81 60 33 3e d9 7b 2d 3d f1 29 95 3c d0 70 45 be
       0.17517282 0.04235444 0.018208476 -0.19281316
000090 1c 35 98 3d c1 c4 fe 3d 54 a9 8e 3d b4 39 06 bb
       0.07432005 0.124398716 0.069658905 -0.002048117
0000a0 60 59 fc bd d7 24 da 3d 6b f5 67 3d 91 7d e8 bd
       -0.123217344 0.10651558 0.056630533 -0.11352075
0000b0 f3 51 9a 3d a1 1b 1a be fb 40 91 bd d8 32 83 3d
       0.07535162 -0.15049602 -0.07092472 0.06406182
0000c0 a8 92 93 bd 60 88 2d 3e e6 81 40 bd 6b e8 62 3c
       -0.07205707 0.16946554 -0.04699888 0.013849358
0000d0 ad b7 1e 3e f4 45 a9 bd 9d c1 25 3e 24 80 58 bc
       0.15499754 -0.082652956 0.16187139 -0.013214145
0000e0 be 75 f0 bd 96 ff 45 3b 4a da b2 3c 8e b4 4c be
       -0.117412075 0.0030212156 0.021832604 -0.19990751
0000f0 a7 b5 33 3e bf 43 89 bd f3 f4 51 3d 6e 2d f6 bc
       0.17549764 -0.06702375 0.051258992 -0.03005096
000100 73 09 42 3c f0 11 ca bd b0 f0 38 3e f6 a3 d5 3d
       0.011843073 -0.098667026 0.18060565 0.10431664
000110 31 74 b8 bd b5 00 c9 3d d1 38 3f bc 85 f2 2e 3d
       -0.09006537 0.09814588 -0.011671261 0.042711753
000120 d9 3b 1e 3e fc 85 13 bd 84 fd 30 be
       0.15452518 -0.03601645 -0.17284209

rnn.bias_hh_l0_reverse f4 [75]
000000 66 08 0f 3e a3 91 e2 bd 19 7a a2 bc 6e 0b f3 bd
       0.13968047 -0.11062934 -0.019833611 -0.118674144
000010 04 48 36 3d 7d cb 41 3e 28 13 df bc 87 55 54 3d
       0.044502273 0.18925281 -0.027230814 0.051839378
000020 d7 38 1b 3e eb f3 37 3e 21 d6 b4 bd 42 3c 00 3c
       0.15158401 0.17964141 -0.08829904 0.007826867
000030 37 0a fa 3c 00 7f ce bd bc b6 cd 3d 65 1d 25 be
       0.030522449 -0.10082817 0.100446194 -0.16124494
000040 ca bc 2c 3d 43 c8 ba 3d 87 a4 46 3e 7c 7e af 3c
       0.04217223 0.09120228 0.193987 0.021422617
000050 82 ed 2a be b5 40 0a 3e ef 32 be 3c c2 db eb 3d
       -0.16692165 0.13501246 0.023217646 0.11516525
000060 13 69 c5 3d 06 5d b8 3d 33 a1 75 3c 31 3e 49 be
       0.09639182 0.09002118 0.014992046 -0.1965263
000070 b7 ab 5f bd 67 a1 31 3d 16 6f 39 be 05 88 a2 3c
       -0.05460712 0.043366816 -0.18108782 0.01984025
000080 d7 73 c5 3d f9 71 9a 3b 1a 1a 07 be 15 6b 22 bc
       0.09641235 0.0047132936 -0.1319355 -0.009913226
000090 0e 1e 3e 3e 9c 18 ac bd 8f 37 b2 bd 4d 31 1a 3e
       0.18566152 -0.08403131 -0.08702003 0.1505787
0000a0 2d 1a d5 bd 28 7c 4a be b9 59 12 3e 71 8d 06 3e
       -0.10405383 -0.19773924 0.14292039 0.13139893
0000b0 b0 2a f3 bd a1 a1 25 3e 06 72 3c be c7 12 d6 3c
       -0.11873376 0.16174938 -0.18402871 0.026132
0000c0 21 c2 1e bb 95 37 dd bc 7c 66 d9 bd 14 0b e3 3d
       -0.0024224597 -0.027004043 -0.106152505 0.11086097
0000d0 cd 87 bf bd f6 a9 0b 3e 3e e7 80 bd f6 2d 61 3d
       -0.09352074 0.13639054 -0.06294106 0.054975472
0000e0 52 09 8a 3d 84 eb d1 bb 81 b9 20 be 8d 89 ee bd
       0.06740059 -0.0064062495 -0.15695764 -0.116473295
0000f0 25 3b 1f be e3 d8 0d 3d 14 0e e1 bd 97 0a 79 bb
       -0.15549906 0.034630667 -0.10989013 -0.0038000697
000100 d8 03 de 3d af 4b 23 be 93 bf b1 3d 6b d1 ff bd
       0.10840577 -0.1594684 0.08679118 -0.12491115
000110 b4 f7 2f 3e 28 98 25 be 37 49 44 be b6 ba 9f bd
       0.17184335 -0.16171324 -0.19168554 -0.07799284
000120 92 71 25 be 49 b6 e1 3d 1e 14 1b 3e
       -0.16156605 0.11021096 0.15144393
