saves/week_40_1_fine_refiner.pth (torch, 66669 bytes, 13 tensors)

revise_atten.weight f4 [50, 50]
00000000: c06c 5dbc 82d8 a0bc 9b00 9cbd 0096 dcbc
00000010: 2e97 eabd e643 99bd 4ed1 113d aa04 cbbd
00000020: 3ed8 c1bd e91b 32bd f09c e6bd 7d54 26bd
00000030: 4ca1 d13d 6d03 ec3d baa3 6f3d 32bf 63bd
00000040: 0377 fdbd bd00 d73c a21a c23c a04a 283d
00000050: c973 9cbd f1b8 43bc 8732 60bd 4964 b73d
00000060: cbb2 173d 981d 923c c404 0ebd 901e 63bb
00000070: 508a e4bb a270 ca3d b874 aebd ae0e c0bd
00000080: 7d8f d93d af30 e7bd bf2b 703c 0d15 a73c
00000090: 3a23 f53d b4e6 e5bd b777 3cbd 3f8a fd3d
000000a0: eed1 f53b 5b37 513d eb4d d33d 49c8 ca3c
000000b0: ab62 82bd 4ac4 d2bd 7fd8 d33d 5992 92bd
000000c0: 8e24 9d3d 10fa dabd d7be b7bd d885 c93d
000000d0: 9404 7e3d 7241 833d ba18 153e b3cd bc3c
000000e0: b265 c63c 4dba a13d 710a b83d f3f1 33bc
000000f0: 01e7 89bd 73b1 8bbd 29bc 81bc a0c9 4fbd
00000100: 0fd1 bf3d e411 33bd b359 fd3d 16e9 963d
00000110: 8e01 2ebd 9667 96bd 7c05 ddbd fc79 c73c
00000120: 8be5 e9bc 2843 6d3d ece1 c03c f538 ddbd
00000130: 5605 b03d 1b2a e1bd 2193 0ebe 2269 b8bb
00000140: 6cee fd3d 056c 843c 63be efbd 9c4b 333d
00000150: f24c 02bd 5603 aa3d ddec 013e 0110 1d3d
00000160: e0ae 473d f289 9f3d b1a3 9d3d f04d 0c3e
00000170: a4cf 9b3d d9e2 b0bd 758f a7bd a58a 9e3d
00000180: 2c90 c2bd 08e6 bd3b d018 fc3b 5004 143d
00000190: f93d 02be ce33 753c 6ca1 093e 41ff 00be
000001a0: 6d0b 833d 473c fb3d 2b41 c2bd 1ce7 7f3d
000001b0: b328 eabc 1923 c73d c910 eabd 2e1f 90bd
000001c0: a1f9 b03c 0237 a53d 8ab2 eabd fc97 02be
000001d0: aa3c aabd a793 c23d b993 21bd 1e76 e63d
000001e0: 17b8 afbd 0124 143d 3a08 b6bd 4aca d23d
000001f0: 178e 0cbe 489e 053e d9e2 12bd 12cf 603d
00000200: 2b36 fb3d be30 3bbd 9eec 04bd 502e 00be
00000210: ab16 b1bd 40cf d4bd 3d48 aebd 678f 2fbd
00000220: 2659 483d 39b5 203d a58b 813d 310c b03b
00000230: 477a 4e3d edb2 fc3d 7638 0b3e 81c4 e43d
00000240: 7751 6fbd bd1f 05bd bdad 293c 9976 f6bc
00000250: cb3d 6f3d d69f a33d ce06 2a3d 6e7e f8bd
00000260: 1b73 0c3e 6af0 253d 32c8 da3b 7632 9b3c
00000270: a19d 593d a366 e13d f9ff dd3d af44 603d
00000280: cb48 eb3d f3cd c73d 9561 d63d dee9 b93d
00000290: 94a7 2b3d 9e9b db3d a5b4 e8bc 857f a83c
000002a0: b5c9 55bd 17ca 0a3c 7e4a dcbd 6cab e2bd
000002b0: 0c57 05be 9eba b6bb cc5e b63d cf4a 143d
000002c0: ee41 193e a67d 0a3d 6d19 83bd 2686 a7bb
000002d0: 13b8 c43d 6ccf a5bd b76d a73d 2d60 4f3c
000002e0: 1959 d43d 2a3a a2bd c5d8 20bd 2bd9 81bd
000002f0: 0966 e13d 4768 b13d b80c 5ebd dc1f 58bd
00000300: f724 de3d ff99 503c e0fb bd3d 8654 b93d
00000310: c7ef 7fbd 9474 77bd b844 ea3d bde3 b33d
00000320: 1969 3dbd b8af 443d 9c44 b1bd bd50 02be
00000330: 3585 f8bc d18b f83c eace 37bd bb90 e8bc
00000340: 757c 58bd 7c56 543d 598e a63d 2c95 c0bd
00000350: e8cc 023e afe9 c93d 2b05 a43d 3e81 71bd
00000360: a2a6 09be 25e3 84bd d0f7 923d f5af eebb
00000370: d49c d13d 7601 9fbd cd8c 0c3d a14d f1bd
00000380: 141a 773d 6c9d f5b9 f492 bf3c 2ca3 13be
00000390: 8c01 b9bd f420 93bd 01bb 883d a6b7 cb3d
000003a0: 7d42 0f3d 4b7c 3bbd b5f4 7b3d ada5 513d
000003b0: 9b20 f5bd 58db 36bd c2e1 c3bd 20de 9c3c
000003c0: 2989 003e 6527 babd b5f8 d6bd 61b3 853d
000003d0: d852 e2bd 1760 afbd a784 2cbd ddbb 6bbd
000003e0: d33c dabd 9d60 45bd d9c2 9f3d 71cd 96bd
000003f0: c9e7 b5bd 02fe 72bd 6e4f 60bd 91ad abbc
-0.013514698 -0.019634489 -0.07617303 -0.026926994 -0.114546165 -0.07483654 0.0356 -0.09912999
-0.09465073 -0.04348365 -0.11260402 -0.040607918 0.10235843 0.11524091 0.05850575 -0.05560226
-0.12376215 0.02624547 0.02369434 0.041086793 -0.07639272 -0.011945949 -0.054735687 0.08954675
0.037035745 0.017836377 -0.034672514 -0.0034655668 -0.006974496 0.09884764 -0.08518356 -0.093778
0.10623071 -0.112885825 0.014658867 0.02039578 0.119696096 -0.11225644 -0.046012606 0.12379884
0.007501832 0.05107818 0.10317596 0.024753707 -0.06366476 -0.102913454 0.10344028 -0.0715682
0.07672988 -0.10692227 -0.08971947 0.09839982 0.062016085 0.06408967 0.14560214 0.023047304
0.024218414 0.07896862 0.089863665 -0.010982978 -0.067335136 -0.06820955 -0.015836792 -0.050729394
0.09366047 -0.043718234 0.123706244 0.07368676 -0.04248195 -0.07343976 -0.10792062 0.024350159
-0.028551837 0.057925373 0.023545228 -0.10801879 0.08594768 -0.10994359 -0.13923313 -0.005627767
0.12398991 0.016164789 -0.11706235 0.04377328 -0.031811662 0.083014175 0.12688012 0.03834534
0.04875076 0.07789983 0.07697237 0.13701606 0.07607964 -0.08637018 -0.08181659 0.07741288
-0.09500155 0.005795244 0.0076933876 0.036136925 -0.12718953 0.0149659645 0.13440484 -0.12597372
0.06398664 0.12267356 -0.09485086 0.062476262 -0.02858386 0.09723491 -0.11428983 -0.07037197
0.021603407 0.080671325 -0.11459835 -0.1275329 -0.08312352 0.09500819 -0.03944752 0.11252998
-0.08580034 0.03616715 -0.08888288 0.1029249 -0.13726078 0.13048661 -0.03586087 0.054884978
0.12266191 -0.04570078 -0.03245222 -0.12517667 -0.08646902 -0.10391092 -0.08509872 -0.04286137
0.048913144 0.039235327 0.06325463 0.005372547 0.05040958 0.12338815 0.13595757 0.11170293
-0.0584273 -0.03250097 0.010356364 -0.030085849 0.05840854 0.07989471 0.041510396 -0.121334895
0.13715784 0.04051248 0.006676697 0.01894496 0.053128842 0.110059045 0.108398385 0.054753
0.114884935 0.097560786 0.10467831 0.0907781 0.04190786 0.10723041 -0.02840645 0.020568619
-0.052194316 0.008471034 -0.10756396 -0.110678524 -0.13021487 -0.0055764457 0.089048 0.036204156
0.14966556 0.033811234 -0.06401334 -0.0051124273 0.09605422 -0.08096203 0.08175223 0.012657207
0.103685565 -0.0792125 -0.039269228 -0.0634025 0.1100579 0.086624674 -0.05421135 -0.05276476
0.10846894 0.012732028 0.09276557 0.09049325 -0.06248453 -0.060413912 0.11438888 0.08783672
-0.046242807 0.04801914 -0.08655664 -0.12726112 -0.030336956 0.030340107 -0.044875063 -0.028389325
-0.052853066 0.05184029 0.081326194 -0.09403452 0.12773478 0.09859025 0.08008798 -0.058961146
-0.13442472 -0.06488637 0.07176173 -0.0072841593 0.10234991 -0.077639505 0.034313966 -0.11782385
0.060327604 -0.0004684733 0.023385502 -0.14417714 -0.09033498 -0.0718402 0.06676293 0.099471375
0.034975518 -0.045772832 0.061512668 0.05118339 -0.119691096 -0.044642776 -0.09564544 0.019148886
0.12552322 -0.09089545 -0.10496656 0.065283544 -0.110509574 -0.085632496 -0.042118695 -0.057552207
-0.106561325 -0.04818784 0.07800836 -0.073634036 -0.088821 -0.059324272 -0.05476325 -0.020956786

revise_atten.bias f4 [50]
00000000: 2098 823d 5557 973d 6adb 80bd 0427 ac3d
00000010: 0f68 423d d033 57bd 9f93 813d 6d0b 6a3c
00000020: 730d 523d 7c7f 0f3d 4f7d 1f3c 5bba 003e
00000030: 1a57 d93d e0fc 013e 2e78 d6bd aa02 833d
00000040: 9942 45bd 3f7b 3c3d dd98 693d 4d8a e1bd
00000050: 0780 6f3d 59b7 123e 2390 003e 5ca5 a2bd
00000060: 2f31 0abc a5b2 c2bd 48ea 02be 684a a6bd
00000070: b3f4 b5bc cfdd cebd d343 0f3d f4b7 7e3d
00000080: 72a1 04be bda8 8cbd 5e4c c73d cf28 8e3d
00000090: 01ab d43d bc10 12bc 3fb9 06be d7c2 cebd
000000a0: bad9 19bd bcc7 b5bd d4d0 923d 22a5 533d
000000b0: ea02 b3bd 7022 833d 0421 8a3d eda2 013d
000000c0: 01b5 6dbb 3b1b bbbd
0.06376672 0.07389704 -0.0629185 0.08405879 0.04746252 -0.052539647 0.063269846 0.014284951
0.051282357 0.035033688 0.009734466 0.12571089 0.106123164 0.1269412 -0.10472141 0.063969925
-0.048159216 0.046015974 0.057030547 -0.11012707 0.058471706 0.14327754 0.12554984 -0.07941696
-0.008434578 -0.0950673 -0.12784684 -0.081196606 -0.022211408 -0.101009004 0.03497679 0.06218715
-0.12952211 -0.06868122 0.09731363 0.06941377 0.10384179 -0.008915123 -0.13156603 -0.100957565
-0.037561156 -0.08875987 0.07168737 0.051671155 -0.0874079 0.06403053 0.067445785 0.03164952
-0.0036271217 -0.09136053

pred_atten.weight f4 [50, 1]
00000000: e533 6a3f 5075 073e 113d 4e3f 0c5c d6be
00000010: 8bfa 343f 348c 6dbf acf5 393f 4203 6c3f
00000020: 52a3 6fbf 84b5 2d3e 63c8 ebbe 668c dbbd
00000030: 530d 153f 07fa a53d 5dc5 d8be 13ab 48be
00000040: 54fb 473f 346b 74bf 5b8f 23bd 7a5d 083f
00000050: ba07 bfbd eb02 16bf 8333 32bf f049 b7be
00000060: fc7f 353e 8f66 9abd 5e5b 76bf 04d0 853d
00000070: c5fd b0be 4177 4b3e 1ce0 5bbf 85b2 563f
00000080: 8773 f83e 17dc 2cbf 5d64 5c3f 7897 7f3f
00000090: c867 7b3f 5e55 393f 014f 523d c8ce ec3e
000000a0: 5b29 b4be 32b2 343f 5d92 793f 9d60 e53e
000000b0: f9ca fe3e 767d 7a3f 97b1 303d ebf1 5abe
000000c0: 8d83 463f 1296 2a3e
0.91485435 0.13228345 0.8056193 -0.418671 0.706948 -0.9279206 0.7264049 0.9219247
-0.9360858 0.16963774 -0.4605132 -0.10720138 0.58223456 0.081043296 -0.42338076 -0.1959651
0.7811787 -0.9547608 -0.039931636 0.53267634 -0.093276456 -0.585982 -0.6960985 -0.35798597
0.17724603 -0.07539093 -0.96233165 0.065338165 -0.3456861 0.1986971 -0.8588884 0.8386615
0.4852564 -0.6752333 0.8609064 0.998405 0.9820523 0.72395885 0.051344875 0.46251512
-0.35187802 0.70584404 0.9748896 0.44800273 0.4976423 0.9784769 0.043138113 -0.21381347
0.7754448 0.1665881

pred_atten.bias f4 [50]
00000000: 7a3f 683f 4c9f cdbe 0129 f53e d871 3bbf
00000010: f080 bebe 2199 933d 02b6 f3bd c5c9 a8be
00000020: 7eef 543f 2217 933e 848c 3c3f 24b8 6cbf
00000030: 4d5a 603f 23e1 c9be 36bd 57bf 1a85 f9be
00000040: 3b8e f5be 2519 a6bd 7eb7 613f db3b 50bf
00000050: fbb4 033f d1e5 94be aa9c 5a3f 364e ed3c
00000060: ac34 103f b790 edbe 1322 4c3e 1135 253f
00000070: b2fa 313f 01e7 5dbf 9277 78bf b6d5 f7be
00000080: 4c1a 1b3e e6d8 013f e917 223e b98a 93be
00000090: ff91 293f 8f18 013f 9995 c83e fc83 51bf
000000a0: 124a d5bd 2731 653e 7db8 2dbe c4ba 953e
000000b0: caf3 643f 70e5 803c ce43 923e 2564 6abe
000000c0: 17a0 3c3f 3332 d0be
0.9072186 -0.40160596 0.47882846 -0.73220587 -0.37207747 0.072069414 -0.118999496 -0.32966438
0.83177936 0.28728586 0.7365191 -0.92468476 0.8763779 -0.39429578 -0.8427309 -0.4873436
-0.47960076 -0.08110265 0.8817061 -0.8134133 0.5144803 -0.29081586 0.853953 0.028967958
0.5633037 -0.4639947 0.19934873 0.645341 0.69523156 -0.8668061 -0.9705745 -0.48405236
0.1514675 0.50721586 0.15829434 -0.28816774 0.662384 0.504281 0.39176634 -0.8184202
-0.104145184 0.22382031 -0.16964908 0.29244053 0.8943449 0.015734404 0.28567356 -0.22889765
0.7368178 -0.406633

pred_inp.weight f4 [50, 1]
00000000: 33f6 63bf b1e7 533e 69db 493f cd3d 84bd
00000010: a1ca 243f e457 7abf f1c1 b03e 2e3b 89be
00000020: cc11 533e 6ff1 733f 38de 4e3f 13c1 ca3e
00000030: 4498 aa3e 5003 cdbe 454a af3e 7920 2cbf
00000040: 2d1f 3bbf b970 1a3e a19b 083d 1c96 1abf
00000050: 120c 1ebf 3152 71bf c400 523f a618 533f
00000060: 5f7c 2e3f 8502 1e3e d05f 2dbf 51b2 7a3f
00000070: c1e1 6d3f fd5d 623f 4325 51bf 45cc 61bf
00000080: b4da fc3e eca8 03bf 065c ad3e 1269 003d
00000090: 3d61 083f 969c 7c3f 8153 9ebe 64f2 853d
000000a0: 1ad9 283e 7e12 98be 25ca 053f a9d2 0f3f
000000b0: 251e 58bf b865 06bf c328 1ebf 8a9e f93e
000000c0: 557c 3dbf 0396 30bf
-0.89047545 0.20693852 0.7885042 -0.064571 0.6437169 -0.9779036 0.34522966 -0.26802963
0.20612258 0.95290273 0.8080783 0.3960043 0.33319294 -0.4004159 0.3423635 -0.6723705
-0.73094445 0.15082063 0.033351544 -0.603853 -0.6173717 -0.9426604 0.8203242 0.82459486
0.68158525 0.15430649 -0.67724323 0.9792834 0.929226 0.88424665 -0.8169748 -0.88202316
0.49385607 -0.5142963 0.3385927 0.031350203 0.53273374 0.9867643 -0.30923083 0.06540373
0.16489068 -0.29701608 0.52261573 0.56180817 -0.84420997 -0.5249896 -0.6178095 0.48753768
-0.7401784 -0.689789

pred_inp.bias f4 [50]
00000000: 6612 34be 2712 f3be c5f9 853e fdc3 3d3f
00000010: d641 343f 9264 5c3f c827 57bb 22ca ab3e
00000020: fca8 573e 40aa bdbe a9cf fc3e a198 bf3e
00000030: 17b0 b2be a8aa 673f ac87 3fbf be30 4b3f
00000040: ba59 80bf 550d 203f 8f80 433f 2c54 3cbf
00000050: a210 c83e 716e 613e e307 48bf a1ae 06bf
00000060: 4476 7a3f a397 61be 5409 0cbf 234d 663f
00000070: 482c 51bf ab58 03bf d763 1abe 52e2 f2be
00000080: 0882 013f ded4 60be a82e a7be e6fe 583f
00000090: 6730 10bf 2e8c 643f 9fcc 403f 1895 b7be
000000a0: c2cb 5d3e f3e4 3d3f 3818 5a3f 6510 1ebf
000000b0: 73c5 94be 9b88 f3be e9ba 593f ecb3 14bf
000000c0: 5846 ef3e 1f74 14bf
-0.17585143 -0.47474787 0.26167122 0.7412718 0.7041296 0.8609096 -0.0032830108 0.33552653
0.21060556 -0.37043953 0.49377182 0.37421134 -0.3489997 0.90494776 -0.74816394 0.7937125
-1.0027382 0.62520343 0.7636804 -0.73565936 0.3907519 0.22014786 -0.78137034 -0.5261021
0.9783671 -0.22030501 -0.54701734 0.8996145 -0.8170819 -0.5130717 -0.15077148 -0.47438294
0.50589037 -0.21956202 -0.32652783 0.84763944 -0.56323856 0.892764 0.75312227 -0.35855937
0.21659759 0.74177474 0.85193205 -0.61743766 -0.29056892 -0.4756516 0.8505083 -0.5808704
0.46733356 -0.57989687

out_rev.weight f4 [50, 50]
00000000: c6f0 353c add6 8b3d 0754 a4bd 8d72 073e
00000010: 85e1 08bd e75d a33d b8f4 00be 1bee d53d
00000020: 1c8e d73d 2820 843d b079 d7bd 90df 263d
00000030: 6441 753c 5e0d 04be 0f44 89bd 085a 79bc
00000040: 9628 033e 57f8 93bd b4c9 85bd bf97 a7bd
00000050: da9d 083e d1e9 c33a e151 1ebd 8750 f8bd
00000060: 424d 89bd 244d f23d f2ab 993c 244d 24bd
00000070: 5413 28bc 4a7f 643d ca36 e23c 0182 e43d
00000080: 96da a7bd ae8c ef3d 60f0 0dbe 0adc 70bd
00000090: ea3e f8bc 7713 f2bd d664 723d 1eec 6ebd
000000a0: d96a 0abd 607f f83d e994 88bd 70a7 23bd
000000b0: ade7 ec3d f04d 083e e214 5dbd feb2 d73c
000000c0: 1c09 2c3c 1544 84bd 4369 823b 5769 733d
000000d0: c1cf dd3d 47c2 e73c 91d4 c43c 95a1 a93d
000000e0: f00d 2bbd 182d df3c 61ff d63a 87e2 fdbd
000000f0: 9cca d1bd 9206 903d 9a9d d1bd faee 0dbe
00000100: a8d6 063e 6602 babc 3cce 033e 7c65 0f3e
00000110: 8be2 b5bd b790 b33d ef57 dabc 531c 62bd
00000120: 9e9d a3bd 9166 c13d c6d0 15be d434 353d
00000130: e85f 11be f003 813c b594 3f3c f061 c3bc
00000140: fae3 c6bd 0dce 73bd 1dca 02bd 116b 74bd
00000150: 4a54 c5bd 9273 24bd 6361 1dbd 589f 9a3d
00000160: 6042 fa3d 1e72 febb 1d55 d5bc 7b23 88bd
00000170: d656 473b 6b6c db3a c2f4 08be 7b18 03bd
00000180: 5863 0e3d 84c8 d83d bd06 5dbd aa0f cfbd
00000190: 2933 a53c 81de 09be 25f9 9b3d da76 023e
000001a0: 2f9d 063e 76eb 823d 4154 553d e0fa e7bc
000001b0: 31d9 a9bd 8610 483d a683 d43d 1511 10be
000001c0: 1081 cc3d a970 b43d 15c6 013e ef97 09be
000001d0: 2e18 91bc 2aea e93d 50bb 06be dae1 023e
000001e0: 3fb6 f8bd 8012 68bd 34a5 09be f9ce e03d
000001f0: 319c 843d 15bc 163d a274 c2bd 8a8f ed3d
00000200: c426 0b3d a2a5 f43d afdc a33d 822d e7bc
00000210: 6110 cc3d 10a5 e6ba 7940 ee3c 9393 f23c
00000220: 5035 38bd 8741 a5bd 0760 b3bb a90f f2bd
00000230: 2514 0f3e 2bfe 21bc c96c 70bc e0c3 f83d
00000240: d4b1 2f3d f8a3 d23d 05df 07be 938f 393b
00000250: ec99 80bd e9a7 993d 829a 0cbd 0666 113e
00000260: 537e 42bd bc60 05bc 25b2 503c 06da 5bbd
00000270: aee6 f23d d5e8 b83d 15c3 d1bd 43ee 8b3d
00000280: 16d7 cd3d d14b 073e 4480 663d 2a06 913d
00000290: e115 353d d655 093e 7d74 9e3d 8d0c b03d
000002a0: 8ae1 a83d e289 a53d 8098 7fbd 7c5e 9f3d
000002b0: ec11 973c deab b33c 9ca4 edbd a4e8 03be
000002c0: f9b9 b53d 7f31 d43d 183d e4bd 84ab aebd
000002d0: 5e85 f0ba e776 c13d f372 e73d c2ea b83d
000002e0: 86a5 59bd da28 babd 66e3 4d3b dd82 0fbe
000002f0: 0db2 ccbd 9a5d 6bbc a2a0 9e3d 5e43 ee3c
00000300: 9364 07be d3cb 00be 68b4 84bd 8c86 d5bd
00000310: cbde dfbd 8fa9 a6bd a1f7 ea3d 390b 0bbe
00000320: ac81 043e 1984 4fbd 19bb fcbd 17e0 933d
00000330: 8453 fe3d e65b d6bd 6290 0bbd 0730 0a3d
00000340: 8096 19bd 12d0 863d 9c3c acbd d11f 5cbd
00000350: 937d 5b3d 05bf b4bd c397 c5b9 b1ba abbd
00000360: 5e1c ab3c 5985 7ebd da4f be3d 5faa 03be
00000370: 994d d13c 9f4c 99bd 2c78 963d 880a a83d
00000380: 8025 f43d 735c eebd 7a9d ac3d 3572 303d
00000390: d6e3 f0bc 258c 3b3d 7420 63bd 2778 c63d
000003a0: ca7a 023c fe7d debd 09e4 093e 0061 90bd
000003b0: 423a 60bd a54e 903d 2a9a 833d e297 5b3d
000003c0: 0b4a 953d b77e 7c3d f695 c0bd ef27 e4bd
000003d0: f8e0 45bd 716f 093d 4b66 253d ba3a c9bd
000003e0: dc70 a5bb 13f0 bb3c cc0e 293d e698 bebd
000003f0: cc73 de3c a2b7 8bbd adb4 e53d 1994 11bc
0.011104768 0.068280555 -0.080238394 0.13227291 -0.033418197 0.07976895 -0.12593353 0.10445806
0.10525152 0.06451446 -0.10521257 0.04074055 0.014969204 -0.12895724 -0.06702434 -0.015219219
0.12808451 -0.072251014 -0.065326124 -0.0818324 0.13341466 0.0014947002 -0.038652305 -0.12124734
-0.06704189 0.1183112 0.018758748 -0.04011263 -0.010258514 0.055785455 0.027614016 0.11157609
-0.08195989 0.116967544 -0.13861227 -0.058803596 -0.030303437 -0.11820119 0.059178196 -0.058330648
-0.033793304 0.1213367 -0.06669027 -0.039954603 0.11567626 0.13310981 -0.053974994 0.026330467
0.010500219 -0.06458298 0.0039798333 0.05942663 0.108306415 0.02829088 0.02402714 0.082827725
-0.04176134 0.027243182 0.0016403013 -0.12396722 -0.10243723 0.07032503 -0.10235138 -0.13860694
0.13167822 -0.022706222 0.12871641 0.14003557 -0.088811 0.087678365 -0.026653258 -0.055202793
-0.079890475 0.09443391 -0.14630422 0.044239834 -0.14196742 0.015748948 0.011693169 -0.023850411
-0.09711452 -0.059522677 -0.03193103 -0.05967242 -0.096352175 -0.04014928 -0.038422953 0.07549924
0.12219691 -0.0077650687 -0.026041562 -0.06647392 0.0030416748 0.0016740685 -0.13374618 -0.03200577
0.03476271 0.1058512 -0.053961504 -0.101104096 0.020165997 -0.13463785 0.0761588 0.12740651
0.13145898 0.06392567 0.052082304 -0.028317869 -0.08293379 0.048843883 0.103766724 -0.14069016
0.09985554 0.08810551 0.12673219 -0.13436864 -0.017711725 0.114216164 -0.13157392 0.12781468
-0.12144136 -0.056658268 -0.13441926 0.10976977 0.06475104 0.036800463 -0.09494902 0.115996435
0.033972517 0.119456545 0.080010764 -0.028219942 0.099640615 -0.00175968 0.029083477 0.029611384
-0.044972718 -0.08069139 -0.005474094 -0.11819393 0.13972528 -0.0098872585 -0.014674374 0.12146735
0.0428942 0.10285181 -0.13268669 0.0028314337 -0.06279358 0.075027294 -0.034327038 0.14199075
-0.047483753 -0.008140739 0.0127377855 -0.05367472 0.11860405 0.09028784 -0.10242287 0.06832554
0.1005079 0.13212515 0.056274667 0.07081254 0.04421032 0.1341165 0.07737062 0.08596144
0.08246143 0.0808294 -0.062401295 0.07781693 0.018441163 0.021932539 -0.11603662 -0.12881714
0.08873362 0.10361003 -0.11144465 -0.08528808 -0.0018350293 0.09446507 0.11301222 0.090291515
-0.05313637 -0.09089823 0.0031416058 -0.14014764 -0.09994898 -0.014365578 0.07745482 0.029084858
-0.1322196 -0.12577753 -0.06479722 -0.104260534 -0.10931166 -0.081378095 0.11473013 -0.135785
0.12940091 -0.050663088 -0.123403735 0.07220476 0.12418273 -0.10466747 -0.03407324 0.03373721
-0.037497044 0.06582655 -0.08409998 -0.05374128 0.053586554 -0.088254966 -0.0003768784 -0.08385218
0.02088755 -0.06213889 0.09292574 -0.1285796 0.025549697 -0.074853174 0.0734714 0.08205134
0.11921215 -0.11638727 0.08428474 0.043077666 -0.029405516 0.04578795 -0.05545087 0.09690886
0.0079638455 -0.10863875 0.13465895 -0.07049751 -0.05474306 0.0704625 0.06425889 0.053611644
0.07289513 0.061644282 -0.09403603 -0.11140429 -0.04831025 0.033553544 0.040380757 -0.09825654
-0.0050488543 0.022941625 0.041273877 -0.09306507 0.027154826 -0.068221346 0.11216102 -0.008885407

out_rev.bias f4 [50]
00000000: 6dc7 3fbc a141 803c f64d 0bbe 2f21 b43d
00000010: 1be0 463d 9880 b93d ed40 09be 47b0 e93c
00000020: 1d0d cebd 7821 e2bd 32c9 d83d 2ee1 d43c
00000030: b8bc 06be f5b0 97bd d98d 47bd ff8b b23d
00000040: f244 013c 311c 0e3e cc16 49bc 13e8 f93d
00000050: ec9d d2bd f8e5 ab3c 2247 f13d 558b 593c
00000060: 8fff 06bd 7717 17bb 88d9 d3bd 4045 c93d
00000070: 4f55 baba af07 88bc 3d3f 783c ee49 bcbd
00000080: 4921 20bd b96e 83bd 31d5 e8bd f2a2 93bd
00000090: 3a14 31bd 1d19 c73d afe3 adbd 029f fa3d
000000a0: 6423 1b3d e02d ed3d b128 78bd c685 05be
000000b0: 2414 a6bd 8d5a c53c fa3d fcbb 8ff0 fe3d
000000c0: 8c1a b4bd d960 b4bc
-0.011705262 0.015656294 -0.13603958 0.08795392 0.048553567 0.090577304 -0.13403673 0.028526438
-0.10061095 -0.1104154 0.1058525 0.02598628 -0.13157928 -0.07406799 -0.04871926 0.087181084
0.007889973 0.13877942 -0.012273502 0.12202468 -0.102840275 0.020983681 0.11781146 0.013277848
-0.032958563 -0.0023054758 -0.10344225 0.098276615 -0.0014216098 -0.016605226 0.015151796 -0.091937885
-0.039094243 -0.06417603 -0.11368788 -0.07208814 -0.04323218 0.09721587 -0.08490693 0.122373596
0.037875548 0.115810156 -0.06058568 -0.13039312 -0.0810931 0.02409103 -0.007697818 0.12448227
-0.08794126 -0.022018837

bias_layer.weight f4 [50, 50]
00000000: 7ccf e0bd 89b2 31bd 0736 d0bb 0599 933d
00000010: 3952 8abc e10d 863c 6227 203e afb7 a73b
00000020: 17dc 383d 970b c53d 263b 00bd 4083 f23b
00000030: e73e 513d 5864 7fbd 3ad2 603d cafd 00be
00000040: 5aea c03d 6349 11be 6571 ebbd cd06 87bd
00000050: d488 e8bd 4256 d03d 16fc aebd 273a 26bd
00000060: adba ff3d 9941 92bd 26cd bc3d d498 173e
00000070: 6f8e 90bc 2fd1 ee3d 2866 82bd bf26 723c
00000080: b97c 10be a084 01be ac07 cbbc a587 b83d
00000090: 3c59 07bd b0ad b4bd f7c8 113d 2ae1 edbd
000000a0: 52ba 043d f823 543c f913 5a3b 367d bfbc
000000b0: 0e04 013d aaa8 da3d 4f44 8abd c239 d83d
000000c0: 43a2 433d de8d 89bc 2042 07be f0ee 06be
000000d0: 1602 0a3e 5dea 8cbd e31c 82bd 019a 76bd
000000e0: a172 d2bd 02a1 c2bd 3d53 dabd e767 bcbd
000000f0: 686e 133e d26c 4fbd c617 b1bd 8e97 cf3d
00000100: 04c9 073e c368 b23c 907c 81bd d2c7 6b3d
00000110: 4226 e53d 72b3 07be 8146 cebd f9f2 0abd
00000120: d3f2 d13d 99d5 f73d 2e7f b6bc f048 1fbb
00000130: aba2 593d 7b97 f5bd fa38 b33d c778 af3c
00000140: c668 31bd eb51 c33c 9733 8ebd 4d88 de3d
00000150: eb76 6f3d 8461 9e3d 7d79 aa3c a106 843d
00000160: f832 2c3b b57a 293d d8ff 6b3d 077b 9d3d
00000170: 0544 963d f87b f5bd 1e89 cb3d 682b c33d
00000180: 5c5d b0bd b176 45bd 55fe 8cbb f286 b23d
00000190: ce01 bdbd a7f0 f53c c263 acbb f117 f1bd
000001a0: 0b6f 4cbd 451c 833d 439a 6e3d d51a 14be
000001b0: b994 07be 46f4 74bd 8212 acbd 863b b3bc
000001c0: edf4 f9bd f8f3 a53d 92b6 b1bd 9f22 353d
000001d0: 258c 8f3c 2c0b 61bb b4fc bf3d abf8 5fbc
000001e0: e934 6dbd 4d90 b0bd a6e0 0dbe 3ab5 15bd
000001f0: be43 1c3c 51f8 9dbd 13d6 c9bd 39a9 843d
00000200: 0ce2 e13d c450 5cbd 711d 54bd ab69 88bd
00000210: 9fcd cc3d 0776 d6bd d0c2 bbbd f7af b6bd
00000220: a039 1abe 3f92 22be 3a7c 02be 82c0 523d
00000230: be9d b5bd 12f6 013e ac18 a5bd 7753 663d
00000240: 7d43 c6bd ad4b 133e 017f 0f3d 1387 a33d
00000250: 549f 57bc 01d1 f0bd d2d8 a73d e9db babd
00000260: 285d 09be 2ebb 3bbd 0c58 97bd 335f b2bd
00000270: fc7f bbbd 1a1f 9e3d e00a 3f3d 0b29 d2bd
00000280: 5362 9cbc 006b 11bd b590 56bd e293 e6bd
00000290: 1c00 7f3d b29c f03d 0443 123e 8c07 fd3d
000002a0: a0b1 d0bd 845c 0ebe a71d 113e 5178 4c3d
000002b0: c8ba 303d 1588 e73d aef7 9dbd f5ca e93d
000002c0: b7ae 08bc cbde ac3c 257c 0abe 1537 383c
000002d0: 224b f03c c119 b13d 4e75 22bc 8c56 d5bd
000002e0: cd3a aa3d 80ba da3d 4af9 eebd bdd4 8d3d
000002f0: a507 c83d 8dfe e5bb c7c8 06bc d529 073e
00000300: fdd3 073c da6c 8c3d a035 003d 9f0d 86bc
00000310: 03dd 1a3e 32ba 923d dbf5 153e 4064 353c
00000320: fa43 d2bc 38b4 04bd 0ddc 8b3c 7f5a 82bd
00000330: f012 90bd e083 1dbd b43f 63bd ba3e b63b
00000340: 3865 c8bd 9c07 b33d ef30 e03c 69a2 b73d
00000350: 542e e0ba 52e7 af3d b36b 17be 2812 223e
00000360: eb0e 1f3e 4b6f de3d a161 303d 4434 cb3d
00000370: 336f f23d 6dd9 053e e27d 7f3d 6ae1 35bd
00000380: 83b9 ab3d dd64 ecbc 6e4f c73d b877 9a3d
00000390: 22e4 74bc c358 0d3e 4413 98bd 83f8 8cbd
000003a0: d755 a03d e1ed 97bd 8703 70bd f9bd 95bc
000003b0: 91a3 b5bd 801c 8bbd 9b72 9a3d b9e3 dabd
000003c0: 41c5 843d 41b2 f0bd 5f2a e9bd 71a3 ec3d
000003d0: 0df0 ad3c eac3 72bd c7e3 0e3e a979 09be
000003e0: 96ef 043d aebd 713c 3942 cebd e21b c9bd
000003f0: 8dbe 1a3e a963 24be 2b62 13be 58c9 b8bd
-0.109770745 -0.043383155 -0.006354097 0.072069205 -0.01688491 0.01636404 0.15640023 0.0051183323
0.04513177 0.09621351 -0.03130641 0.0074009 0.05108538 -0.062351555 0.054887988 -0.12596813
0.09419699 -0.14188151 -0.11496238 -0.06593094 -0.11354223 0.10172702 -0.08544175 -0.040582802
0.124867775 -0.07141418 0.092188165 0.14804393 -0.017646043 0.11660992 -0.06367141 0.014779746
-0.14110078 -0.12648249 -0.024783932 0.09010247 -0.033044085 -0.08822191 0.035592046 -0.11615212
0.03240425 0.012948029 0.0033276065 -0.023375135 0.031498007 0.10676701 -0.0675131 0.105578914
0.047762167 -0.01679128 -0.13208818 -0.13177085 0.13477358 -0.06880639 -0.06353166 -0.060205463
-0.1027577 -0.09503366 -0.10660408 -0.09199505 0.14397585 -0.05064089 -0.086471125 0.10136329
0.13260275 0.02177847 -0.063225865 0.05756361 0.11188938 -0.13252047 -0.10072041 -0.033923123
0.10251393 0.121012874 -0.02227744 -0.0024304949 0.053133648 -0.11991783 0.08751102 0.021419896
-0.04331281 0.023842772 -0.06943434 0.10865841 0.05846302 0.077334434 0.020809883 0.06446577
0.0026275497 0.04137679 0.05761704 0.07689481 0.073371924 -0.11986536 0.099382624 0.095297635
-0.08611557 -0.048208896 -0.0043027797 0.08717145 -0.0922886 0.030021979 -0.0052609155 -0.117721446
-0.049910586 0.06401876 0.058252584 -0.1446336 -0.13240327 -0.05980327 -0.084019676 -0.021878969
-0.12204919 0.08103174 -0.08677401 0.04422247 0.01752288 -0.0034338934 0.09374371 -0.013670127
-0.057911787 -0.08621273 -0.13855228 -0.036549784 0.009537635 -0.07713378 -0.098552845 0.06477589
0.11029443 -0.05378796 -0.05178589 -0.066607796 0.100001566 -0.10471731 -0.09168017 -0.089202814
-0.15061045 -0.15876101 -0.12742701 0.05145312 -0.088679776 0.12691525 -0.080613464 0.056231942
-0.09680841 0.14384337 0.03503323 0.07984748 -0.013160545 -0.11758614 0.08195652 -0.09123976
-0.13414443 -0.045832805 -0.073898405 -0.08709564 -0.091552705 0.07720776 0.04664123 -0.102617346
-0.019089853 -0.035502434 -0.052384097 -0.11258675 0.062255964 0.11748637 0.14283377 0.12354955
-0.10190129 -0.1390248 0.14171468 0.04991943 0.04314688 0.113052525 -0.07713257 0.11415664
-0.0083424365 0.02110233 -0.1352392 0.011243601 0.029332701 0.0864749 -0.009915663 -0.10416898
0.083119966 0.10680103 -0.11668642 0.06925342 0.09767083 -0.00701887 -0.00822658 0.13199551
0.008290288 0.06856699 0.03130114 -0.016363917 0.15123372 0.0716442 0.14644568 0.011071265
-0.02566718 -0.032398432 0.017072702 -0.06364917 -0.07034862 -0.038455844 -0.055480674 0.005561677
-0.09784931 0.08741686 0.027367083 0.08966524 -0.0017103651 0.08589043 -0.14787178 0.15827239
0.15533035 0.10861071 0.043061856 0.09922078 0.11837616 0.13071223 0.06237591 -0.044404425
0.08384993 -0.02885669 0.09731947 0.07542366 -0.014946969 0.13803391 -0.074255496 -0.06883337
0.07828873 -0.07418419 -0.058597114 -0.018279063 -0.088690884 -0.06792545 0.075413905 -0.10687966
0.06482936 -0.11752749 -0.11385035 0.115546115 0.02123263 -0.05926887 0.13954078 -0.13425316
0.03245505 0.014754696 -0.10071225 -0.09819771 0.15111752 -0.16053642 -0.14392917 -0.09022778

bias_layer.bias f4 [50]
00000000: edae e93d 8d89 6f3c 791e 0a3e 81a0 c93d
00000010: f5a3 15be 459c 76bd 3875 513d db0f eebd
00000020: 6156 d8bd 6174 04be f508 ff3c 1684 8f3d
00000030: 2ec7 30bd bc7e cb3d ae68 493d 1e02 0dbe
00000040: 4d9c 613d 676f 42bd 71fe 81bd 16d9 803d
00000050: 222d 6bbd 7f4f a6bb c08f d4bd 285e 04bc
00000060: 919f a53d 1614 d03d c0aa 4cbd 7090 023e
00000070: 24b4 0cbe 3855 003e 4b7a 06bd 0ad9 323c
00000080: 2b7a f5bc 11cb 533d 7e57 77bd f22f f83d
00000090: 085f 973d c30b 70bd 9fee e23d ae4d d6bd
000000a0: 0c7a ee3a 7d3a 9e3d 0b85 d03d 7a6f 103d
000000b0: 6d5e 5e3d e22f bbbc 302f 10be 77e6 4fbd
000000c0: a073 c3bd 967b 033d
0.114103176 0.014620197 0.13488187 0.09845067 -0.14613326 -0.060207624 0.05113718 -0.11624118
-0.105633505 -0.1293502 0.0311322 0.07007615 -0.043158703 0.09936282 0.049172096 -0.13770339
0.0550807 -0.047469523 -0.06347359 0.06291406 -0.05741609 -0.0050753946 -0.10378981 -0.008079089
0.080870755 0.10160081 -0.049967527 0.12750411 -0.13740593 0.12532508 -0.03283147 0.010916004
-0.02996548 0.05170733 -0.060386173 0.1211852 0.07391173 -0.058604967 0.110806696 -0.10464035
0.0018194332 0.077259995 0.10181626 0.035262562 0.05428927 -0.02284998 -0.140805 -0.050756898
-0.09543538 0.032100283

out_layers.0.weight f4 [50, 150]
00000000: 1fc5 1aba 349f c4bc 3408 253d 2400 393b
00000010: 1ee4 a1bc 6820 88bd 4584 373c 4632 a63d
00000020: 0855 8d3d 9936 42bd 0c4f 74bd 7438 94bd
00000030: e863 85bd f825 db3c b079 4ebd 3366 a3bc
00000040: 543f a13b 110f 95bd 1b80 97bd e758 743d
00000050: 0563 463c c7b9 923c bafb 09bd 31d4 9fbd
00000060: 84c0 82bb f717 8ebd e51b 233d 9a64 8bbd
00000070: 2786 8ebd dadd 56bd 8691 463c ed92 7e3c
00000080: 2e09 0b3c 1d56 603d 7ea6 a5bd 35aa 2fbc
00000090: abd2 0a3d 2e75 77bc 724c 493d e08e 003d
000000a0: fb38 7abd 1b00 8dbd 01ee 7b3d 39ff 03bd
000000b0: 6775 263d 188a 8c3d 51ef d93b b09e a8bd
000000c0: 8d90 843d 0464 1b3b 5545 1cbd 6c3e 88bd
000000d0: 7d53 483c 0e6c aa3d fe0a 983d 330a 1e3d
000000e0: ab62 7d3d 5f3b 2c3d 77e1 933d 8aad 0f3d
000000f0: 16c7 5fbd 3aee 7b3a 93c5 16bd 911f 083d
00000100: e9dc 40bc d533 96bd c6dc 663d 7528 54bd
00000110: dca3 0f3c ba69 ebbc c44e 953c 5792 e8ba
00000120: cc40 633d 6730 a5bc 5899 163c ad3b 7dbd
00000130: 0e76 253c 7446 693d 8f31 913d b259 093d
00000140: a711 53bc f6ac 4a3c 7da2 053d 9703 853d
00000150: 6dd8 233d 3df2 913d 5f98 a1bc c206 44bd
00000160: db0c 5f3d 77e2 86bd 9ba1 2fbd 8470 2a3b
00000170: 7899 393c 2052 11bd cfe0 e63c bd1d 7bbd
00000180: 3e5c a7bc cccb 173d 5061 27bd ecea 1b3d
00000190: 982b 83bd bcc4 07bc 0460 053d 6232 fbbc
000001a0: 1196 803c 7ae7 c03a f423 b83d 3f53 9e3a
000001b0: 97e6 b6bd bb8f b23b eaf2 d63c d040 57bc
000001c0: ff2d b23d a52b 993b f8c8 04bd cd5f 9dbd
000001d0: f5b8 3fbd d910 26bc b444 0c3b 0531 8cbd
000001e0: 57fd b0bc e8a4 a63c 28e0 b4bd 6f68 463c
000001f0: f19d 90bd 6398 1a3d af5d 873d efed 473d
00000200: 8599 36bd 3b7c 05bd f84b 4bbd f047 443d
00000210: 243e fbbc 1820 6dbd c701 20bb 8972 eaba
00000220: 43e9 abbd 57f0 d8bc 0a2a efbb 57dd d5bc
00000230: bc9b be3d 7f28 333d 7c2c 8b3d a3dc 36bd
00000240: 6cbb 62bd 4f1c 9dbc e315 85bc 9eac 37bd
00000250: 0a63 f03c 8a6b 733d 64c5 773c 72b2 ec3c
00000260: 9498 08bd 807c 3c3d 0bf5 2c3d 4f5e 073c
00000270: a950 573a 250f a03c cf07 9cbd f112 ab3c
00000280: e73b 773c d102 aebb 2b6e e7ba b397 82ba
00000290: 67dd 17bd 16a0 67bd 092b ef3c 832a 37bd
000002a0: f5be c03d e7c1 943c 894c a9bc bf43 4e3b
000002b0: 5e45 32bd 99ff f9bc c20f a33d 41ee 143d
000002c0: 1e79 80bd 7b74 4b3d 176d 6abd 6740 9fbd
000002d0: a95c a03d 8e83 2dbc e33a 803d 0c0a bc3a
000002e0: 4c69 a83b 2576 403d 8f5f d3bc 4a3b 2f3d
000002f0: 0163 aabc 44aa cf3b caa6 973d ccba edbc
00000300: 218d 5abd 10e3 5b3c 202e ee3c 28fd 50bc
00000310: 5160 8fbc a25e 873b 6012 5c3d 0cee a53d
00000320: d6f1 703d 262a 0a3d 7e35 bdbb 49cc 943c
00000330: baf7 66bc 250d 363d 1244 13bd b6ce 57bd
00000340: 87cd f53c 6b83 64bd 934d 853d 8f04 543d
00000350: 5c64 9a3d a5b9 ac3d 7052 c33d 8da0 cdbc
00000360: 38ce 433d dc5d 0f3c 68ab 0fba 6322 613c
00000370: 3867 8abd dfc1 7b3c 310c b6bd 35c3 4a3d
00000380: db2b c2bb 54e6 9cbb 03ae 47bd 2593 a23d
00000390: eb2b a13d edf5 3d3d b217 9b3b acd4 3e3d
000003a0: feb0 dfbb f802 b43d c294 a7bd 366e 21bd
000003b0: ac3d 5bbb 9abf afbb b925 3b3b 3c7f 60bd
000003c0: cd88 abbd fe23 f53c e91b c6bd 1886 2bbc
000003d0: 473e 873c af33 7dbd a499 d23c 621a 27bd
000003e0: 188d 34bd 26bb f53c 9a21 833d 1050 003d
000003f0: 69e0 723d ece0 08bd 751d 5a3d 98f5 f4bc
-0.0005904007 -0.024001695 0.040291026 0.0028228844 -0.019762095 -0.06646806 0.011200969 0.08115058
0.06900984 -0.04741535 -0.059645697 -0.0723733 -0.06513196 0.026751503 -0.05040902 -0.019946193
0.0049208794 -0.07278264 -0.07397481 0.059655096 0.012108569 0.017910851 -0.03368733 -0.07804144
-0.003990235 -0.06938165 0.039821524 -0.068062976 -0.06959181 -0.052457668 0.012119656 0.0155379595
0.008486075 0.054769624 -0.080883965 -0.010721733 0.033892315 -0.015103621 0.04914517 0.031386256
-0.061089497 -0.06884786 0.061506275 -0.03222582 0.040639307 0.06862277 0.006650843 -0.08233392
0.064728834 0.0023710737 -0.038152058 -0.06652531 0.012226936 0.08321391 0.074239716 0.038583945
0.061861675 0.04204881 0.072207384 0.03507761 -0.054633223 0.00096103887 -0.036809515 0.03323323
-0.011771419 -0.07334105 0.05636289 -0.051796395 0.008767094 -0.028736938 0.018226035 -0.0017743808
0.055481717 -0.020164682 0.009191833 -0.06182449 0.010098947 0.056951955 0.07089531 0.033532806
-0.012882627 0.012370339 0.032625664 0.06494825 0.04000132 0.071262814 -0.019725977 -0.047858007
0.05445562 -0.065861635 -0.04287873 0.0026007006 0.011328094 -0.03547871 0.028183369 -0.061307658
-0.020429727 0.03705959 -0.04086429 0.038065836 -0.06404799 -0.008286651 0.03256227 -0.030663673
0.015696557 0.0014717423 0.089912325 0.0012079253 -0.089307 0.005449263 0.026238877 -0.013138011
0.08700179 0.0046743923 -0.03241822 -0.07684288 -0.04680725 -0.010135853 0.0021403255 -0.06845287
-0.021605177 0.020342305 -0.08831817 0.01210986 -0.07061375 0.037742984 0.066096656 0.048810896
-0.04458 -0.03258918 -0.049632996 0.047920167 -0.03066928 -0.057891935 -0.0024415122 -0.0017886917
-0.083941005 -0.02648179 -0.0072987126 -0.02610652 0.09307048 0.043739792 0.06795594 -0.04464401
-0.05535452 -0.019178538 -0.016245788 -0.044842355 0.0293441 0.05942873 0.015122745 0.028893683
-0.033348635 0.04601717 0.04222588 0.008262231 0.00082136184 0.019538471 -0.07618677 0.020883055
0.015089965 -0.0053103943 -0.0017656734 -0.0009963423 -0.03707638 -0.056549154 0.029195325 -0.044718277
0.09411422 0.018158866 -0.020666378 0.0031473485 -0.043523185 -0.030517386 0.0796199 0.03636003
-0.06273101 0.04967163 -0.057232942 -0.07775956 0.078301735 -0.010590447 0.06261232 0.0014346256
0.0051395055 0.04698767 -0.025802402 0.04278115 -0.020799162 0.006337436 0.07404859 -0.029019736
-0.053357247 0.013420835 0.029074728 -0.01275567 -0.017501982 0.004131154 0.05372846 0.081020445
0.058824383 0.033731602 -0.005774199 0.018163817 -0.014097149 0.04444613 -0.03595359 -0.05268737
0.03000523 -0.055789392 0.06508937 0.05176216 0.07538673 0.084338464 0.09537208 -0.02510097
0.047804087 0.008750405 -0.00054805586 0.013741109 -0.06757969 0.015366047 -0.08889044 0.04950257
-0.005925638 -0.0047881994 -0.048749935 0.07938222 0.07869705 0.04637711 0.0047330493 0.04658954
-0.006826519 0.08789629 -0.0818267 -0.039411746 -0.0033453507 -0.005363417 0.002855642 -0.05480884
-0.08375702 0.029924389 -0.09673292 -0.010468982 0.016509188 -0.061816867 0.025708027 -0.040796645
-0.04407987 0.029996466 0.06402893 0.031326354 0.059296045 -0.033417627 0.05325075 -0.029902264

out_layers.0.bias f4 [50]
00000000: 1681 0cbd cbbc 8f3c 3750 10bc e847 943d
00000010: a4f8 963d bd7d a23c bd78 b0bd 5f7f 483d
00000020: b61e cfbc d2bd 163b 3386 a6bd 0aae 263d
00000030: bf7f 5c3d 7095 053d f59a 1cbd 487f d7bc
00000040: a8b7 673c 7bf1 77bc feb0 693d e1af 9dbd
00000050: fa51 233d 23e3 e3bc 81d1 a2bd 16b4 8f3d
00000060: dbc3 5dbd d313 5a3c cb3d 8cbc ae06 2fbd
00000070: 49c4 4abd 1f41 7bbd edd0 263d 926b a2bd
00000080: cc3d 133d 0782 0abd e425 3a3c 63c7 033d
00000090: 1e43 b6bc e854 9dbb 83f0 d53c 7574 4abd
000000a0: ca8a 4b3d 1ce8 bdbc 6481 e53c 9231 78bd
000000b0: 97a1 92bc 35d5 10bc b5b5 233d 225b 653c
000000c0: 5947 80bd d01e 41bd
-0.034302793 0.017546078 -0.008808187 0.072402775 0.07371643 0.019835347 -0.08616779 0.048949596
-0.025283199 0.0023001325 -0.08131065 0.04069332 0.053832766 0.032613218 -0.038233716 -0.02630581
0.014142908 -0.015133257 0.05705356 -0.07699562 0.0398731 -0.027818268 -0.07950116 0.070167705
-0.05414186 0.0133103905 -0.017119309 -0.04273098 -0.0495036 -0.0613414 0.04072659 -0.07930674
0.035947606 -0.03381541 0.011361573 0.032172572 -0.0222488 -0.0048013814 0.026115661 -0.04942747
0.049692906 -0.023181967 0.0280158 -0.06059415 -0.017899318 -0.008839895 0.03996821 0.013998779
-0.062636085 -0.047148526

out_layers.2.weight f4 [1, 50]
00000000: 96f6 12be 4b46 253d 0d94 50bd 48c1 813d
00000010: bbe9 1e3d 7224 b3bd 0865 183b 19ee 55bd
00000020: 6091 47bd 73a3 333d 2874 b8bd c43b 0b3e
00000030: 292d ffbd 797b 4d3d 7731 11be 1b5d dd3c
00000040: 3e1f 033e 2597 973d 160f c0bd cf41 2abc
00000050: 033f 0b3e 76e8 023d f745 083d e100 773d
00000060: 7fb1 b2bd c0c6 10be d40d bd3c db13 0b3e
00000070: d0e7 81bd 2c0a 083e 50f1 ca3d 8709 a1bd
00000080: 6018 813d 5fb4 ef3d 239f 273d 009b abbd
00000090: dba6 8e3d 0e84 0cbe 29d1 f3bd e77c fbbd
000000a0: bfe2 713c 3ebe b8bd 6431 e9ba 3aa2 debd
000000b0: b54e 82bd 71d0 963d 52d8 76bd bd4f 36bd
000000c0: b6f0 87bd e624 d3bd
-0.14351878 0.04035024 -0.050922442 0.063356936 0.03879712 -0.08747186 0.0023253579 -0.05222902
-0.048722625 0.04385705 -0.0900653 0.13597018 -0.124597855 0.05016658 -0.14179026 0.027021935
0.12804887 0.074018754 -0.093778774 -0.010391667 0.13598256 0.031959973 0.03326985 0.060303573
-0.08725261 -0.14138317 0.023077883 0.13581793 -0.06343043 0.1328513 0.09909308 -0.07863145
0.06303477 0.11704325 0.04092325 -0.08379173 0.06965419 -0.1372225 -0.119051285 -0.122796826
0.014763533 -0.09020661 -0.0017791209 -0.10870786 -0.063626684 0.07363976 -0.060264893 -0.044509638
-0.06637709 -0.10309772
