saves/week_40_rev_model.pth (torch, 12435 bytes, 4 tensors)

gnn.attn_l f4 [1, 1, 50]
00000000: 185d efbc 9815 c23d 1d1b 813d b5c4 453c
00000010: 8e2c 8dbd 66d3 213e 6316 0a3f 331c 263b
00000020: 4582 ce3d 323c 613e 3fd6 49bc fd93 75bc
00000030: ab60 83bc b8fb 4cbd 84e2 f5bd cae8 c43d
00000040: 0b7c 17be ed49 0bbd 7d4a 5b3d ffd7 f9bc
00000050: d15c 233d 2229 11bf ae97 2b3e fbaa 713d
00000060: 5bc6 c13d c3ae 333e e937 85bd c425 2c3e
00000070: fd70 d3bc 27a3 903e 9a95 87be 4e9c edbe
00000080: 6999 75be 8cbf 07bd 1883 ab3d e5df e6bd
00000090: 9bf5 14be df05 833e 136a 9dbd c613 2bbe
000000a0: 4ed7 af3e dc07 c1bd ce25 bdbd a6c9 47be
000000b0: d501 1cbe 3e7c 273e f706 4f3e ed0f 0dbe
000000c0: d27d abbe 8788 84be
-0.029219195 0.09476775 0.063039996 0.012070824 -0.06893264 0.15803298 0.5394041 0.0025346398
0.10083441 0.21995619 -0.012319147 -0.014988896 -0.016037306 -0.050044745 -0.12006095 0.096147135
-0.14793412 -0.034006048 0.053537834 -0.030498503 0.03988344 -0.5670339 0.1675708 0.05900095
0.094616614 0.17547135 -0.06504805 0.16811281 -0.025810713 0.28249475 -0.26481324 -0.46408314
-0.23984303 -0.033141658 0.083746135 -0.11273173 -0.14546816 0.25590417 -0.07686248 -0.16706762
0.34343952 -0.09425327 -0.09235726 -0.19510517 -0.15235074 0.16355988 0.202175 -0.13775606
-0.3349443 -0.25885412

gnn.attn_r f4 [1, 1, 50]
00000000: 2353 8e3e 2dd5 c53d fb8f 8abe f47b cebc
00000010: 1f89 0dbe e9dc 5dbc 4745 d5bd 3564 153d
00000020: eb17 88be 10c9 9fbd 951b 29be dd7a 083e
00000030: 620c 83bb 4c2d 25bd 3756 c63d 8971 133e
00000040: a3fc 21be fcca 703e 882c 3fbc f7eb cabe
00000050: 8153 62be b8a9 cd3e c094 163d e3ee f9bc
00000060: 6ef4 743e fe7a 063d 11e8 15be 973c b03e
00000070: 33bf 9d3e 0a43 1b3d ddea 313e 2b87 8abe
00000080: d5ae 023e 3834 e6bb f59e 393e 0e22 72bd
00000090: 4e79 7ebc 5898 bfbd c994 07be 3b9f 53be
000000a0: c8db 8f3e 3f5e 543c 9dd1 12be ea04 60be
000000b0: fefa 31be aa15 263d 01a3 723e f49f 233d
000000c0: fb01 a23d 168e b6bd
0.27797803 0.09659801 -0.27062973 -0.02520559 -0.13821839 -0.013541439 -0.10413604 0.036472518
-0.26580748 -0.078020215 -0.16514428 0.13328119 -0.003999279 -0.0403264 0.09684413 0.14398779
-0.1581903 0.23514932 -0.011668332 -0.39633152 -0.22102167 0.40168548 0.036762953 -0.030509418
0.23921368 0.03283214 -0.14639308 0.34421226 0.30809936 0.03790573 0.1737475 -0.2705625
0.12762006 -0.007025268 0.18127044 -0.05911451 -0.015531851 -0.09355229 -0.13240351 -0.2066621
0.28097367 0.012961923 -0.14337774 -0.21876875 -0.17380902 0.040548004 0.23694994 0.039947465
0.07910534 -0.089138195

gnn.bias f4 [50]
00000000: 6008 71bd ad06 97bc aa86 af3d 92f6 193e
00000010: 18e2 12bd 36c4 3d3e e83b 40bd b911 d83d
00000020: d1fb 0cbe d343 c4bd 5f8f 683d 5026 503d
00000030: ba0c 063c a7c3 2d3d 39ce 813d 2917 3b3d
00000040: 333c fd3c 0098 643d dd21 8cbc d9e7 963d
00000050: 8649 4fbe ac12 8c3d 12ef 763c 4f4f 2dbd
00000060: b65b 55bc 5874 cdbc 1436 bb3c 7b50 8b3d
00000070: 3db1 d9bc 5c0c a5bc 9893 db3c 2275 6e3c
00000080: 6d3b 6ebd 2291 db3c 7fd1 cabc aa84 a5bd
00000090: 08cb 4cbd 8fc8 b5bd 70bc 18bd 64b4 6ebd
000000a0: 67c1 913d 6c05 60bd 27db 443c c3bc 08bc
000000b0: 9961 073d 6ac9 48bd 8fab 80bc 8d72 30bd
000000c0: b50e 403d 2ff6 56bc
-0.058845878 -0.0184358 0.08570607 0.15035465 -0.03586015 0.1853188 -0.04693213 0.10550255
-0.13767935 -0.09583249 0.056777354 0.050817788 0.008181745 0.042422917 0.06338162 0.045676384
0.030912494 0.05580902 -0.017105991 0.0736844 -0.2024289 0.06839499 0.015071647 -0.042311963
-0.013022354 -0.025079891 0.022852935 0.0680246 -0.026573772 -0.020147495 0.026803777 0.014554294
-0.05816214 0.026802603 -0.024758099 -0.08081944 -0.049998313 -0.08876144 -0.037289083 -0.058277503
0.07116967 -0.05469267 0.012015141 -0.008345786 0.03305206 -0.04902021 -0.015706806 -0.043077994
0.046889026 -0.013120218

gnn.fc.weight f4 [50, 50]
00000000: 4c17 303e 5ea2 303d 690b 58be 0d69 9a3d
00000010: eee9 f53d bb58 873d 8375 0e3e 3a69 63be
00000020: 3448 1cbf 9e7c 5dbd 1f54 473e c712 0f3f
00000030: 0971 f53e aaa5 e0bd 681d db3d 2289 a9bd
00000040: d656 bfbd 8763 d9be e325 b03d 3a44 b3be
00000050: 813b 873d 2ab2 dabe 5160 923d a9c0 a43e
00000060: 90a3 59bc 8574 59bd db2c 03be f159 a2be
00000070: d640 743d c9f5 e8be f2a1 89bd e6cc 91be
00000080: 0cd9 15bd 0c63 483e 261d 773c aaa8 28bb
00000090: 8480 d9bc 90a1 9f3e b023 733d 8ece 26be
000000a0: 42d4 e3be fcfe cfbe 2b97 143e c83e a4bc
000000b0: f62d 643e 5fef aabe 8690 753e f1f4 54be
000000c0: 3e9c 773d 7af5 8ebe b6b0 da3d 564c f2bb
000000d0: 6987 4dbd d8a5 53be f754 88bd 3fd9 3f3e
000000e0: dfa4 1ebd df3e 2b3e d38a cebe dd05 bb3d
000000f0: 186c 8a3d ced9 353e 9941 653e cca1 a4bd
00000100: 95c7 acbd 0924 853d 5857 523d e873 c5be
00000110: 2777 a8bd 2d87 97be 2f8b 193e 9545 b9be
00000120: e529 be3e 337a 0a3f 3ea9 d1bd a97b 2f3c
00000130: 4cf1 1bbe 49f5 853e bb84 9bbe b10c 48bf
00000140: 7cd0 e03d ac0c a2be 54eb cebe d06b b5bd
00000150: a034 a43e bb5a cf3d 2720 c5be 9c9e c73e
00000160: 988f 5d3e 8878 ad3d a640 acbe c822 ac3c
00000170: 00fc 8ebe 110c 9cbe cf4d 363f a416 d63d
00000180: 1c1f 4b3e 16b4 1f3e dd83 5abe 3310 803d
00000190: 9a5b 82bd ad0d 653d bba2 0ebf d822 98bd
000001a0: ddce d63d 61e8 db3c 0f12 9c3e 0137 8abd
000001b0: a7b0 e7bd cac1 a5be dd83 393e ea71 26be
000001c0: a7fc 2cbe 162c b43e 616d 6b3e 36c9 bcbe
000001d0: 2c49 24bf a36a 6c3e c512 9c3e 61f7 8ebe
000001e0: f9ba 1abe 0983 753e d1cb c03d 682e 2cbe
000001f0: 38ad 0b3e 8255 57bd 377d d83e 3d93 1a3e
00000200: ebd5 9e3e f72d aebe d6c4 7b3e 9db2 08be
00000210: f710 1fbe 075e 70be c5e9 c5bd 6c41 01bf
00000220: b5ca 1abd 5565 3c3e 4165 e0bd fe21 1abe
00000230: 0875 cbbd fb90 333c c99d d13e a24b ea3d
00000240: 4eac 15be c002 053e 3edb b3bc 7bfc ab3d
00000250: 92f4 5b3e 9bc3 88be efcd 1fbe 135b 36be
00000260: 47f7 893e 55a0 223e d393 083d f116 c7bd
00000270: bfb1 f43e 11b8 00be 5ae5 373e 6530 6d3e
00000280: fe7f da3d 63e1 16bf 89f5 bb3a 49d1 90bd
00000290: 05bc 293e 8bb0 2cbe e217 c9bc 6420 3ebe
000002a0: 718d d03d 4048 1f3e d26e 82be d942 973e
000002b0: 9b6a c33d 4fe9 e23c 7bd3 8bbd 9db8 6a3d
000002c0: 8461 c83e 1a0c eabd f6c4 bcbd fff6 653e
000002d0: a80c b63c feb9 113e f3de 0c3d ad3c 093e
000002e0: 5aa8 1abe cc26 4bbe ccd6 003c abd2 123e
000002f0: 9e33 313e f726 ad3e 8954 913e d684 9e3e
00000300: fba2 e03d ed3f 88be 6d86 c2be 73c7 9d3e
00000310: c4b4 14be 613b c0bd 0485 8dbe cb13 e6bd
00000320: 54b5 39be 0e30 07bd 70cb 1fbf f49c 4dbe
00000330: 216a 8f3d c979 89bd 4efb 13be 4784 2bbe
00000340: 0a4b 1c3e 203c 2cbe 2ebb 3fbd 87c7 0a3e
00000350: 1eff b63d 2b25 523e 35b9 b83c d20d 1e3e
00000360: 2fc7 413e e9b0 e9bd bdbb 2c3e c969 43be
00000370: fdbc e73d 4d9c 0b3d 5340 843e ff23 e9bc
00000380: c52a 5dbe 812d b1bd f594 113d 69e7 a2bd
00000390: 8fca a63c 345d f73d b9bf 9bbe 3217 db3e
000003a0: f834 97be 495c ff3d 0174 84bc 35a1 f83d
000003b0: 5eae cd3d 2695 2b3e 6f78 ab3c ae5b 3b3e
000003c0: 7d8e 1ebc 4ad2 92bd 2ba9 cd3e b748 ee3e
000003d0: 8ef1 d23d 1d52 d23e be8f ac3d 068b dabd
000003e0: 9766 25be 58b3 c33c cfbc 47be 2d98 a03e
000003f0: ed82 7a3d 0c3f 38be 220c 643d 830c 9e3c
0.17196387 0.043123595 -0.21098103 0.07539568 0.12007509 0.06608721 0.13912015 -0.2220811
-0.61047673 -0.054073922 0.19465683 0.55888027 0.479378 -0.10969098 0.10698968 -0.08278109
-0.093427345 -0.42458746 0.08600976 -0.3501299 0.06603146 -0.42714053 0.07147277 0.32178238
-0.013283625 -0.053089637 -0.1281008 -0.31709245 0.059632145 -0.4550002 -0.06720342 -0.28476638
-0.036583945 0.19569033 0.015082633 -0.0025735297 -0.026550539 0.3117795 0.059360206 -0.16289732
-0.44497877 -0.40624225 0.14510791 -0.020049468 0.22283158 -0.3338575 0.23980913 -0.20796563
0.06045174 -0.2792166 0.10678236 -0.007394354 -0.050177965 -0.20668733 -0.06656831 0.18735217
-0.038731452 0.16723202 -0.4034029 0.09131978 0.067588985 0.17758867 0.22388305 -0.08038673
-0.08436505 0.06501014 0.05135283 -0.38564992 -0.082258515 -0.29595318 0.149945 -0.361859
0.37141338 0.5409271 -0.102373585 0.010710635 -0.15228766 0.261637 -0.30374703 -0.78144366
0.10977265 -0.31650293 -0.40413916 -0.08858454 0.320714 0.10124727 -0.38501093 0.38988197
0.21636808 0.08470255 -0.33643073 0.021012679 -0.27926636 -0.30477956 0.71212476 0.10453537
0.19836086 0.15596041 -0.21339364 0.0625309 -0.06365128 0.055921245 -0.55717057 -0.07428521
0.10488675 0.026844205 0.30482528 -0.067487724 -0.11312991 -0.32374412 0.18116708 -0.16254392
-0.16893254 0.35189885 0.22990943 -0.36872262 -0.6417415 0.23087554 0.3048307 -0.2792311
-0.15110387 0.23975767 0.09413875 -0.16814578 0.13640296 -0.05257178 0.4228303 0.1509523
0.3102258 -0.34019443 0.24586806 -0.13349386 -0.15533815 -0.23473369 -0.096637286 -0.5049045
-0.037790973 0.1839803 -0.10956813 -0.1505203 -0.09934431 0.010959859 0.40940693 0.11440207
-0.1461651 0.1298933 -0.021955129 0.08397766 0.21480015 -0.26711735 -0.15605901 -0.1780818
0.2694647 0.15881474 0.0333441 -0.097211726 0.4779186 -0.12570216 0.17958584 0.23162992
0.10668944 -0.5893766 0.0014340143 -0.07071168 0.1657563 -0.16864221 -0.024547521 -0.18567044
0.10183228 0.15554905 -0.25475174 0.29543188 0.09541818 0.02769914 -0.06827446 0.057304967
0.391369 -0.114280894 -0.09217255 0.22457503 0.022222832 0.14231107 0.03439231 0.13402052
-0.15103284 -0.19839019 0.007863712 0.14338176 0.17304847 0.3381879 0.28384808 0.3096072
0.10968586 -0.26611272 -0.37993184 0.3081623 -0.14522082 -0.09386326 -0.27640545 -0.11234244
-0.18135577 -0.033004813 -0.62419796 -0.20079404 0.07002664 -0.06712682 -0.14451334 -0.16749679
0.15263 -0.16819811 -0.046809368 0.13552676 0.089353785 0.20521991 0.022549251 0.1543496
0.18923639 -0.11410696 0.16868491 -0.19083323 0.113153435 0.034084607 0.25830325 -0.028459547
-0.21598347 -0.08651257 0.035542447 -0.07954294 0.02036026 0.12078324 -0.3041971 0.42791134
-0.295326 0.12468774 -0.016168596 0.12140123 0.100430235 0.16756114 0.02093145 0.18296692
-0.009677527 -0.07169016 0.40168127 0.46539852 0.10299979 0.41078272 0.08425854 -0.10671048
-0.16152416 0.023889229 -0.19505619 0.313661 0.061160017 -0.179928 0.055675633 0.019293075
