saves/week_40_2_fine_refiner.pth (torch, 66669 bytes, 13 tensors)

revise_atten.weight f4 [50, 50]
0.05351884 0.046730794 0.036384795 -0.05836687 0.10108158 0.06668332 -0.032885298 0.12157822
0.09383901 0.06463491 -0.13464223 -0.10927418 0.007363154 -0.13352925 0.097695984 -0.09459508
0.035153046 -0.012131118 0.13064487 -0.101671465 0.0008282998 0.0705764 0.11141374 -0.07298914
-0.13883576 0.120750345 -0.13008735 0.07368092 0.07514543 0.076377764 0.11194749 -0.041939206
-0.020060657 0.029544843 0.054011326 0.1310301 0.13495964 -0.016566899 0.1283998 -0.11452881
-0.105852984 0.024389496 0.0972538 -0.008569179 0.06865601 -0.03192288 0.04699399 0.050708387
0.09005741 0.076131105 0.13726892 -0.022606285 -0.10637827 0.097822174 -0.013235186 0.08245466
0.119443946 0.13659702 0.0035603808 0.015694238 -0.072779804 -0.043510687 0.047520593 0.062764846
0.13234387 0.046252735 0.05950527 -0.06278182 -0.06402472 -0.09790105 -0.032667913 0.06000174
0.031112432 0.020285685 0.026118524 0.024135549 -0.11850569 -0.09928494 0.048925787 -0.026906831
0.0831774 0.0042516906 -0.12168133 0.030808352 -0.09875533 -0.01580467 0.055618215 0.029435823
0.08183505 -0.07857027 0.06618692 0.013054226 0.04253728 0.020550216 0.06233593 -0.07998501
0.124981746 -0.054478765 0.052700013 0.086820565 0.04179295 -0.0643878 -0.012790629 -0.019513806
-0.100875854 0.053536445 0.052837204 -0.01564914 -0.022708707 -0.015938701 -0.11689209 -0.01443082
-0.008864415 0.10687445 0.06663116 -0.013173797 -0.06228998 -0.13916723 0.0810175 0.032416653
-0.12000428 0.02185676 0.07607434 0.07932357 0.112049885 0.0037987537 -0.12034185 -0.039548844
0.014715918 0.115166724 0.109193675 -0.06484774 -0.08101686 -0.009178704 0.04008148 -0.08966065
0.10661561 0.13469802 -0.0868825 0.07549547 0.06348118 0.08219468 -0.021410119 -0.01813918
-0.11469763 -0.048135217 -0.025908617 0.041647356 -0.1181309 -0.053916156 -0.067280285 -0.09273911
0.038789395 0.073145784 -0.1179946 -0.10761888 -0.06271471 -0.016633667 0.036337193 -0.10392611
-0.053033277 -0.0016441204 -0.035086762 0.1274156 -0.11964186 -0.10394194 0.084559776 -0.031941045
0.12946177 0.0050088144 -0.119448476 0.096593805 0.108768016 0.025447207 0.023725262 -0.103359625
0.011213325 -0.11731057 -0.11730084 -0.026306868 -0.1024213 -0.046696328 -0.01702759 0.05319431
-0.06530549 -0.09185603 0.048357192 -0.017605962 0.12497214 0.03291253 0.10166319 -0.054689966
-0.10868908 -0.11051474 -0.0153457625 -0.0043818657 -0.008948291 -0.039614942 0.01463475 0.043736774
-0.05316967 -0.124929704 -0.0440561 0.09846495 0.11093117 0.13671832 -0.1386009 -0.006245798
-0.10559438 -0.030778736 0.037009854 0.03914991 -0.07364517 0.12938654 -0.07556657 -0.04467405
-0.0535419 -0.072854236 -0.08846321 -0.06324601 -0.0525927 -0.02769773 -0.030612824 0.051218573
0.08979943 -0.09258265 0.00013638804 0.015761795 0.100872524 -0.028870823 -0.08982326 -0.11470406
-0.028476102 -0.06360948 0.011396158 0.0055602132 0.071852885 0.07658419 -0.08938046 0.12844285
-0.0022865576 0.106285736 -0.05603426 0.13967124 0.1298115 -0.05632431 -0.11223012 -0.035384733
0.002274977 -0.08316441 -0.0029693046 0.11023361 -0.017371641 -0.090427116 -0.0070208143 -0.07335842
00000000: 9236 5b3d ca68 3f3d 3908 153d 1912 6fbd
00000010: dc03 cf3d 4491 883d bcb2 06bd 00fe f83d
00000020: ab2e c03d 4f5f 843d a7df 09be 24cb dfbd
00000030: 9d46 f13b e4bb 08be d514 c83d 11bb c1bd
00000040: a4fc 0f3d 99c1 46bc c5c7 053e 2139 d0bd
00000050: 4222 593a 5c8a 903d e32c e43d 557b 95bd
00000060: f62a 0ebe f54b f73d 9e35 05be 06e6 963d
00000070: d9e5 993d f26b 9c3d ba44 e53d 72c8 2bbd
00000080: 3f56 a4bc 0708 f23c fb3a 5d3d c12c 063e
00000090: dc32 0a3e 4eb7 87bc 3d7b 033e 158e eabd
000000a0: 73c9 d8bd 7bcc c73c 002d c73d be65 0cbc
000000b0: 869b 8c3d 91c1 02bd c57c 403d 99b3 4f3d
000000c0: 0570 b83d a0ea 9b3d 3990 0c3e d130 b9bc
000000d0: dadc d9bd fe56 c83d 65d8 58bc fddd a83d
000000e0: 079f f43d 17e0 0b3e 4755 693b 3491 803c
000000f0: 940d 95bd 4338 32bd f4a4 423d db8a 803d
00000100: 2785 073e 8273 3d3d ccbb 733d c193 80bd
00000110: 641f 83bd 5880 c8bd cace 05bd 62c4 753d
00000120: 80df fe3c 2a2e a63c 84f6 d53c eab7 c53c
00000130: 1cb3 f2bd e755 cbbd 6866 483d b76b dcbc
00000140: ea58 aa3d c451 8b3b 1034 f9bd cc61 fc3c
00000150: 3c40 cabd cc78 81bc edcf 633d 6523 f13c
00000160: 2299 a73d 73e9 a0bd 028d 873d 64e1 553c
00000170: 923b 2e3d ed58 a83c f653 7f3d 2ecf a3bd
00000180: 6ef6 ff3d 2025 5fbd f8db 573d fbce b13d
00000190: 162f 2b3d c0dd 83bd c98f 51bc 6bdb 9fbc
000001a0: 0098 cebd 0849 5b3d d36b 583d a032 80bc
000001b0: 9c07 babc e191 82bc 1f65 efbd 3f6f 6cbc
000001c0: 0d3c 11bc fee0 da3d eb75 883d e9d6 57bc
000001d0: c723 7fbd db81 0ebe 81ec a53d 53c7 043d
000001e0: cec4 f5bd f30c b33c ddcc 9b3d 6574 a23d
000001f0: 697a e53d 83f4 783b ca75 f6bd f8fd 21bd
00000200: 091b 713c 88dc eb3d efa0 df3d e4ce 84bd
00000210: 2bec a5bd 4662 16bc 7a2c 243d 01a0 b7bd
00000220: 4959 da3d 47ee 093e 74ef b1bd 5e9d 9a3d
00000230: 6c02 823d af55 a83d 4664 afbc 9e98 94bc
00000240: 97e6 eabd 6f29 45bd 4f3e d4bc 6b96 2a3d
00000250: 9dee f1bd 30d7 5cbd 3fca 89bd 01ee bdbd
00000260: a1e1 1e3d 75cd 953d 27a7 f1bd 4a67 dcbd
00000270: 9270 80bd 5443 88bc 4fd6 143d 36d7 d4bd
00000280: 6c39 59bd 877f d7ba 23b7 0fbd 3c79 023e
00000290: cb06 f5bd 83df d4bd ad2d ad3d 9dd4 02bd
000002a0: a091 043e fb20 a43b 67a1 f4bd f9d2 c53d
000002b0: c4c1 de3d a976 d03c 7b5b c23c 36ae d3bd
000002c0: 18b8 373c 8640 f0bd 6c3b f0bd 8081 d7bc
000002d0: 42c2 d1bd a644 3fbd 727d 8bbc 47e2 593d
000002e0: e2be 85bd 041f bcbd 3112 463d 613a 90bc
000002f0: 65f1 ff3d 4acf 063d ca34 d03d 9602 60bd
00000300: 6198 debd 8d55 e2bd cb6c 7bbc c195 8fbb
00000310: da9b 12bc 4743 22bd 97c6 6f3c 5525 333d
00000320: 71c8 59bd 25db ffbd 2b74 34bd fea7 c93d
00000330: e22f e33d e3ff 0b3e 65ed 0dbe 8da9 ccbb
00000340: de41 d8bd b023 fcbc a597 173d a85b 203d
00000350: 47d3 96bd e87d 043e a5c2 9abd 23fc 36bd
00000360: c04e 5bbd 9a34 95bd 332c b5bd 2087 81bd
00000370: 716b 57bd 5ae6 e2bc bfc7 fabc 91ca 513d
00000380: c3e8 b73d f99b bdbd 6303 0f39 e11e 813c
00000390: 4196 ce3d 8182 ecbc 42f5 b7bd f6e9 eabd
000003a0: b746 e9bc b045 82bd f3b6 3a3c 7332 b63b
000003b0: 9b27 933d 2cd8 9c3d 1a0d b7bd 8686 033e
000003c0: 12da 15bb 56ac d93d 2e84 65bd fa05 0f3e
000003d0: 4eed 043e 52b4 66bd e8d8 e5bd 95ef 10bd
000003e0: c817 153b 1a52 aabd aa98 42bb 29c2 e13d
000003f0: f94e 8ebc da31 b9bd dc0e e6bb f03c 96bd

revise_atten.bias f4 [50]
0.13563293 -0.096806355 -0.05374905 -0.048086453 0.13425688 -0.07148882 0.025117496 -0.04258111
0.12328288 0.0487986 -0.10555123 0.055084478 0.08703307 -0.13626234 0.13644458 0.056414757
-0.07592627 0.108218625 0.07272708 0.03460169 -0.087812684 0.03634972 -0.05581261 -0.05936189
-0.04772546 0.09555965 -0.1277219 -0.133845 -0.045190528 -0.0077165924 0.1378301 0.12558152
0.068377 -0.021122638 0.101158865 0.08413185 -0.03816477 0.11626635 -0.09297911 -0.12094062
-0.03895357 -0.09971329 -0.025937883 -0.10412289 -0.0553883 -0.10461846 -0.05408296 0.10761997
0.00031316595 0.04840473
00000000: 5ce3 0a3e 6942 c6bd f727 5cbd 4df6 44bd
00000010: a37a 093e bb68 92bd 35c3 cd3c 8869 2ebd
00000020: bc7b fc3d 0ae1 473d 3e2b d8bd 43a0 613d
00000030: 653e b23d 5b88 0bbe 21b8 0b3e 2913 673d
00000040: 3b7f 9bbd baa1 dd3d eff1 943d 80ba 0d3d
00000050: 23d7 b3bd 72e3 143d c39b 64bd 7425 73bd
00000060: c67b 43bd c7b4 c33d 88c9 02be aa0e 09be
00000070: b419 39bd 78db fcbb 5523 0d3e 7198 003e
00000080: 3e09 8c3d 6209 adbc 612c cf3d 524d ac3d
00000090: a952 1cbd 0d1d ee3d d56b bebd b7af f7bd
000000a0: c78d 1fbd 7b36 ccbd af7b d4bc 623e d5bd
000000b0: d8de 62bd 3442 d6bd 1886 5dbd dc67 dc3d
000000c0: 6c30 a439 0a44 463d

pred_atten.weight f4 [50, 1]
-0.45474154 -0.1668331 -0.97798014 -0.7148893 0.06236455 0.59834605 -0.30346596 0.36930925
-0.774271 -0.91451484 -0.20384504 -0.043014534 -0.308131 0.77179533 0.6315858 0.9803137
-0.5209263 -0.9750301 -0.9103533 0.98495483 -0.3864953 -0.36213684 0.67633027 -0.3743358
-0.63511324 -0.3288945 -0.40530142 0.17809518 -0.6897604 0.5158418 0.03516003 -0.23715839
0.75620925 -0.9282393 -0.40288964 -0.86501837 -0.9780974 0.05925177 -0.70817184 -0.95870686
-0.6927049 0.6736267 -0.2249733 0.39473742 -0.6075696 -0.41870052 -0.28723454 -0.77236784
-0.9320366 0.81268454
00000000: e2d3 e8be 4cd6 2abe e85c 7abf fc02 37bf
00000010: f871 7f3d 352d 193f e45f 9bbe 1a16 bd3e
00000020: a036 46bf a51d 6abf c1bc 50be 0230 30bd
00000030: 59c3 9dbe 6194 453f 9baf 213f d7f5 7a3f
00000040: 6d5b 05bf 939b 79bf ea0c 69bf 0026 7c3f
00000050: b6e2 c5be 006a b9be fb23 2d3f f1a8 bfbe
00000060: c896 22bf dc64 a8be ab83 cfbe 955e 363e
00000070: 2394 30bf 350e 043f f703 103d a6d9 72be
00000080: ee96 413f 17a1 6dbf 8d47 cebe d871 5dbf
00000090: 9764 7abf fcb1 723d c04a 35bf d06d 75bf
000000a0: 1c55 31bf cd72 2c3f 675f 66be 061b ca3e
000000b0: ae89 1bbf ea5f d6be 6810 93be e6b9 45bf
000000c0: f399 6ebf 180c 503f

pred_atten.bias f4 [50]
-0.9983135 0.6720749 0.064168245 0.9330196 -0.95366997 -0.42184716 0.44379666 -0.06163317
0.5262926 0.34192857 -0.47377735 0.34260806 -0.48500878 0.7321624 -0.30508205 -0.90096456
0.4556256 0.54369646 -0.41936475 0.5437184 0.844936 -0.9384422 -0.34790215 0.92991406
0.22579832 0.9934148 -0.3639689 -0.13871375 0.14416775 0.40315866 0.8587331 0.5384219
0.4845126 -0.4042784 0.2539401 0.5905666 -0.86072785 -0.43102112 0.50062776 -0.12443441
-0.8734132 0.6757396 -0.9506961 0.51294976 0.389534 0.90984184 0.40040886 -0.097650744
0.4061147 0.06956565
00000000: 7991 7fbf 1a0d 2c3f a46a 833d 5fda 6e3f
00000010: b723 74bf 5afc d7be 5139 e33e 1073 7cbd
00000020: 1dbb 063f 4311 af3e f292 f2be 536a af3e
00000030: 1253 f8be ff6e 3b3f b733 9cbe 9da5 66bf
00000040: c247 e93e b12f 0b3f fab6 d6be 2131 0b3f
00000050: ba4d 583f bf3d 70bf 3b20 b2be d90e 6e3f
00000060: ad37 673e 6f50 7e3f 225a babe fa0a 0ebe
00000070: b6a0 133e d06a ce3e efd5 5b3f 05d6 093f
00000080: 0912 f83e 94fd cebe 7004 823e 5f2f 173f
00000090: a958 5cbf cdae dcbe 2429 003f 78d7 febd
000000a0: 0298 5fbf 45fd 2c3f d260 73bf ad50 033f
000000b0: 0071 c73e 65eb 683f 6402 cd3e 1dfd c7bd
000000c0: 44ee cf3e 6f78 8e3d

pred_inp.weight f4 [50, 1]
0.0010292777 -0.48851007 0.21440528 0.43860695 0.8930278 -0.12766223 0.6784193 0.20375778
-0.6744162 0.8910935 -0.30134273 -0.22945493 0.66856587 -0.65448177 -0.38236025 0.86475044
-0.31057954 -0.40102676 0.1854525 0.0462558 0.3722411 0.17486618 0.3124303 -0.46079206
-0.43556744 -0.7083757 -0.817431 -0.34704283 0.37893027 0.9217545 -0.7389943 -0.20079406
-0.13098007 0.23452395 -0.7467913 -0.13884719 0.80772597 0.7294487 -0.75996435 0.50847757
0.8215348 0.86562586 -0.2498046 0.98889697 0.0070318393 -0.31741074 0.02918436 0.37027302
-0.14403301 0.7774211
00000000: d4e8 863a fe1d fabe 0f8d 5b3e 1791 e03e
00000010: 789d 643f e3b9 02be e3ac 2d3f e1a5 503e
00000020: 8aa6 2cbf b41e 643f 9849 9abe 3cf6 6abe
00000030: 2227 2b3f 1e8c 27bf b9c4 c3be 4960 5d3f
00000040: 4804 9fbe 6153 cdbe 43e7 3d3e b976 3d3d
00000050: 6396 be3e 1f10 333e ddf6 9f3e f0ec ebbe
00000060: b202 dfbe 1c58 35bf 2843 51bf 99af b1be
00000070: 2603 c23e 1af8 6b3f bb2e 3dbf f59c 4dbe
00000080: a41f 06be 0c27 703e b72d 3fbf f52d 0ebe
00000090: 21c7 4e3f 26bd 3a3f 068d 42bf 962b 023f
000000a0: 1b50 523f a899 5d3f c7cc 7fbe 5a28 7d3f
000000b0: 586b e63b a983 a2be 0a14 ef3c 6d94 bd3e
000000c0: 647d 13be 1205 473f

pred_inp.bias f4 [50]
0.25502193 -0.47078106 0.15099272 0.26646447 0.96043813 0.81536174 -0.8510354 0.48743674
0.31554177 -0.064306706 -0.028256364 -0.15917301 0.5754649 -0.5653386 0.25984058 0.019032221
-0.9013421 0.8734052 0.28451076 -0.45279348 -0.26063448 0.30944502 -0.4022348 -0.94382197
-0.45768887 0.2764664 0.8321282 0.4990484 0.9449785 -0.2669156 -0.39855504 0.3344177
0.834984 0.39715952 -0.64379144 0.070616 0.0705659 -0.41769558 -0.6234028 0.62228316
0.71981364 0.0028864716 -0.6885174 -0.5387958 0.119221196 0.97598726 0.16541593 0.048398077
-0.90270674 0.12942433
00000000: 3c92 823e 370a f1be d69d 1a3e 086e 883e
00000010: 46df 753f 8cbb 503f 75dd 59bf 4f91 f93e
00000020: b18e a13e 3cb3 83bd e479 e7bc 40fe 22be
00000030: ab51 133f 08ba 10bf d309 853e 76e9 9b3c
00000040: 5bbe 66bf 7c97 5f3f 65ab 913e 8cd4 e7be
00000050: e271 85be 946f 9e3e b8f1 cdbe 519e 71bf
00000060: 3256 eabe 018d 8d3e 5b06 553f 4683 ff3e
00000070: 1cea 713f 29a9 88be 680f ccbe cc38 ab3e
00000080: 83c1 553f 7e58 cb3e 84cf 24bf 1f9f 903d
00000090: db84 903d 32dc d5be 5397 1fbf f34d 1f3f
000000a0: b545 383f f52a 3d3b ad42 30bf 86ee 09bf
000000b0: 3e2a f43d 4dda 793f cb62 293e 103d 463d
000000c0: ca17 67bf d087 043e

out_rev.weight f4 [50, 50]
-0.0639227 -0.014349921 0.12550776 -0.06451406 0.13366032 -0.1388264 0.13750787 0.11624534
-0.12198069 -0.093077086 -0.13398685 0.0065480047 0.015719723 -0.13356371 0.0420359 0.05825928
-0.007419993 0.13251007 -0.024571922 0.11642978 -0.09501307 -0.013215644 -0.12325626 0.10826792
0.09323852 0.06555344 0.031614237 -0.0122922035 -0.13881905 -0.10698062 -0.008085163 0.012609526
-0.08186031 0.026115747 -0.039176587 -0.07421809 -0.059071116 -0.10442716 -0.10335198 0.03823069
0.09823893 0.12660202 0.053001963 0.018591393 0.13761221 0.12877806 -0.11794761 -0.094952665
-0.10766812 0.029754171 -0.053641893 -0.12689883 0.0053027887 0.005101613 -0.07653178 -0.05433476
-0.13187806 0.053963512 -0.03778002 -0.037027247 0.1318099 0.008170588 -0.13529895 0.13612159
-0.031504944 -0.13816299 -0.035769932 -0.03979727 0.051633615 0.09088185 0.059071764 -0.0025059476
0.07998333 -0.0034960306 -0.028825385 0.03797761 0.10865255 -0.095334105 0.027488742 -0.03926089
0.111923315 0.048097458 0.069602534 0.0059058573 -0.033052605 0.05021804 -0.078862235 -0.08871344
0.011925642 0.09625635 0.007993554 -0.07916613 0.09964228 -0.05693237 -0.092309795 -0.06063892
-0.015051871 -0.13937129 -0.08315949 -0.1394172 -0.079001606 -0.078536004 -0.015661335 -0.055220924
-0.008406707 -0.020895984 0.08112351 0.034590345 0.08477279 -0.087376334 -0.02970628 -0.10319428
0.1377208 -0.07931295 -0.13071428 0.098917 0.06638444 0.05955323 0.06608147 -0.053220138
0.048456088 0.1336446 0.102047965 0.04276353 0.08627481 0.052587647 0.11028198 0.015351686
0.020265637 -0.07812706 0.08174716 0.053338137 -0.038704213 0.12407279 -0.07773605 -0.09304088
0.017438602 0.017429389 -0.055605847 -0.05507233 -0.13003041 0.10877083 0.11651412 0.136116
0.008359339 0.026425086 0.11588772 -0.09254884 0.07039942 0.09564664 -0.075492024 0.09765307
-0.08280513 0.06912436 0.12745363 0.0767114 0.045078054 -0.11715867 -0.060045265 0.046102718
-0.015621765 -0.100449115 -0.063152246 0.1414417 -0.1357143 -0.11208224 0.08295243 0.07911302
-0.045150712 -0.12529111 0.03839965 0.10036521 0.032135695 0.11085268 0.06282523 0.021088988
0.021532612 -0.047207646 -0.0709129 -0.08836722 -0.028227458 -0.040116124 0.111230604 -0.008220579
0.07722885 -0.06389637 0.0954967 -0.041581936 0.12291279 -0.08677435 -0.06196179 0.06023888
-0.12687097 -0.06788026 -0.045920916 -0.10165265 0.084021136 0.097590305 -0.06251659 -0.1066263
0.01258476 0.13186972 0.09761228 -0.08298596 -0.10524121 0.0018163188 -0.056019124 -0.089804016
0.10500793 0.01793474 -0.11462833 -0.0013809102 0.0663626 -0.0795236 -0.13985078 0.080655634
0.10609193 0.088838756 -0.062427323 -0.076926574 -0.085742414 0.056459676 -0.10562144 0.12042765
-0.028670823 -0.08512874 -0.06756204 0.084593475 0.09822199 3.8446207e-05 0.04887809 -0.064712
-0.00014654952 0.033371583 0.06573602 -0.06663434 -0.054452885 -0.12129543 0.13497138 0.0026298072
0.081064425 0.017996075 0.016574303 0.1111829 0.072695605 -0.08213625 -0.08281327 0.09161007
0.08093641 -0.10779156 -0.05099662 0.013768447 0.06788646 0.010328615 -0.065506704 -0.12546474
00000000: e8e9 82bd ee1b 6bbc 1b85 003e f31f 84bd
00000010: 40de 083e 8228 0ebe ddce 0c3e 0912 ee3d
00000020: 03d1 f9bd 339f bebd d933 09be a590 d63b
00000030: a6c6 803c edc4 08be d62d 2c3d 48a1 6e3d
00000040: 6a23 f3bb b8b0 073e 0e4b c9bc bd72 ee3d
00000050: 3696 c2bd 6e86 58bc c76d fcbd 92bb dd3d
00000060: d6f3 be3d e240 863d ee7d 013d 3d65 49bc
00000070: 9526 0ebe a818 dbbd a277 04bc 2f98 4e3c
00000080: 61a6 a7bd b1f0 d53c a177 20bd a7ff 97bd
00000090: 8ef4 71bd e8dd d5bd 34aa d3bd c997 1c3d
000000a0: 7e31 c93d f6a3 013e 9618 593d fa4c 983c
000000b0: 37ea 0c3e 65de 033e 848e f1bd 8b76 c2bd
000000c0: 1a81 dcbd 05bf f33c 9ab7 5bbd c4f1 01be
000000d0: 04c3 ad3b 6e2b a73b b2bc 9cbd 208e 5ebd
000000e0: 0b0b 07be d808 5d3d 39bf 1abd e2a9 17bd
000000f0: 2df9 063e eedd 053c cf8b 0abe 7563 0b3e
00000100: 540b 01bd 997a 0dbe 7e83 12bd 7602 23bd
00000110: c57d 533d 4320 ba3d 3cf5 713d d33a 24bb
00000120: 4dce a33d a91d 65bb 3723 ecbc 698e 1b3d
00000130: 3a85 de3d 873e c3bd 1230 e13c 07d0 20bd
00000140: 0d38 e53d d701 453d c68b 8e3d ec85 c13b
00000150: 2b62 07bd 6eb1 4d3d 8682 a1bd 64af b5bd
00000160: c563 433c 0d22 c53d 65f7 023c da21 a2bd
00000170: 4011 cc3d eb31 69bd eb0c bdbd 8460 78bd
00000180: 1f9c 76bc 59b7 0ebe 864f aabd 62c3 0ebe
00000190: 98cb a1bd 7cd7 a0bd 334c 80bc 562f 62bd
000001a0: 49bc 09bc 0e2e abbc 1524 a63d 9bae 0d3d
000001b0: 5b9d ad3d 5df2 b2bd 965a f3bc 8657 d3bd
000001c0: ae06 0d3e d46e a2bd f7d9 05be ff94 ca3d
000001d0: 91f4 873d 16ee 733d b955 873d 5cfd 59bd
000001e0: e479 463d 21da 083e 86fe d03d d028 2f3d
000001f0: d9b0 b03d 2566 573d 85db e13d a385 7b3c
00000200: 1f04 a63c 1401 a0bd 0e6b a73d 1779 5a3d
00000210: 4f88 1ebd e019 fe3d 1434 9fbd 388c bebd
00000220: 66db 8e3c 14c8 8e3c f5c2 63bd 8693 61bd
00000230: b126 05be 3ec3 de3d f49e ee3d fe61 0b3e
00000240: 9cf5 083c 6c79 d83c 8a56 ed3d 3f8a bdbd
00000250: 922d 903d 63e2 c33d 909b 9abd 55fe c73d
00000260: bc95 a9bd 1391 8d3d 3483 023e de1a 9d3d
00000270: c4a3 383d e3f0 efbd 06f2 75bd 34d6 3c3d
00000280: 6ef2 7fbc 44b8 cdbd f755 81bd 18d6 103e
00000290: b1f8 0abe 608b e5bd f7e2 a93d 0206 a23d
000002a0: f4ef 38bd 504c 00be f448 1d3d 468c cd3d
000002b0: b8a0 033d bb06 e33d 84aa 803d d0c2 ac3c
000002c0: 2965 b03c ce5c 41bd c83a 91bd dff9 b4bd
000002d0: 453d e7bc ce50 24bd dfcc e33d 9baf 06bc
000002e0: 292a 9e3d 1adc 82bd c693 c33d d251 2abd
000002f0: b3b9 fb3d c0b6 b1bd a5cb 7dbd 0bbd 763d
00000300: 77ea 01be ce04 8bbd 9217 3cbd 442f d0bd
00000310: 4613 ac3d 6ddd c73d b308 80bd e45e dabd
00000320: 4f30 4e3c db08 073e f2e8 c73d 8bf4 a9bd
00000330: b488 d7bd 8c11 ee3a 4f74 65bd 2beb b7bd
00000340: 660e d73d e0eb 923c 42c2 eabd a8ff b4ba
00000350: 1de9 873d 45dd a2bd 0b35 0fbe c82e a53d
00000360: ba46 d93d 18f1 b53d cbb3 7fbd ae8b 9dbd
00000370: b899 afbd 4342 673d 0e50 d8bd c6a2 f63d
00000380: 13df eabc fa57 aebd f85d 8abd 583f ad3d
00000390: 9c28 c93d 4d41 2138 6434 483d ba87 84bd
000003a0: 16ab 19b9 a4b0 083d 9ba0 863d 9677 88bd
000003b0: fd09 5fbd bd69 f8bd f035 0a3e d858 2c3b
000003c0: 1b05 a63d 816c 933c d5c6 873c dcb3 e33d
000003d0: 6fe1 943d 0d37 a8bd 019a a9bd 0f9e bb3d
000003e0: fdc1 a53d d2c1 dcbd d5e1 50bd 0d95 613c
000003f0: 0e08 8b3d 5a39 293c 6128 86bd d479 00be

out_rev.bias f4 [50]
-0.12918043 -0.0020600876 0.074576735 0.029481601 4.1319847e-05 -0.047525667 -0.0028889568 -0.08782318
0.057738274 -0.14088944 0.013404473 0.12405971 -0.12857476 0.071735345 -0.033066366 -0.09557541
-0.01313044 -0.033764202 0.0901642 -0.09734224 -0.054403238 -0.089899875 0.077499114 -0.02994179
-0.015887119 0.040795922 0.08645597 0.09984259 0.11280432 0.05769574 0.12116091 -0.08840135
-0.0869366 -0.1147359 0.13410945 0.10965738 -0.018228138 -0.0011410485 0.06274013 0.037157305
-0.037861865 -0.037314367 -0.122850835 -0.12301815 -0.14250655 -0.10643825 -0.12374554 -0.10135486
-0.045974236 0.1238803
00000000: e047 04be 8902 07bb b0bb 983d 6683 f13c
00000010: d94e 2d38 46aa 42bd a754 3dbb a4dc b3bd
00000020: f87e 6c3d 5245 10be 6f9e 5b3c 0413 fe3d
00000030: 1aa9 03be fbe9 923d 9970 07bd 0abd c3bd
00000040: 0f21 57bc 554c 0abd 02a8 b83d 5e5b c7bd
00000050: eed5 5ebd 6d1d b8bd dbb7 9e3d 7c48 f5bc
00000060: b425 82bc a019 273d d40f b13d 467a cc3d
00000070: f405 e73d 5e52 6c3d 3623 f83d c40b b5bd
00000080: d10b b2bd a8fa eabd fd53 093e 0c94 e03d
00000090: 2d53 95bc 3c8f 95ba e67d 803d 4232 183d
000000a0: 0b15 1bbd f3d6 18bd 3899 fbbd f1f0 fbbd
000000b0: 3ded 11be 4cfc d9bd 4d6e fdbd 2393 cfbd
000000c0: 7b4f 3cbd f4b4 fd3d

bias_layer.weight f4 [50, 50]
-0.060200006 0.11991997 -0.08995148 0.03187596 -0.07445343 0.039612398 0.054900087 0.11704973
-0.024688635 0.11056744 -0.13209364 0.101292565 0.11833484 0.038639188 0.0658029 0.10251845
-0.0074522835 -0.04651233 0.12303152 -0.067380436 0.05761803 0.043071453 -0.1315207 0.037662808
0.039541487 -0.060342282 0.10446023 -0.026388967 0.010070493 0.13302258 0.047600064 -0.0825952
-0.021523051 0.0916202 -0.008791167 -0.07459181 -0.049019825 -0.13656765 -0.13691631 -0.1177259
-0.07209451 -0.056667782 0.046812847 0.0062724994 -0.012872178 -0.07979062 -0.096990705 -0.020084219
0.1273934 0.07620698 0.059510317 -0.12405071 -0.060132526 -0.051700424 -0.008071262 0.13287732
-0.054218642 -0.050371252 0.0024667864 0.13309976 0.10303955 -0.019520976 0.08555972 0.08993268
0.0060439855 -0.07215906 -0.10440334 -0.055743497 -0.035127465 -0.1114636 0.12415778 0.016594646
0.067385 0.06757376 0.02022398 0.11200739 -0.097615995 -0.11053571 0.106787264 0.09221681
0.051828787 0.042691678 -0.036080003 -0.002320361 -0.095887735 0.0034485152 0.04506626 -0.082827955
0.11478952 -0.099922195 0.11972961 0.021823548 -0.093288586 -0.12873103 -0.0032142058 0.13637412
-0.05672952 -0.11428342 -0.019518333 -0.059867363 -0.12718946 -0.107575946 -0.100844756 0.062287737
-0.12914105 0.02871134 -0.0074993335 0.022893092 0.095637746 -0.10652683 0.010993714 -0.07146747
0.12669167 -0.10522271 0.078625344 -0.03837809 0.0055330945 -0.05918271 0.047143772 -0.08409969
-0.045080695 0.116579674 0.11136652 0.140817 0.027878366 -0.028184807 -0.0316421 0.04931602
0.130475 -0.12440943 0.12867887 -0.045088068 -0.007092851 -0.052578755 -0.0650107 -0.065346874
0.0045081987 0.03257577 0.0059017017 0.00831713 0.030557897 -0.058458142 0.0047430242 -0.036584035
0.04826943 -0.056201696 -0.016356152 0.07909417 0.075855255 -0.123967394 0.07088996 0.023307208
0.044970028 0.1425261 -0.03663486 -0.10166298 0.075910985 -0.033181835 -0.027450683 0.033049215
-0.13345744 0.011015433 -0.021367652 0.040247824 -0.06610427 0.087503836 -0.12859571 0.14210765
0.097141325 0.11048279 -0.11716778 0.06710193 -0.037135195 0.035293322 0.12570657 -0.087198354
-0.08843353 0.08734378 -0.022465553 0.1360613 -0.070731856 -0.032945376 -0.055447828 -0.012061366
0.123502575 -0.03118341 -0.08832854 -0.06990806 -0.07615425 -0.0026706415 -0.010846392 0.10133047
0.042022794 -0.12077316 -0.084556445 -0.003520549 -0.028966498 -0.094077766 -0.055106085 0.022923445
0.04766077 0.10270402 0.12868594 0.06920252 -0.008245475 0.12693766 0.060674883 -0.109481
0.09813179 0.02620276 -0.053833734 0.107890725 -0.14284931 0.093193196 -0.14256436 -0.07510747
-0.07075417 -0.08637223 0.14291036 -0.07161203 -0.025362138 -0.11314037 0.12587734 0.042580932
-0.07796286 0.04301156 0.052895878 -0.02204856 0.08598313 0.0651808 -0.12998392 -0.11197583
0.09588094 -0.08075249 0.091450505 0.023937447 0.037211325 -0.105019346 0.08172132 0.04461293
-0.034129273 -0.117003866 0.07860394 0.10212156 -0.06823946 0.025931293 -0.04349316 0.082688525
-0.113397144 -0.014306849 -0.023195509 0.13621795 0.014944384 0.08898467 0.10342468 0.0126117915
00000000: 4894 76bd 9a98 f53d 7b38 b8bd 5e90 023d
00000010: 0a7b 98bd 9c40 223d eade 603d c5b7 ef3d
00000020: d23f cabc 2f71 e23d 8e43 07be 7a72 cf3d
00000030: 8959 f23d 2044 1e3d acc3 863d 31f5 d13d
00000040: 4932 f4bb b783 3ebd f3f7 fb3d c1fe 89bd
00000050: e200 6c3d b16b 303d 5dad 06be 5144 1a3d
00000060: 41f6 213d 7829 77bd 3fef d53d ad2d d8bc
00000070: b6fe 243c 1237 083e 49f8 423d ac27 a9bd
00000080: 1c51 b0bc 5fa3 bb3d d408 10bc 97c3 98bd
00000090: 03c9 48bd 64d8 0bbe ca33 0cbe 471a f1bd
000000a0: 49a6 93bd 7a1c 68bd d4be 3f3d 8a89 cd3b
000000b0: d4e5 52bc 4469 a3bd 10a3 c6bd a987 a4bc
000000c0: 6a73 023e 6812 9c3d 17c1 733d 4c0e febd
000000d0: 864d 76bd d3c3 53bd 543d 04bc fe10 083e
000000e0: 5e14 5ebd 1652 4ebd cfa9 213b 4e4b 083e
000000f0: 6606 d33d 74ea 9fbc ef39 af3d a02e b83d
00000100: a00c c63b 21c8 93bd 6bd1 d5bd 4b53 64bd
00000110: d1e1 0fbd 0747 e4bd 6f46 fe3d 7ff1 873c
00000120: 2601 8a3d 1d64 8a3d c3ac a53c 2164 e53d
00000130: e5ea c7bd 8c60 e2bd 48b3 da3d 2bdc bc3d
00000140: 6c4a 543d 78dd 2e3d a0c8 13bd 3311 18bb
00000150: ca60 c4bd 7c00 623b 6697 383d b4a1 a9bd
00000160: c516 eb3d 02a4 ccbd cc34 f53d 4cc7 b23c
00000170: 160e bfbd 11d2 03be 6da5 52bb a8a5 0b3e
00000180: 375d 68bd 6d0d eabd e9e4 9fbc 7b37 75bd
00000190: f43d 02be c750 dcbd b287 cebd 6d21 7f3d
000001a0: 8d3d 04be 0b34 eb3c f8bc f5bb 4b8a bb3c
000001b0: b9dd c33d bd2a dabd fb1e 343c 895d 92bd
000001c0: 76bb 013e 017f d7bd 5306 a13d 5832 1dbd
000001d0: f64e b53b 9269 72bd d419 413d 753c acbd
000001e0: 89a6 38bd 53c1 ee3d 2114 e43d 5532 103e
000001f0: 2c61 e43c d3e3 e6bc 269b 01bd 98ff 493d
00000200: 3d9b 053e 5fca febd 65c4 033e 44ae 38bd
00000210: 266b e8bb d25c 57bd 5424 85bd 95d4 85bd
00000220: 83b9 933b 2c6e 053d 1063 c13b 9244 083c
00000230: 8e54 fa3c ce71 6fbd 5f6b 9b3b 24d9 15bd
00000240: 2ab6 453d c033 66bd 56fd 85bc 20fc a13d
00000250: 005a 9b3d 9ee2 fdbd c12e 913d c2ee be3c
00000260: 7e32 383d 5df2 113e 6f0e 16bd ae34 d0bd
00000270: 3877 9b3d ade9 07bd 41e0 e0bc 9d5e 073d
00000280: 11a9 08be 137a 343c 370b afbc e7da 243d
00000290: ad61 87bd 3635 b33d 98ae 03be ab84 113e
000002a0: 08f2 c63d cd44 e23d a9f5 efbd bd6c 893d
000002b0: 131b 18bd bb8f 103d 39b9 003e 0d95 b2bd
000002c0: a31c b5bd 4ce1 b23d ae09 b8bc a753 0b3e
000002d0: dddb 90bd bbf1 06bd 431d 63bd 099d 45bc
000002e0: ebee fc3d 5a74 ffbc 98e5 b4bd f52b 8fbd
000002f0: c2f6 9bbd ee05 2fbb 11b5 31bc 5986 cf3d
00000300: 1820 2c3d eb57 f7bd ee2b adbd 03b9 66bb
00000310: 264b edbc d8ab c0bd ebb6 61bd f3c9 bb3c
00000320: f137 433d 7c56 d23d 3fc6 033e 0dba 8d3d
00000330: 0718 07bc f2fb 013e 3a86 783d 9337 e0bd
00000340: 52f9 c83d 2ca7 d63c c380 5cbd d0f5 dc3d
00000350: 1747 12be 13dc be3d 64fc 11be f2d1 99bd
00000360: 90e7 90bd ece3 b0bd 1857 123e 54a9 92bd
00000370: 42c4 cfbc 23b6 e7bd fde5 003e 5869 2e3d
00000380: feaa 9fbd e42c 303d 59a9 583d 2f9f b4bc
00000390: ec17 b03d 837d 853d 811a 05be 9553 e5bd
000003a0: 3a5d c43d 9061 a5bd 674a bb3d 7718 c43c
000003b0: e76a 183d 6214 d7bd 825d a73d 0cbc 363d
000003c0: 23cb 0bbd b99f efbd 1afb a03d 1c25 d13d
000003d0: 21c1 8bbd dd6d d43c e225 32bd 9a58 a93d
000003e0: c33c e8bd 4667 6abc 8204 bebc b87c 0b3e
000003f0: 4ad9 743c 983d b63d 52d0 d33d b0a1 4e3c

bias_layer.bias f4 [50]
0.033243667 -0.0677086 0.07774625 0.03320385 0.13054527 0.027033066 -0.08676262 -0.06366002
0.022495536 0.017675288 -0.10646002 0.13537294 -0.11355959 0.11147402 -0.014949944 -0.052249618
-0.12438407 0.08165383 0.12859964 -0.03681401 -0.01639721 0.04622403 -0.12006076 -0.13937992
0.045051426 -0.106349476 -0.075500324 -0.02234058 -0.08237731 -0.06511455 0.05268365 0.09012154
-0.083065666 0.080051094 0.007370666 -0.10215839 -0.074580476 0.06450883 -0.0130200265 0.099608175
-0.07780219 0.08118465 -0.043382064 0.008455401 0.12159445 0.008199888 -0.08936402 -0.011777646
-0.08333471 -0.019670295
00000000: 832a 083d ceaa 8abd 6d39 9f3d c300 083d
00000010: a9ad 053e 7374 dd3c 9ab0 b1bd 2f60 82bd
00000020: 8f48 b83c c4cb 903c b607 dabd 349f 0a3e
00000030: ee91 e8bd 7e4c e43d 9cf0 74bc b203 56bd
00000040: 13bd febd 203a a73d a0af 033e 4aca 16bd
00000050: 7153 86bc 6955 3d3d 6ae2 f5bd 9cb9 0ebe
00000060: d887 383d c1cd d9bd ea9f 9abd 9803 b7bc
00000070: 6fb5 a8bd c75a 85bd d0ca 573d a491 b83d
00000080: 551e aabd d4f1 a33d a185 f13b 6b38 d1bd
00000090: a6bd 98bd 351d 843d f351 55bc 5fff cb3d
000000a0: c156 9fbd 2344 a63d 64b1 31bd 8688 0a3c
000000b0: 8306 f93d d358 063c 7c04 b7bd 07f7 40bc
000000c0: 63ab aabd 9923 a1bc

out_layers.0.weight f4 [50, 150]
0.020932145 -0.031017078 0.03571844 0.0088807 0.07563846 -0.05725603 -0.052551445 -0.047422763
0.062230054 -0.042785957 0.03224046 -0.00021979505 0.0012675212 0.04000284 -0.0036525847 -0.076673485
0.03332234 -0.0066772336 0.07143606 -0.044108298 -0.05621133 -0.057391196 0.055542387 0.03713245
0.05387893 -0.011879049 0.030177945 0.035566196 0.026712812 -0.026858851 0.0021190047 -0.053378012
0.034310367 -0.023519762 -0.07259555 -0.030199803 -0.07350251 0.044506453 -0.010724539 -0.05583774
0.0064908895 -0.020379223 -0.05995601 -0.056744274 0.03931028 0.063371755 0.06292402 0.07938985
0.014637229 0.0067975647 0.07477515 0.031134035 -0.038938086 0.060862042 -0.039019402 -0.07986726
0.049947403 0.06308666 -0.04114372 0.038130358 0.041287065 -0.07006712 -0.039215095 0.037521582
-0.022846766 -0.020559536 -0.06744032 -0.06203239 -0.009401973 0.07845236 0.06252897 -0.037207764
0.05389388 0.018589558 -0.03213782 -0.0771185 -0.0403451 0.0036038118 -0.051063187 -0.07997985
0.041198403 0.011485007 -0.026116151 0.0746813 0.073131055 0.07428437 0.041039266 0.07202836
-0.017941568 0.074697055 -0.076178394 0.06303864 0.014843619 -0.040653955 0.0038747266 -0.024935173
0.08221866 -0.036182117 -0.021888483 0.024731677 -0.064882286 -0.07718928 -0.025653217 0.0542448
0.037065633 -0.066399895 0.04699636 -0.040094923 -0.06873016 -0.009812336 -0.039090343 -0.060576584
-0.067504905 -0.047887724 -0.07603238 -0.010305235 0.026760267 0.040892877 0.07991872 -0.047784127
0.060849134 0.052913718 0.042126406 -0.009807604 0.083243184 0.0704955 0.06523986 0.0073134415
-0.0058423337 -0.050594576 0.013334153 0.065797016 -0.0054935813 0.052093137 -0.047531493 0.051225506
-0.012061479 0.014589865 -0.08090392 -0.068314515 0.012928598 -0.036637954 0.016785353 0.0042894003
0.006459358 -0.020218568 -0.05620546 -0.046176046 0.017354546 0.06494933 -0.043748207 0.05072759
0.06306607 -0.016041178 0.025427714 0.030487092 0.03445118 -0.08344292 -0.036496088 0.029056333
0.042590823 0.07077637 0.0032916137 -0.028843299 -0.06334772 0.014968674 -0.022046864 0.06219841
0.030544454 0.055265512 -0.048304368 -0.0043034833 -0.005097012 -0.04076565 0.0643925 0.011732583
-0.03607903 -0.025301538 -0.058466136 -0.03541741 0.02550342 -0.05283099 -0.060392726 -0.015886705
0.0016906221 0.015318237 -0.022978779 0.066026926 -0.05615255 -0.08103588 0.07638077 0.03657837
0.07925029 -0.03489947 0.0378139 -0.07604863 0.03933543 -0.011587679 0.008713466 0.031117452
-0.009399019 0.056465756 0.007635171 0.041821532 0.068485275 0.06274479 -0.05317177 -0.034368183
-0.040785484 -0.07347593 0.01034593 -0.051927354 0.044221234 -0.068819985 0.029403418 0.03844092
0.07624651 -0.06860379 -0.057431705 -0.03429969 0.041679565 -0.024302192 0.008856734 -0.04187498
0.051953133 0.03394225 0.016636493 0.0034203762 0.05023978 -0.0012767959 0.06790637 0.05379657
0.0622965 0.007110791 0.051184166 -0.040497497 0.023529902 0.06742559 0.07457504 -0.022941623
0.006872936 0.0147767775 -0.015225132 -0.07616846 -0.011664917 0.03796884 -0.078838766 -0.02006898
-0.030056428 0.07359151 -0.059548225 0.054575156 -0.03585215 -0.062348504 -0.07437389 -0.01562849
00000000: e479 ab3c 8717 febc 804d 123d 5b80 113c
00000010: 56e8 9a3d 4d85 6abd 2f40 57bd 5f3e 42bd
00000020: f1e4 7e3d 5440 2fbd 930e 043d c978 66b9
00000030: f422 a63a 05da 233d 3460 6fbb fd06 9dbd
00000040: 027d 083d b2cc dabb 124d 923d e7aa 34bd
00000050: da3d 66bd 0813 6bbd 6a80 633d 3218 183d
00000060: 27b0 5c3d 58a0 42bc bd37 f73c dcad 113d
00000070: d4d4 da3c 1807 dcbc 00df 0a3b e7a2 5abd
00000080: 0789 0c3d 84ac c0bc faac 94bd 9465 f7bc
00000090: 7c88 96bd 664c 363d fab5 2fbc 1db6 64bd
000000a0: 87b1 d43b 54f2 a6bc 6f94 75bd af6c 68bd
000000b0: d103 213d 0dc9 813d 4fde 803d 2597 a23d
000000c0: fdd0 6f3c 1bbe de3b b723 993d ce0c ff3c
000000d0: 8b7d 1fbd 7a4a 793d cfd2 1fbd 7291 a3bd
000000e0: a695 4c3d 9433 813d 5186 28bd 942e 1c3d
000000f0: a01c 293d 5a7f 8fbd 02a0 20bd 3bb0 193d
00000100: 2429 bbbc 796c a8bc 271e 8abd ad15 7ebd
00000110: bc0a 1abc a2ab a03d 300f 803d 2b67 18bd
00000120: d4bf 5c3d 2149 983c f2a2 03bd 4ef0 9dbd
00000130: e740 25bd ee2d 6c3b a227 51bd 7acc a3bd
00000140: a8bf 283d 9c2b 3c3c 8af1 d5bc 82f2 983d
00000150: bcc5 953d 6722 983d ca18 283d 9b83 933d
00000160: 32fa 92bc c5fa 983d 6b03 9cbd 671a 813d
00000170: a732 733c c384 26bd 20ef 7d3b d944 ccbc
00000180: 4262 a83d b333 14bd 7a4f b3bc 169a ca3c
00000190: 01e1 84bd 6a15 9ebd b226 d2bc cc2f 5e3d
000001a0: 22d2 173d abfc 87bd 417f 403d 933a 24bd
000001b0: 66c2 8cbd ecc3 20bc 321d 20bd 271f 78bd
000001c0: 0340 8abd eb25 44bd ddb6 9bbd 4ad7 28bc
000001d0: 5938 db3c 4a7f 273d 6dac a33d 4ab9 43bd
000001e0: f13c 793d 0ebc 583d bd8c 2c3d 13b0 20bc
000001f0: 677b aa3d f25f 903d 7a9c 853d 98a5 ef3b
00000200: 0c71 bfbb 423c 4fbd 7e77 5a3c 96c0 863d
00000210: 8003 b4bb 9d5f 553d 62b0 42bd d6d1 513d
00000220: 829d 45bc 540a 6f3c f4b0 a5bd 7be8 8bbd
00000230: 78d2 533c ae11 16bd 7081 893c 198e 8c3b
00000240: 06a9 d33b 69a1 a5bc b237 66bd 1823 3dbd
00000250: 1f2b 8e3c 2804 853d 5231 33bd bcc7 4f3d
00000260: c928 813d ca68 83bc c84d d03c 11c0 f93c
00000270: ae1c 0d3d 1fe4 aabd ec7c 15bd 8c07 ee3c
00000280: b773 2e3d 34f3 903d 1db8 573b c848 ecbc
00000290: 73bc 81bd 2b3f 753c a09b b4bc c3c3 7e3d
000002a0: 5d38 fa3c 175e 623d cdda 45bd 3c04 8dbb
000002b0: d604 a7bb e2f9 26bd 37e0 833d 053a 403c
000002c0: 9bc7 13bd 2c45 cfbc 307a 6fbd d911 11bd
000002d0: 8cec d03c 4f65 58bd 5d5e 77bd d624 82bc
000002e0: dd97 dd3a 58f9 7a3c fe3d bcbc 2039 873d
000002f0: 3700 66bd 24f6 a5bd 856d 9c3d 33d3 153d
00000300: fa4d a23d bff2 0ebd bfe2 1a3d 62bf 9bbd
00000310: 301e 213d 40da 3dbc edc2 0e3c 07ea fe3c
00000320: 58fe 19bc a348 673d 7530 fa3b 0e4d 2b3d
00000330: 0242 8c3d 5780 803d a4ca 59bd a7c5 0cbd
00000340: ae0e 27bd 8c7a 96bd fa81 293c c7b1 54bd
00000350: 5321 353d 7ef1 8cbd 70df f03c 3a74 1d3d
00000360: 2127 9c3d 2580 8cbd 823d 6bbd d57d 0cbd
00000370: 31b8 2a3d 6415 c7bc d61b 113c 1985 2bbd
00000380: cfcc 543d 0707 0b3d 4149 883c 6428 603b
00000390: 3ac8 4d3d 295a a7ba 7f12 8b3d cb59 5c3d
000003a0: 9d2a 7f3d a301 e93b 7da6 513d b4e0 25bd
000003b0: c8c1 c03c 6d16 8a3d ccba 983d 12f0 bbbc
000003c0: 5e36 e13b 4c1a 723c d572 79bc 36fe 9bbd
000003d0: 351e 3fbc 3785 1b3d 3876 a1bd b467 a4bc
000003e0: e638 f6bc 25b7 963d d7e8 73bd 338a 5f3d
000003f0: b4d9 12bd 2561 7fbd 5751 98bd 5207 80bc

out_layers.0.bias f4 [50]
0.0109787695 0.053112797 0.030447016 -0.031995475 -0.075835235 -0.03986248 -0.08036805 -0.069327325
-0.014793612 -0.046948038 0.042851433 -0.05324878 0.019346595 -0.003789712 -0.047006167 0.053530604
-0.0032875822 -0.02749046 -0.057440534 -0.059775762 0.04782111 0.0463054 0.014195276 0.014662235
-0.047265187 -0.07526284 0.013192446 -0.034035817 0.011459416 0.0028268015 0.06506134 -0.03365174
-0.059399575 0.05556699 0.07090804 -0.039462626 0.05963476 0.024507243 -0.07998775 0.0018227141
0.026926003 0.06372964 -0.040267374 -0.06265517 -0.026049156 0.03592784 0.062113855 -0.04341603
-0.011996259 -0.06887618
00000000: 4ce0 333c ce8c 593d 056c f93c b00d 03bd
00000010: 814f 9bbd d746 23bd 0198 a4bd 7cfb 8dbd
00000020: e860 72bc 964c 40bd fc84 2f3d 651b 5abd
00000030: c07c 9e3c d15c 78bb 8a89 40bd e842 5b3d
00000040: 7a74 57bb ac33 e1bc c446 6bbd 6ed7 74bd
00000050: 11e0 433d bbaa 3d3d 4e93 683c df39 703c
00000060: 2499 41bd 6723 9abd 2125 583c 2469 0bbd
00000070: 46c0 3b3c dc41 393b e13e 853d 68d6 09bd
00000080: f84c 73bd 369a 633d 3c38 913d 90a3 21bd
00000090: 9443 743d 6ac3 c83c 9ed0 a3bd 23e8 ee3a
000000a0: ec93 dc3c af84 823d 67ef 24bd 5b51 80bd
000000b0: 0a65 d5bc 1229 133d 196b 7e3d 02d5 31bd
000000c0: f58b 44bc f40e 8dbd

out_layers.2.weight f4 [1, 50]
-0.061407715 0.13040295 0.06269735 0.11187685 0.052738197 0.104257256 -0.08537765 -0.07768537
-0.09176668 -0.078963846 0.110404424 -0.018782033 0.03866741 -0.045803044 7.499924e-05 -0.030929828
0.033638854 -0.085073486 -0.03099107 -0.11370685 -0.040797733 -0.029016221 0.076384895 -0.033208393
0.061786782 -0.10545987 0.09373039 0.062752604 -0.12716582 0.005377346 -0.08282332 -0.103337936
0.08302946 -0.03852172 0.10037121 -0.12886383 -0.0175441 -0.014864311 0.002743808 -0.0018704274
-0.06631819 -0.11046732 -0.13865907 -0.09245361 0.06188283 0.09449923 -0.12774803 0.018848067
0.06610095 -0.030342046
00000000: a886 7bbd 5a88 053e 7867 803d b11f e53d
00000010: 0204 583d d484 d53d 7ada aebd 8219 9fbd
00000020: 2bf0 bbbd ccb7 a1bd b71b e23d c7dc 99bc
00000030: b861 1e3d f99b 3bbd e948 9d38 8d60 fdbc
00000040: e5c8 093d 023b aebd fce0 fdbc 23df e8bd
00000050: 861b 27bd 6db3 edbc af6f 9c3d 8605 08bd
00000060: 2314 7d3d 58fb d7bd b8f5 bf3d 7084 803d
00000070: c237 02be 7334 b03b 469f a9bd d7a2 d3bd
00000080: 590b aa3d f3c8 1dbd 6c8f cd3d e1f4 03be
00000090: a5b8 8fbc 7089 73bc 76d1 333b 2129 f5ba
000000a0: d5d1 87bd b13c e2bd a5fc 0dbe 5158 bdbd
000000b0: da78 7d3d d088 c13d 61d0 02be 4367 9a3c
000000c0: ef5f 873d e28f f8bc
