saves/week_40_1_fine_rev_model.pth (torch, 12435 bytes, 4 tensors)

gnn.attn_l f4 [1, 1, 50]
0	0xbdfa177a	-0.12211509
1	0xbe278352	-0.16358688
2	0xbe498849	-0.19680895
3	0x3d5c3e6b	0.053770464
4	0x3d9e2cf8	0.07723421
5	0xbdfb57e3	-0.122726224
6	0xbe3e48a6	-0.185824
7	0xbcadd4d4	-0.021219648
8	0x3d8d4077	0.06897061
9	0xbd44c31c	-0.048037633
10	0x3e234ca3	0.15947203
11	0x3d77ba4c	0.0604804
12	0xbe8db4a1	-0.2767687
13	0xbe800eba	-0.25011235
14	0xbd0a0338	-0.033694476
15	0x3e24a78d	0.1607954
16	0x3df9f767	0.122053914
17	0x3d9171e1	0.07101799
18	0xbd3d60df	-0.04623496
19	0x3e8b1cf7	0.27170536
20	0xbcd6274f	-0.02614179
21	0x3e025570	0.12727904
22	0x3d8190c4	0.0632644
23	0x3e9d32d7	0.3070285
24	0xbd4dbfd6	-0.050231777
25	0xbe32633e	-0.1742067
26	0x3e96e9b1	0.29475167
27	0xbbb9ddcd	-0.0056721927
28	0xbe5aea1c	-0.21378368
29	0xbe724d90	-0.236624
30	0x3e6dea4d	0.2323391
31	0x3ede3124	0.43396866
32	0xbee39a46	-0.4445364
33	0xbe5c7b6e	-0.2153146
34	0xbcf5f0d9	-0.030022072
35	0xbc945d9c	-0.018111043
36	0xbe383cdd	-0.17991967
37	0xbe604d2b	-0.21904437
38	0xbdd6b1c3	-0.10483124
39	0xbd8c33cf	-0.06845819
40	0xbe4ab143	-0.19794182
41	0x3d79aecb	0.06095771
42	0x3dcb461c	0.09925482
43	0xbe952c09	-0.2913516
44	0x3e575d0d	0.2103159
45	0x3d896425	0.06708554
46	0xbe28c900	-0.16482925
47	0xbe4dbbe5	-0.20091207
48	0x3d359c45	0.044338483
49	0xbe89c68d	-0.26909295

gnn.attn_r f4 [1, 1, 50]
0	0x3c75bc52	0.014998512
1	0x3da59d86	0.08086686
2	0x3e59b981	0.2126217
3	0x3d3e35be	0.04643797
4	0xbd8a93ae	-0.06766449
5	0xbde2123c	-0.11038634
6	0xbe349b37	-0.17637335
7	0xbe4208d9	-0.18948688
8	0x3da0e192	0.07855524
9	0xbd984cf1	-0.074365504
10	0xbc90c9a0	-0.017674267
11	0xbe9cb91a	-0.3060997
12	0xbd03c70e	-0.032172255
13	0x3e946d97	0.2898986
14	0x3e148bd6	0.14506468
15	0x3eba6f33	0.36412963
16	0x3dbba451	0.091622
17	0x3eec00fc	0.460945
18	0xbe729ed9	-0.23693408
19	0xbce3bb4e	-0.027799275
20	0x3e6fbb9e	0.23411414
21	0x3e249247	0.16071425
22	0x3e8b8fcf	0.27258155
23	0xbe87aa65	-0.26497188
24	0x3e8b2fab	0.27184805
25	0x3d6f2f63	0.0583948
26	0x3c546662	0.012963863
27	0xbcff4aa9	-0.03116353
28	0x3e958e49	0.29210117
29	0x3d974833	0.07386818
30	0xbd4a9ef4	-0.049467996
31	0x3dc83b2a	0.0977691
32	0x3c6b02d7	0.014343939
33	0x3e154e79	0.14580716
34	0xbe1df258	-0.15424478
35	0x3e0cd9e3	0.13754992
36	0xbd074a36	-0.033029757
37	0xbe5b30c8	-0.21405327
38	0x3da05105	0.07827953
39	0xbe7f3897	-0.24923931
40	0xbdbb87ed	-0.09156785
41	0x3e10d679	0.14144315
42	0xbe283b95	-0.16428979
43	0x3e16d4d6	0.14729628
44	0xbe398e46	-0.1812068
45	0x3d5eba3a	0.05437682
46	0x3d9b3748	0.075789034
47	0xbe5cbbb5	-0.2155598
48	0xbe273db1	-0.16332127
49	0xbe253f82	-0.16137508

gnn.bias f4 [50]
0	0xbd52cc18	-0.05146417
1	0x3d0d63ba	0.034518935
2	0xbd487f69	-0.048949633
3	0x3d0abc59	0.03387103
4	0x3d54a5cf	0.05191594
5	0xbd7ca76a	-0.061683096
6	0x3d42944b	0.047504704
7	0xbd490fd9	-0.04908738
8	0x3b46bad0	0.0030323751
9	0xbc48d8f8	-0.012258761
10	0xbd324eff	-0.043532368
11	0xbd3a75b1	-0.045522396
12	0x3d3a1c00	0.04543686
13	0xbd1d22c0	-0.03836322
14	0x3d4423bc	0.04788564
15	0xbd4a597c	-0.049401745
16	0xbd41f6a0	-0.04735434
17	0x3d448bc2	0.047984846
18	0x3d5c95bd	0.05385374
19	0x3d544632	0.051824756
20	0xbd4202f5	-0.0473661
21	0xbd419881	-0.04726458
22	0x3d21ea2b	0.03952996
23	0x3d43271e	0.047644727
24	0x3d5888ea	0.052864946
25	0xbd2eecb1	-0.042706195
26	0x3d041fda	0.03225694
27	0x3d34b70c	0.04411988
28	0xbd4ce9c0	-0.05002761
29	0x3d3f2121	0.046662454
30	0x3d535062	0.05159033
31	0xbd3610c2	-0.044449575
32	0x3d229991	0.039697234
33	0xbd5d8515	-0.054081995
34	0xbd3e31c9	-0.046434198
35	0x3d472765	0.048621554
36	0x3d3e9d67	0.04653683
37	0xbd4b0d83	-0.049573433
38	0xbd0e0148	-0.03466919
39	0xbd123c38	-0.03570196
40	0xbd6620a3	-0.05618347
41	0x3d4908c4	0.049080625
42	0x3d50a621	0.050939683
43	0x3d81f9d9	0.06346483
44	0xbd5bfa8f	-0.05370575
45	0xbd3d7657	-0.046255436
46	0x3d6a9b07	0.05727675
47	0xbd73d34d	-0.059527684
48	0xbd3b8ea9	-0.04579035
49	0xbd4bb815	-0.0497361

gnn.fc.weight f4 [50, 50]
0	0xbe2ba070	-0.16760421
1	0x3e3d3a06	0.18479165
2	0xbc49a8fa	-0.012308354
3	0x3e0d77f6	0.13815293
4	0xbdc61b21	-0.09673143
5	0x3cdda7ed	0.027057612
6	0xbe2c009b	-0.16797106
7	0x3dea38bf	0.11436605
8	0x3d4747a4	0.048652306
9	0xbd585cfd	-0.052823056
10	0x3de02662	0.10944821
11	0x3d737131	0.05943412
12	0xbeabbbe1	-0.33541778
13	0x3df5da82	0.12004568
14	0xbba4e958	-0.0050326996
15	0xbe6afbe1	-0.22947647
16	0x3d13c5b1	0.036077205
17	0xbd611ab5	-0.05495711
18	0xbe5efb59	-0.21775569
19	0xbed8d29b	-0.4234818
20	0x3e805434	0.25064242
21	0x3e3cbcbf	0.18431376
22	0x3c4ad698	0.012380265
23	0xbda161e7	-0.078800015
24	0xbd9d4d30	-0.07680738
25	0x3eb41b39	0.3517702
26	0xbccd1469	-0.025034146
27	0xbe9d992d	-0.30780926
28	0x3f07d5bd	0.53060514
29	0xbe369655	-0.17830785
30	0x3d07a7d5	0.03311904
31	0xbe1a41eb	-0.15064208
32	0x3dadeb40	0.08492136
33	0x3ddb3021	0.10702539
34	0x3c24f781	0.010068775
35	0x3cea3506	0.028589737
36	0xbec3c60d	-0.38237038
37	0xbc9f16c8	-0.019420043
38	0xbca2ac27	-0.01985748
39	0x3eaf7443	0.34268388
40	0xbd5c9723	-0.053855073
41	0xbe3822b8	-0.17981994
42	0x3d045db6	0.032315932
43	0x3dd1f60d	0.102520086
44	0x3e886cdf	0.26645562
45	0xbe096b8b	-0.1341993
46	0x3e47fe9d	0.19530721
47	0xbe0935ac	-0.1339938
48	0x3e2de08d	0.1698019
49	0x3e96fd25	0.2949001
50	0xbeb076b0	-0.3446555
51	0x3d81de89	0.06341273
52	0xbe57b937	-0.21066748
53	0x3e8b8725	0.27251545
54	0x3e43a8aa	0.19107309
55	0xbd337f96	-0.043822847
56	0x3eb69e30	0.35667562
57	0xbd26971d	-0.040671457
58	0x3e43df8f	0.1912825
59	0xbe961c62	-0.2931853
60	0xbed54ad0	-0.4165864
61	0xbe732cd2	-0.23747566
62	0xbe2311c4	-0.15924746
63	0xbe4e6789	-0.20156683
64	0xbd1d6f4b	-0.038436215
65	0xbddef168	-0.10885888
66	0x3dd2a243	0.10284855
67	0x3ee4d9e3	0.44697484
68	0xbe05d25b	-0.13068525
69	0x3b4ca680	0.0031227171
70	0xbd7e8847	-0.062141683
71	0x3c2383b1	0.009980128
72	0x3defb820	0.11705041
73	0x3d3066d5	0.04306682
74	0x3da06037	0.078308515
75	0x3dc930ff	0.098237984
76	0x3e8cca3f	0.27498052
77	0x3e91401e	0.2836923
78	0xbe5ee16e	-0.21765682
79	0x3c5a9d7b	0.01334321
80	0x3c40eae6	0.011774754
81	0xbca03ee2	-0.019561235
82	0x3e002734	0.12514955
83	0x3d84c434	0.06482735
84	0x3e9c6123	0.3054286
85	0xbeb26557	-0.3484294
86	0x3e6fd437	0.23420797
87	0x3ec5aaa9	0.38606766
88	0xbeda0947	-0.42585203
89	0xbe57c72b	-0.2107207
90	0xbd3aa04c	-0.045563027
91	0x3dce22a0	0.10065198
92	0x3db89729	0.090132065
93	0x3d851bfb	0.064994775
94	0xbde466dc	-0.11152431
95	0x3e31c58d	0.17360516
96	0x3d8a1aef	0.067434184
97	0x3e57dfc5	0.21081455
98	0xbe19bc8f	-0.15013336
99	0xbe159a3c	-0.14609617
100	0xbbf7177c	-0.0075406414
101	0xbe77552a	-0.24153581
102	0x3d2e6c33	0.042583656
103	0x3ddb1179	0.10696692
104	0xbd8a5970	-0.0675534
105	0x3e2e551b	0.17024653
106	0xbd93ff35	-0.07226411
107	0x3e9db3af	0.3080115
108	0xbe26f84a	-0.16305652
109	0xbe464634	-0.19362718
110	0x3e06897e	0.13138387
111	0x3e237d06	0.15965661
112	0x3ebb162f	0.36540362
113	0xbc778836	-0.015108159
114	0x3cd77c9e	0.02630454
115	0x3e1e7a4e	0.15476343
116	0x3d8f30d7	0.06991737
117	0xbea043ff	-0.31301877
118	0xbe4cc482	-0.19996837
119	0xbe291f55	-0.16515858
120	0x3bc807e4	0.0061044563
121	0x3daa5115	0.083162464
122	0xbd192c98	-0.037396044
123	0xbde0ffff	-0.109863274
124	0xbe1f43f4	-0.15553266
125	0x3e8ed002	0.27893072
126	0x3eb3598b	0.35029253
127	0xbea7aef5	-0.3275067
128	0xbe4f4897	-0.20242535
129	0x3e6a916f	0.22907041
130	0xbe3e0d1a	-0.18559685
131	0x3ce1f8f2	0.027584527
132	0xbdfbeec1	-0.12301398
133	0x3d314bb5	0.04328509
134	0xbd8f890a	-0.0700856
135	0xbef80333	-0.4843994
136	0xbf0db84e	-0.5535935
137	0xbdc2f5b5	-0.09519521
138	0x3e8e56df	0.27800652
139	0x3ee5973e	0.4484195
140	0x3e661edc	0.2247271
141	0x3e37efb9	0.1796254
142	0x3d8f716d	0.07004056
143	0x3cddfe71	0.027098866
144	0x3e3fd16e	0.18732235
145	0xbd98693d	-0.074419476
146	0xbddfc89c	-0.10926935
147	0x3d805629	0.06266434
148	0x3ebb7a15	0.3661658
149	0xbbdd6035	-0.0067558535
150	0xbdfbb115	-0.12289635
151	0xbe4dfd0e	-0.20116064
152	0xbe4fca39	-0.20291986
153	0x3e6475ab	0.22310512
154	0xbdbe89f4	-0.09303656
155	0x3dc23597	0.09482878
156	0x3e2bc435	0.16774066
157	0x3eae1ba6	0.3400547
158	0xbe1fce81	-0.15606119
159	0x3d063fb0	0.03277558
160	0xbcaa4460	-0.020784557
161	0xbd9a24da	-0.0752656
162	0x3e159004	0.14605719
163	0xbe13b2d0	-0.1442368
164	0xba694b3e	-0.00088994566
165	0xbe360b11	-0.17777659
166	0xbec029f9	-0.37532023
167	0xbed2a808	-0.41143823
168	0x3cae3000	0.021263123
169	0xbe08242d	-0.1329505
170	0x3df4abc6	0.11946826
171	0x3dee3010	0.11630261
172	0x3ea75be5	0.32687297
173	0xbe25a25e	-0.1617522
174	0xbec37d0c	-0.3818134
175	0xbe4cfb85	-0.20017822
176	0x3eba9288	0.3643992
177	0xbdc44a6b	-0.095845066
178	0x3eb81368	0.35952306
179	0x3db03bd5	0.08605162
180	0xbe887d70	-0.266582
181	0xbec4eab4	-0.38460314
182	0xbf125eee	-0.571761
183	0x3e13e78a	0.14443794
184	0xbe837927	-0.2567837
185	0x3e5c544c	0.21516532
186	0xbe22b6fc	-0.15890115
187	0xbd301f7c	-0.042998776
188	0xbedac5af	-0.42728946
189	0xbc8c0838	-0.017093763
190	0x3deac070	0.11462486
191	0x3e8bb5ce	0.27287143
192	0xbe348d4a	-0.17632023
193	0xbd6cda70	-0.057825506
194	0x3ec28add	0.3799657
195	0xbed72a27	-0.42024347
196	0xbcad409e	-0.021148976
197	0x3e6eca5d	0.23319383
198	0xbdb6dd57	-0.08928936
199	0x3daf08a9	0.08546574
200	0xbdcfaf65	-0.10140876
201	0x3c29495e	0.0103324335
202	0x3c8add7a	0.016951311
203	0xbe38391b	-0.17990534
204	0x3e92cc04	0.28671277
205	0x3bceb7e4	0.0063085426
206	0xbe11a9e2	-0.14224961
207	0xbe807128	-0.2508633
208	0xbdb086ad	-0.08619437
209	0xbacf9540	-0.0015837327
210	0x3d371460	0.044697165
211	0x3e7390ed	0.23785754
212	0x3daa8042	0.083252445
213	0xbe00dc46	-0.12584028
214	0x3d844d9d	0.06460116
215	0xbdddaaba	-0.10823579
216	0xbee75ae8	-0.45186543
217	0xbd240b7b	-0.04005001
218	0x3e63f3f9	0.22261037
219	0x3d6ae777	0.05734965
220	0xbe6ec873	-0.23318653
221	0x3e0e3779	0.13888349
222	0xbc63130b	-0.013859521
223	0x3cf5bef8	0.029998288
224	0x3e762f27	0.24041425
225	0x3e2f3e90	0.1711371
226	0x3e1a73db	0.15083258
227	0xbebd70d8	-0.37000155
228	0xbd82f4d4	-0.063943535
229	0x3e15316b	0.14569633
230	0x3ebaecd9	0.36508825
231	0xbe1928f3	-0.14957027
232	0x3e637c6e	0.22215435
233	0xbe49ad21	-0.1969495
234	0xbd5ed190	-0.054399073
235	0x3dcb7fc2	0.09936477
236	0xbdf6e826	-0.120559976
237	0x3e34c2d5	0.17652448
238	0xbcd66d2e	-0.026175108
239	0x3d9484ae	0.07251869
240	0x3e54e565	0.20790632
241	0xbb9832c8	-0.0046447255
242	0x3e8aeef4	0.27135432
243	0xbdc8c9c5	-0.098041095
244	0x3cc27cdd	0.02374118
245	0xbd6c3e41	-0.057676557
246	0x3dde00d0	0.10839999
247	0xbdaacfe0	-0.0834043
248	0xbef48f6c	-0.47765672
249	0xbe797382	-0.24360469
250	0x3e79318a	0.24335304
251	0x3e047c57	0.12938057
252	0x3ce55cc8	0.027998343
253	0x3e43454c	0.19069403
254	0x3eee4233	0.4653488
255	0x3e954fe0	0.29162502
