saves/week_40_2_rev_model.pth (torch, 12435 bytes, 4 tensors)

gnn.attn_l f4 [1, 1, 50]
-0.24453495 -0.1443895 -0.35148445 -0.20259453 -0.03746996 0.032558102 0.20491014 -0.19101232
-0.1875656 0.44713354 -0.01505156 -0.03387567 -0.020800572 -0.4405643 0.69389766 0.24652545
-0.016142512 0.03074676 -0.11773012 -0.026740985 0.836663 -0.288653 0.018228522 -0.2693517
0.12481952 0.45221448 0.40628153 -0.23720296 0.20612146 0.13276011 -0.471115 0.07925188
0.28886163 0.011397124 -0.06765988 -0.12395985 0.48979783 -0.20598428 -0.605824 0.021456271
0.37028977 0.071650766 0.08304964 0.39566904 -0.09259773 -0.5539386 -0.4400732 -0.7138259
-0.20617394 -0.3221251
00000000: 5f67 7abe d7da 13be c5f5 b3be f174 4fbe
00000010: 1a7a 19bd a55b 053d f7d3 513e bc98 43be
00000020: 3211 40be b0ee e43e d19a 76bc 37c1 0abd
00000030: f665 aabc a591 e1be 47a3 313f 2b71 7c3e
00000040: 4d3d 84bc a1e0 fb3c 7d1c f1bd e90f dbbc
00000050: 8c2f 563f 53ca 93be fb53 953c 77e8 89be
00000060: 60a1 ff3d a888 e73e 2204 d03e 55e5 72be
00000070: 8111 533e 44f2 073e fc35 f1be cf4e a23d
00000080: ace5 933e 01bb 3a3c 4391 8abd a9de fdbd
00000090: c8c6 fa3e 8bed 52be 4817 1bbf 10c5 af3c
000000a0: 9f96 bd3e a3bd 923d ee15 aa3d 2295 ca3e
000000b0: e1a3 bdbd ecce 0dbf 4651 e1be 4bbd 36bf
000000c0: 431f 53be 95ed a4be

gnn.attn_r f4 [1, 1, 50]
0.54649365 -0.30066448 0.5296914 0.20666409 -0.29774913 -0.15085559 0.22503349 0.4167597
1.3334413 0.0061825537 -0.7994756 -0.083376184 0.2946882 0.8060018 0.46136194 0.12296245
-0.62407976 -0.1298046 -0.72529286 0.23127094 0.5725711 0.26322034 -0.046120778 1.168762
0.3840299 -0.49342507 0.06818579 0.1269736 0.1995973 -0.2679686 -1.2791966 -0.8455933
0.66770655 0.59233683 0.22472134 0.32580495 0.51145846 -0.2507499 -0.25101766 -0.36515096
-0.8047221 -0.0032853729 -0.21423712 -0.5726243 0.03694451 0.3105437 0.117093526 -0.1287671
0.17026082 -0.46370694
00000000: 02e7 0b3f b2f0 99be db99 073f c09f 533e
00000010: 9372 98be e379 1abe 2e6f 663e 8761 d53e
00000020: 34ae aa3f 0597 ca3b 6faa 4cbf 22c1 aabd
00000030: 5fe1 963e 2256 4e3f a237 ec3e bdd3 fb3d
00000040: b1c3 1fbf 7feb 04be cbac 39bf 4ad2 6c3e
00000050: 0594 123f d1c4 863e 24e9 3cbd fe99 953f
00000060: 919f c43e 36a2 fcbe fea4 8b3d 5e05 023e
00000070: 3c63 4c3e 2e33 89be b7bc a3bf cd78 58bf
00000080: d1ee 2a3f 63a3 173f 5a1d 663e e8cf a63e
00000090: f1ee 023f 4a62 80be 6385 80be 11f5 babe
000000a0: 4402 4ebf 694f 57bb fa60 5bbe 8297 12bf
000000b0: 2053 173d 95ff 9e3e bbce ef3d 86db 03be
000000c0: da58 2e3e ff6a edbe

gnn.bias f4 [50]
0.006761785 -0.22460872 0.12440352 -0.1159392 0.0531981 0.2090172 0.06870313 -0.082648784
-0.28578755 0.04915294 -0.09408819 0.024382155 0.026759708 -0.029936226 -0.08513792 -0.039921813
-0.1109428 0.070731014 0.02733417 -0.01949401 0.2939999 0.04063355 0.07324502 -0.0682931
0.14227149 0.10888848 -0.04164272 -0.03589023 0.0133217955 -0.1627041 -0.10570682 0.10872094
-0.22736515 0.09372828 -0.35499752 -0.10483401 -0.031189974 0.052378636 -0.03194555 -0.054215465
0.12951612 0.023525525 0.064083666 -0.012498687 0.048296906 0.17129196 -0.17631407 -0.2191701
0.14268182 0.036311623
00000000: f791 dd3b d4ff 65be 46c7 fe3d 8871 edbd
00000010: 40e6 593d 9b08 563e 3ab4 8c3d c443 a9bd
00000020: bf52 92be 9854 493d 4fb1 c0bd 16bd c73c
00000030: 2d37 db3c d13c f5bc ca5c aebd 0e85 23bd
00000040: fb35 e3bd 6cdb 903d e9eb df3c e7b1 9fbc
00000050: 2887 963e 5e6f 263d 7c01 963d 41dd 8bbd
00000060: 9eaf 113e ec00 df3d 8f91 2abd a201 13bd
00000070: a943 5a3c e79b 26be d17c d8bd 16a9 de3d
00000080: 69d2 68be 9df4 bf3d 3cc2 b5be 37b3 d6bd
00000090: 1e82 ffbc fb8a 563d 56d9 02bd 0911 5ebd
000000a0: e09f 043e 9ab8 c03c 4c3e 833d 4bc7 4cbc
000000b0: fad2 453d 2967 2f3e ad8b 34be 206e 60be
000000c0: 2f1b 123e 7fbb 143d

gnn.fc.weight f4 [50, 50]
-0.058278613 -0.054142114 -0.4409033 -0.03214802 0.12611157 0.013181245 0.02561802 -0.0057688328
-0.096155256 -0.1418555 -0.27479884 0.5083793 0.29763168 -0.045773797 -0.12654167 -0.29516852
0.18067923 -0.27228335 0.06410895 0.03893218 0.30672944 0.065143466 0.21785167 0.5287398
-0.13443656 -0.24971616 -0.16315821 0.21839756 -0.12869294 0.21112557 -0.19063 0.17801797
-0.061240222 0.10369191 0.11871181 -0.18458119 0.40148112 -0.12867506 -0.22391106 -0.2365244
-0.042342 0.009285636 0.08443605 -0.079381526 0.26983312 0.2552453 -0.111701764 0.21402925
-0.10333768 -0.23007767 -0.005705616 -0.39635187 -0.5541897 0.22369215 0.23894542 0.8966484
0.6154775 0.04788561 -0.40573943 -0.4564361 0.24902342 -0.35354033 0.08731969 0.1548332
-0.1958473 -0.52264655 0.31029418 0.23379374 0.009710713 -0.48201033 -0.37121218 -0.5209499
-0.111092664 0.14711961 -0.07545927 0.17467126 -0.02947921 -0.004190384 -0.61386317 -0.22085886
-0.092420354 -0.016319988 -0.15773197 0.0533505 0.3457572 0.32566044 -0.07495227 -0.068882726
-0.19880922 0.053676732 0.16790521 -0.15309778 0.4064499 0.04709084 -0.1607896 -0.03569311
-0.06459294 0.025891481 -0.4326429 -0.5101835 0.39120632 -0.114032395 0.057310704 -0.04908801
0.067905866 0.31927046 -0.22224633 -0.089209795 -0.029758507 -0.09945856 0.18887775 -0.15651308
0.24960807 -0.06141557 -0.12851924 -0.54735744 0.31307232 -0.14014922 -0.23786128 -0.2762052
0.263536 0.13455334 0.21411365 0.1413001 0.28398177 0.4292892 0.15131089 0.16283287
0.25286958 0.007882981 -0.20352967 0.18232915 0.02054563 -0.0968588 -0.15125044 0.1671605
0.29712516 0.015547648 0.082086965 0.46012548 0.15748478 -0.14662002 -0.19151601 0.10433593
-0.2592399 0.111585915 0.023956612 -0.17493767 -0.070571095 0.08742768 -0.14361845 0.01964534
-0.34431228 -0.5439714 0.0986465 -0.018908078 0.2701766 0.46734434 0.26172924 -0.22254932
0.1127214 0.23073807 -0.49148855 -0.042402703 0.26229072 0.09201915 -0.07686609 -0.60010004
-0.45040897 0.17198883 0.18022409 0.2511905 -0.4312298 0.12792258 0.09703655 -0.10677541
0.30124184 0.18947355 -0.08991086 0.17353944 -0.041780457 -0.5308729 -0.08533452 -0.14452422
-0.10045118 -0.021144757 0.1882994 0.2310222 -0.091402456 -0.13571505 0.28340682 0.0036019417
-0.31533742 -0.6488214 -0.4285704 -0.14780456 -0.28527522 0.16656788 0.032954816 0.06555794
0.42244443 -0.22707663 -0.0060074395 -0.1404489 -0.12992558 -0.018260788 -0.19653048 0.09606891
-0.19522874 0.1456522 -0.17412533 0.5612771 -0.52676207 -0.47558945 0.16425064 -0.3620286
-0.0036286886 0.1972057 0.056799397 0.22323097 -0.10272131 0.09161665 -0.10152429 0.2796932
0.3310509 0.15656008 -0.14624918 0.2989619 -0.17592268 0.09803649 0.30201548 -0.28590223
-0.10973797 -0.0025899063 0.17723183 0.51093763 -0.28508532 -0.11267603 -0.5695889 -0.2285674
-0.16903923 -0.39724186 0.33360094 -0.15212065 -0.15132499 0.23509407 0.107920066 0.21682
-0.11180956 0.16038577 0.25077045 0.040699173 0.43395916 0.28376058 0.22351289 -0.36541554
00000000: 8eb5 6ebd 1fc4 5dbd 14be e1be a4ad 03bd
00000010: 6423 013e 26f6 573c e2dc d13c 7a08 bdbb
00000020: 0ced c4bd 9142 11be 6fb2 8cbe 2525 023f
00000030: 2e63 983e 4e7d 3bbd 2494 01be 5420 97be
00000040: fa03 393e b968 8bbe 8e4b 833d 5977 1f3d
00000050: a40b 9d3e f069 853d 8214 5f3e 7e5b 073f
00000060: bda9 09be 98b5 7fbe f212 27be 9ca3 5f3e
00000070: 15c8 03be 4d31 583e 8334 43be 584a 363e
00000080: 07d7 7abd 6d5c d43d 2d1f f33d da02 3dbe
00000090: ef8e cd3e 65c3 03be f148 65be 7433 72be
000000a0: ce6e 2dbd c822 183c cfec ac3d c892 a2bd
000000b0: 9127 8a3e 83af 823e e5c3 e4bd 7c2a 5b3e
000000c0: b5a2 d3bd 7b99 6bbe 2df6 babb a2ee cabe
000000d0: 60df 0dbf 8e0f 653e 1cae 743e c08a 653f
000000e0: ef8f 1d3f b423 443d 14bd cfbe feb1 e9be
000000f0: ffff 7e3e 3d03 b5be aad4 b23d 988c 1e3e
00000100: 328c 48be 2acc 05bf e1de 9e3e a067 6f3e
00000110: af19 1f3c 0fca f6be 860f bebe f95c 05bf
00000120: 8d84 e3bd 86a6 163e 648a 9abd 06dd 323e
00000130: 627e f1bc 7d4f 89bb 2326 1dbf d328 62be
00000140: e246 bdbd 7fb1 85bc 7d84 21be 0e86 5a3d
00000150: 1607 b13e f7bc a63e 9380 99bd 6312 8dbd
00000160: a594 4bbe 22dc 5b3d 58ef 2b3e aac5 1cbe
00000170: 341a d03e 53e2 403d 07a6 24be f032 12bd
00000180: 4e49 84bd 5f1a d43c 5f83 ddbe 639b 02bf
00000190: 324c c83e d189 e9bd a1be 6a3d 8210 49bd
000001a0: 3b12 8b3d 6b77 a33e 8b94 63be a0b3 b6bd
000001b0: 1dc8 f3bc eeb0 cbbd 2b69 413e f744 20be
000001c0: 4299 7f3e e58e 7bbd 8c9a 03be 9e1f 0cbf
000001d0: 044b a03e 4783 0fbe e891 73be c56a 8dbe
000001e0: 31ee 863e 5ac8 093e 9c40 5b3e f9b0 103e
000001f0: 0f66 913e cbcb db3e 3ef1 1a3e a9bd 263e
00000200: 1f78 813e 9e27 013c 156a 50be 7eb4 3a3e
00000210: 4f4f a83c e85d c6bd 65e1 1abe 1f2c 2b3e
00000220: ca20 983e 90bb 7e3c 361d a83d 9195 eb3e
00000230: b143 213e 8f23 16be c61c 44be 13ae d53d
00000240: 18bb 84be 2887 e43d a840 c43c dc22 33be
00000250: 9487 90bd 490d b33d b710 13be 44ef a03c
00000260: b349 b0be b641 0bbf 2d07 ca3d 1de5 9abc
00000270: 9654 8a3e c247 ef3e 6001 863e f8e3 63be
00000280: 7ada e63d 9a46 6c3e 63a4 fbbe 75ae 2dbd
00000290: f84a 863e 8974 bc3d f86b 9dbd 28a0 19bf
000002a0: 019c e6be d71d 303e aa8c 383e 0b9c 803e
000002b0: 27ca dcbe 23fe 023e 19bb c63d 11ad dabd
000002c0: 5f3c 9a3e 5b05 423e 2f23 b8bd 53b4 313e
000002d0: fc21 2bbd 49e7 07bf ddc3 aebd 28fe 13be
000002e0: 59b9 cdbd c537 adbc 8fd1 403e 1591 6c3e
000002f0: 3631 bbbd e3f8 0abe b31a 913e 8e0e 6c3b
00000300: e873 a1be 2919 26bf 946d dbbe 145a 17be
00000310: 980f 92be c590 2a3e a1fb 063d 3e43 863d
00000320: a34a d83e c786 68be 0eda c4bb d6d1 0fbe
00000330: 360b 05be a697 95bc 493f 49be c7bf c43d
00000340: 0bea 47be da25 153e e94d 32be dbaf 0f3f
00000350: e1d9 06bf 7680 f3be 5231 283e d05b b9be
00000360: 4bcf 6dbb 4bf0 493e 7ca6 683d a996 643e
00000370: 8d5f d2bd 83a1 bb3d f8eb cfbd f233 8f3e
00000380: 817f a93e 4951 203e 58c2 15be 8911 993e
00000390: 1325 34be 5bc7 c83d c6a1 9a3e c761 92be
000003a0: 4dbe e0bd 6bbb 29bb 437c 353e cfcc 023f
000003b0: b4f6 91be b1c2 e6bd 94d0 11bf 930d 6abe
000003c0: 9f18 2dbe 4963 cbbe becd aa3e 84c5 1bbe
000003d0: f0f4 1abe 80bc 703e 3205 dd3d 1006 5e3e
000003e0: 69fc e4bd 2b3c 243e fc64 803e 2db4 263d
000003f0: e52f de3e 1149 913e 90e0 643e bf17 bbbe
